DVC/examples/flow_pretrain_np/modelL3_F-3-weight.npy (npy, 401536 bytes, 1 tensors)

array f4 [32, 64, 7, 7]
-0.02861355 0.01251892 0.044103663 0.01907364 0.06242394 -0.019337978 -0.030741515 -0.023901835
0.027029347 -0.019572563 -0.076265074 0.085211135 0.03234467 -0.038425446 0.019518064 -0.074797064
-0.008538043 -0.0046638893 0.08537051 0.020453947 0.03614811 -0.053179756 -0.07611878 0.12647334
0.20503584 0.042585075 -0.09221567 -0.056919612 0.03871111 -0.09134281 0.008663594 0.008004172
-0.09670397 -0.053625587 0.0692484 0.13737027 -0.0142021375 -0.08508658 -0.078053564 0.018258985
0.0519277 0.042573232 -0.03782095 0.021811763 0.054248534 -0.041819323 0.0035109196 -0.041666612
-0.0225188 0.0007425487 0.14340688 -0.040537316 0.00047611774 0.10290733 0.14800431 0.01758629
0.13826093 0.15402178 0.06933276 0.009520541 0.07870841 0.014092221 0.084836245 0.15637212
-0.064468026 0.0019341548 -0.100075096 -0.107218616 -0.16109999 0.06777298 0.04549864 -0.1647008
-0.114090756 -0.12237208 -0.4541636 -0.01833437 0.09206242 0.1518115 0.041607983 -0.008373242
-0.13989942 -0.7051825 -0.24750614 0.048097808 0.048748717 0.034886297 -0.015446477 -0.0010979996
-0.25654745 -0.045546994 0.15862128 -0.07199159 -0.041812427 0.059764266 0.05140667 -0.0035978372
0.05616669 0.09553815 -0.22862065 0.032007977 0.010574243 0.025653595 0.08782562 -0.014159814
0.394368 -0.23114133 -0.033539068 0.03928788 0.06235547 0.11946425 0.041986376 0.12901251
-0.14582013 -0.10651611 -0.21438128 0.019393533 -0.09871353 -0.04289228 0.08807557 -0.0686071
0.014521055 -0.118897334 0.11435669 -0.041926436 -0.08521465 0.20019194 -0.2566449 0.020823592
-0.05723249 -0.057940505 0.017570484 0.03268411 0.2802729 -0.24692646 0.0297489 0.09893446
0.0034839388 0.025522728 0.034262538 0.24624673 -0.118735224 -0.020907238 -0.015488279 0.038240153
0.05759935 0.12769704 0.29593536 0.087207966 -0.020914549 -0.041689567 0.025468929 0.07867913
0.016551998 -0.04807357 0.08725282 -0.07559855 -0.05530929 0.04851452 0.03748665 0.029326234
-0.0633671 0.104845986 0.03106679 -0.060042605 -0.071452506 -0.08866584 0.011750204 -0.07071266
0.043015327 0.020662842 -0.040661726 -0.051397476 -0.08879599 0.064951666 0.036196694 0.1335197
0.016379181 0.052065354 0.04217164 -0.07721702 -0.09406578 -0.034206785 0.13110308 -0.018887823
0.016557248 0.054225408 -0.004472676 -0.08998067 -0.019064626 0.012645628 -0.071588755 -0.12290112
-0.07238253 -0.051262077 -0.0031063964 0.0006672771 -0.06832363 0.111583896 -0.08839105 -0.11561167
0.074917406 -0.027560165 0.16861263 -0.014291949 -0.028990963 -0.14983222 -0.06351675 0.117024444
0.07443926 0.15454867 -0.11707979 0.018429348 0.11294458 0.07097984 -0.068954006 -0.064509585
0.1144161 -0.12621017 0.0677205 0.08978353 -0.018307474 -0.09812098 -0.14580388 0.11478311
0.031711545 0.041394092 0.04355291 -0.031580824 -0.0012842735 0.052183263 0.17912272 -0.05977592
-0.020199534 -0.025026001 0.028656177 0.05787669 -0.028550668 0.13113321 -0.010945772 -0.012029565
0.042326603 -0.0071411943 0.058845945 0.054223657 0.2953162 0.038406003 -0.0014728577 0.010529324
0.0074040988 -0.011496034 0.008218873 0.018916123 0.010589279 -0.043185394 -0.03659102 0.037981275
00000000: f766 eabc 281c 4d3c 0ba6 343d 5340 9c3c
00000010: 3fb0 7f3d ae6a 9ebc a1d5 fbbc c8cd c3bc
00000020: a66c dd3c a456 a0bc dd30 9cbd 2d83 ae3d
00000030: d87b 043d 0064 1dbd 59e4 9f3c 342f 99bd
00000040: 26e3 0bbc 8ad3 98bb bcd6 ae3d 098f a73c
00000050: 0a10 143d 04d3 59bd 2ae4 9bbd 3a82 013e
00000060: eaf4 513e b06d 2e3d 92db bcbd 8a24 69bd
00000070: 8a8f 1e3d f011 bbbd bff1 0d3c ee23 033c
00000080: bb0c c6bd 81a6 5bbd 1bd2 8d3d cbaa 0c3e
00000090: 15b0 68bc df41 aebd 8cda 9fbd de93 953c
000000a0: 24b2 543d 4561 2e3d 24ea 1abd 95ae b23c
000000b0: b633 5e3d bd4a 2bbd 7517 663b 9caa 2abd
000000c0: 5979 b8bc 9aa7 423a 41d9 123e 750a 26bd
000000d0: 719f f939 14c1 d23d 718e 173e 2011 903c
000000e0: 4694 0d3e e3b7 1d3e 56fe 8d3d 0bfc 1b3c
000000f0: e031 a13d 0fe3 663c a0be ad3d 0320 203e
00000100: d007 84bd 7783 fd3a 2cf4 ccbd 6f95 dbbd
00000110: 65f7 24be 8fcc 8a3d c85c 3a3d 54a7 28be
00000120: 6aa8 e9bd 379e fabd 2288 e8be f631 96bc
00000130: 398b bc3d 7974 1b3e 226d 2a3d ec2f 09bc
00000140: cb41 0fbe d786 34bf 4072 7dbe 3502 453d
00000150: bcac 473d efe4 0e3d 3813 7dbc c1ea 8fba
00000160: 305a 83be 7c8f 3abd 9e6d 223e 5470 93bd
00000170: 8243 2bbd 60cb 743d cd8f 523d b1c9 6bbb
00000180: 0b0f 663d 81a9 c33d 881b 6abe cc1a 033d
00000190: 973f 2d3c 7d27 d23c ebdd b33d 91fe 67bc
000001a0: 9aea c93e 50b0 6cbe 4360 09bd 54ec 203d
000001b0: 7368 7f3d aca9 f43d e8f9 2b3d db1b 043e
000001c0: df51 15be 1e25 dabd c486 5bbe 30df 9e3c
000001d0: 522a cabd d1af 2fbd f760 b43d e181 8cbd
000001e0: b8e9 6d3c 7280 f3bd d733 ea3d 0ebb 2bbd
000001f0: 0585 aebd 1eff 4c3e f666 83be 3d96 aa3c
00000200: 9e6c 6abd 0653 6dbd faef 8f3c c6df 053d
00000210: ee7f 8f3e 4ada 7cbe f7b3 f33c 269e ca3d
00000220: cb52 643b 0a15 d13c e056 0c3d 1a28 7c3e
00000230: 742b f3bd a845 abbc 8dc2 7dbc b5a1 1c3d
00000240: 4ced 6b3d 03c3 023e d784 973e 179a b23d
00000250: fd54 abbc aec2 2abd 37a4 d03c 8622 a13d
00000260: 0e98 873c cbe8 44bd 9bb1 b23d 6ad3 9abd
00000270: fe8b 62bd 29b7 463d 9a8b 193d 923d f03c
00000280: 9cc6 81bd 7eb9 d63d c87f fe3c 3cef 75bd
00000290: b155 92bd 7096 b5bd ed83 403c cdd1 90bd
000002a0: d730 303d 1f45 a93c e98c 26bd 2986 52bd
000002b0: acda b5bd 6105 853d fc42 143d 63b9 083e
000002c0: a22d 863c 7b42 553d 2bbc 2c3d f523 9ebd
000002d0: 8fa5 c0bd 6a1c 0cbd e33f 063e a3ba 9abc
000002e0: 11a3 873c 761b 5e3d 878f 92bb c947 b8bd
000002f0: 6b2d 9cbc 9c2f 4f3c 209d 92bd 95b3 fbbd
00000300: 4b3d 94bd 2ff8 51bd af94 4bbb 35ec 2e3a
00000310: 42ed 8bbd 1986 e43d 5e06 b5bd d0c5 ecbd
00000320: 4c6e 993d dbc5 e1bc caa8 2c3e c728 6abc
00000330: 757e edbc 9e6d 19be 1215 82bd 83aa ef3d
00000340: 9c73 983d 0242 1e3e 87c7 efbd 25f9 963c
00000350: 7d4f e73d e15d 913d c237 8dbd 9a1d 84bd
00000360: fd52 ea3d 3d3d 01be 0cb1 8a3d 6de0 b73d
00000370: 8ef9 95bc a7f3 c8bd 9d4d 15be 6813 eb3d
00000380: f7e3 013d da8c 293d 8964 323d e55a 01bd
00000390: 1155 a8ba 1ebe 553d f26b 373e 98d7 74bd
000003a0: 7e79 a5bc 5403 cdbc 5cc0 ea3c 1c10 6d3d
000003b0: 17e3 e9bc c947 063e e555 33bc a717 45bc
000003c0: a95e 2d3d ae00 eabb 7208 713d a019 5e3d
000003d0: af33 973e 9d4f 1d3d e70c c1ba 3083 2c3c
000003e0: 159e f23b dd59 3cbc 74a8 063c fcf5 9a3c
000003f0: a87e 2d3c 2be3 30bd 77e0 15bd 4192 1b3d
