DVC/examples/flow_pretrain_np/modelL5_F-4-weight.npy (npy, 100480 bytes, 1 tensors)

array f4 [16, 32, 7, 7]
0.04193281 0.052870728 0.007295474 0.09016345 -0.002142262 0.020062495 0.0041047605 0.051652078
0.027610375 0.0014970306 0.04465687 -0.023125466 0.0118707325 0.014021526 0.0011842506 0.023784643
0.008940112 0.028161798 0.034958784 0.011657011 -0.022566428 0.056253523 0.04252835 0.014750628
0.018126888 -0.0065758345 0.04380226 0.075547546 0.04419593 0.035218306 0.038575787 0.075608164
-0.02751829 -0.022641812 0.007733712 0.031453256 0.011538367 0.020449845 0.07714801 0.013732727
0.03595696 -0.030186703 -0.03184492 0.047002718 0.011404944 -0.009276085 -0.030338546 0.04620321
0.01592505 -0.0027666138 0.05802125 -0.04314132 0.030872632 -0.0009251972 -0.016698295 -0.10858665
0.030314673 -0.02781966 -0.0040613646 -0.0012164777 0.009079448 -0.09811219 0.036048837 -0.18598576
-0.028536595 0.061316963 0.02599317 -0.023550786 -0.02004231 -0.080428794 0.097722396 0.053861167
0.11394676 0.046751093 -0.01675976 0.037940234 0.037619524 -0.15034552 -0.19404805 0.1636696
-0.04396442 -0.010517179 -0.008090256 -0.03526678 0.037418157 -0.11777901 0.0950426 -0.006428945
-0.08417331 0.05011518 0.027152957 -0.060052406 0.03482876 -0.0046396577 0.05450664 0.028399622
-0.06452351 -0.053810444 -0.004173234 0.0022584207 0.0010007002 -0.040164683 -0.034876805 0.015844664
-0.016759152 0.0820049 -0.011161585 -0.014411294 0.025912363 -0.005416929 0.009929346 0.014389774
0.0337754 -0.006153369 0.038796168 0.031523615 0.019468104 0.022435358 0.01665532 -0.15104318
0.024662808 0.021697743 0.010167342 -0.030002596 0.010124657 -0.015569447 -0.14212489 0.072924055
0.03076256 0.012562004 -0.0069885803 0.00030638144 -0.021507349 -0.035642914 -0.06911004 -0.0013019085
-0.019819058 -0.035626035 0.007504722 -0.054409564 0.16705975 -0.016785316 -0.025537549 0.0102655785
0.01518375 0.055370767 -0.0030360867 0.059241045 0.03205637 0.018358948 0.054816622 0.029334899
0.006919919 0.034137346 0.022547532 0.00834212 0.028431764 0.0374224 0.011204135 0.014630658
0.038098045 -0.0037104604 0.0319413 0.027574852 0.05089713 0.031022005 0.045235574 0.045660153
0.043504935 0.03271313 0.027126677 0.094875135 0.03677552 0.014743083 0.0041393554 0.011156741
0.01181713 -0.023738535 0.08525476 0.023265542 -0.02388413 0.02643005 0.0267505 0.0474738
0.005484022 0.08597225 -0.027853822 -0.023877056 0.029283639 0.066456795 0.057139847 -0.017865896
0.019818796 -0.0073662484 0.046874892 0.030221306 -0.056456447 -0.063148886 -0.13459979 -0.03792232
-0.08446753 -0.05814421 -0.07358477 0.0083361035 0.011934793 0.004038269 0.07313584 0.04919242
0.012461922 0.017363109 -0.03474426 -0.012747139 0.03325402 0.056651883 -0.015234848 0.0013462163
-0.051899973 -0.016202178 0.0371757 0.08382503 0.06532643 -0.0049872 0.04374702 0.05359525
-0.0150248865 0.01079293 0.022808816 -0.023269271 -0.042998016 0.011557371 -0.035323694 -0.041243583
0.06698872 0.010564082 -0.039878927 -0.06868615 -0.009682672 -0.030677384 -0.05597445 -0.055061385
-0.0398332 -0.007814343 -0.004863516 -0.010416164 -0.022446768 -0.4236409 0.007508376 -0.08666629
-0.048235316 -0.03332311 -0.007714788 -0.101576656 -0.070953436 0.08427298 -0.0049284464 0.031928275
00000000: bdc1 2b3d fa8e 583d df0e ef3b 9da7 b83d
00000010: 3165 0cbb 1a5a a43c 3a81 863b 2191 533d
00000020: 272f e23c 0338 c43a 1fea 363d 9e71 bdbc
00000030: 767d 423c 8bba 653c db38 9b3a 03d8 c23c
00000040: 8c79 123c 92b3 e63c f130 0f3d 0cfd 3e3c
00000050: 3bdd b8bc 186a 663d 3532 2e3d 9eac 713c
00000060: d77e 943c 197a d7bb 006a 333d acb8 9a3d
00000070: cb06 353d 1241 103d a501 1e3d 74d8 9a3d
00000080: 096e e1bc 527b b9bc 146b fd3b 21d5 003d
00000090: 6b0b 3d3c 6f86 a73c c7ff 9d3d 3bff 603c
000000a0: 9b47 133d 1b4a f7bc d26f 02bd ec85 403d
000000b0: cddb 3a3c b8fa 17bc 8b88 f8bc 943f 3d3d
000000c0: 4075 823c 1450 35bb b1a7 6d3d f4b4 30bd
000000d0: 9ae8 fc3c ef88 72ba ddca 88bc ad62 debd
000000e0: 7a56 f83c 0ee6 e3bc 3215 85bb 3872 9fba
000000f0: f7c1 143c 0bef c8bd f2a7 133d 0d73 3ebe
00000100: 94c5 e9bc 7f27 7b3d a1ef d43c 94ed c0bc
00000110: c52f a4bc dab7 a4bd ae22 c83d 879d 5c3d
00000120: eb5c e93d 137e 3f3d c44b 89bc 3867 1b3d
00000130: ee16 1a3d 2df4 19be 88b4 46be 0199 273e
00000140: 0914 34bd 3f50 2cbc fe8c 04bc e673 10bd
00000150: c843 193d 1f36 f1bd b2a5 c23d e6a9 d2bb
00000160: 0e63 acbd 9345 4d3d e16f de3c 83f9 75bd
00000170: 9aa8 0e3d 4508 98bb 5b42 5f3d 53a6 e83c
00000180: e724 84bd 5768 5cbd a0bf 88bb 0302 143b
00000190: ed29 833a b983 24bd fbda 0ebd abcc 813c
000001a0: 7d4a 89bc 2ff2 a73d 15df 36bc 591d 6cbc
000001b0: 2a46 d43c 7e80 b1bb b2ae 223c 16c3 6b3c
000001c0: 1358 0a3d 33a2 c9bb bbe8 1e3d e81e 013d
000001d0: 937b 9f3c 5bca b73c bd70 883c 10ab 1abe
000001e0: a809 ca3c 77bf b13c ec94 263c 01c8 f5bc
000001f0: e4e1 253c fe16 7fbc 3089 11be 3559 953d
00000200: c401 fc3c ddd0 4d3c 7600 e5bb d2a1 a039
00000210: 2e30 b0bc 4efe 11bd 9189 8dbd cda4 aaba
00000220: 945b a2bc 9bec 11bd 2cea f53b 90dc 5ebd
00000230: b611 2b3e 5c81 89bc 1f34 d1bc f530 283c
00000240: 43c5 783c 75cc 623d 15f9 46bb bda6 723d
00000250: 8a4d 033d 8165 963c 6587 603d be4f f03c
00000260: 7dc0 e23b 9ad3 0b3d 9ab5 b83c 63ad 083c
00000270: bbe9 e83c 3b48 193d 8c91 373c 6db5 6f3c
00000280: b20c 1c3d 322b 73bb e1d4 023d a8e4 e13c
00000290: 8279 503d dc21 fe3c f048 393d 2406 3b3d
000002a0: 3b32 323d 34fe 053d c438 de3c e54d c23d
000002b0: eda1 163d f98c 713c 6ea3 873b c3ca 363c
000002c0: a39c 413c 5177 c2bc 0c9a ae3d 6197 be3c
000002d0: a7a8 c3bc d583 d83c dd23 db3c e373 423d
000002e0: 50b3 b33b 3812 b03d b32d e4bc d199 c3bc
000002f0: 3ee4 ef3c 801a 883d 790b 6a3d 805b 92bc
00000300: 075b a23c 9260 f1bb e3ff 3f3d ac92 f73c
00000310: e03e 67bd 3454 81bd 87d4 09be 6f54 1bbd
00000320: 50fd acbd a028 6ebd 9db3 96bd 2794 083c
00000330: 268a 433c 7553 843b 3ec8 953d fe7d 493d
00000340: 172d 4c3c 143d 8e3c ff4f 0ebd 60d9 50bc
00000350: 5e35 083d ce0b 683d 959b 79bc 8673 b03a
00000360: 1195 54bd 6eba 84bc 8c45 183d 75ac ab3d
00000370: ddc9 853d aa6b a3bb 1330 333d b186 5b3d
00000380: f12a 76bc d4d4 303c 8ed9 ba3c 339f bebc
00000390: b01e 30bd 215b 3d3c 94af 10bd 08ef 28bd
000003a0: 6231 893d f914 2d3c 1658 23bd 53ab 8cbd
000003b0: 12a4 1ebc 234f fbbc 7745 65bd 0c88 61bd
000003c0: 2328 23bd bb07 00bc 215e 9fbb 8fa8 2abc
000003d0: 49e2 b7bc 76e7 d8be d308 f63b 197e b1bd
000003e0: 6592 45bd d07d 08bd 55cc fcbb 6c07 d0bd
000003f0: 0950 91bd 5097 ac3d ce7e a1bb 39c7 023d
