DVC/examples/flow_pretrain_np/modelL3_F-4-weight.npy (npy, 100480 bytes, 1 tensors)

array f4 [16, 32, 7, 7]
0	0x3d434791	0.047675673
1	0x3d67b54f	0.056569394
2	0x3c5532ce	0.013012601
3	0x3db35de6	0.08758144
4	0xbb29f2e7	-0.0025932135
5	0x3cf0c552	0.029390965
6	0x3cac5199	0.021035003
7	0x3d513c8d	0.051083136
8	0x3cd47b22	0.02593762
9	0x3761e4c3	1.3464308e-05
10	0x3d154098	0.036438555
11	0xbcd63a1b	-0.026150754
12	0x3c731990	0.014837638
13	0x3ca5d2e8	0.02024217
14	0xbabd4736	-0.0014440778
15	0x3cab92a9	0.020943956
16	0x3c024923	0.007952007
17	0x3cc0a9cc	0.023518465
18	0x3d0fddce	0.03512364
19	0x3c5cba9f	0.013472228
20	0xbc988ff1	-0.018623324
21	0x3d6556ab	0.055990856
22	0x3d28e7a6	0.041236542
23	0x3c82e1a5	0.015976736
24	0x3c997569	0.018732743
25	0xbba0e0f9	-0.0049096313
26	0x3d3933ae	0.0452153
27	0x3da1b377	0.07895558
28	0x3d41bbdd	0.0472983
29	0x3d1a46f2	0.037665315
30	0x3d2e869a	0.042608835
31	0x3da0b0d8	0.0784623
32	0xbca8895e	-0.020573314
33	0xbc6b30f2	-0.014354931
34	0x3c8f8338	0.017518625
35	0x3cd18669	0.025576787
36	0x3bb9ffae	0.0056762313
37	0x3c97db76	0.018537264
38	0x3d92227b	0.07135483
39	0x3c662007	0.014045722
40	0x3d2a73ff	0.04161453
41	0xbcbc9104	-0.023018368
42	0xbd41287e	-0.047157757
43	0x3d0cddd5	0.034391243
44	0x3be3a54a	0.006947194
45	0xbc847769	-0.01617022
46	0xbd03d8f2	-0.032189317
47	0x3d494569	0.04913846
48	0x3cbc34c4	0.02297438
49	0xbd04e7c1	-0.03244758
50	0x3d4e40f1	0.0503549
51	0xbd605f79	-0.05477855
52	0x3cd2277f	0.025653599
53	0xbc1af2ff	-0.009457349
54	0xbcf3ec32	-0.029775713
55	0xbde11db4	-0.109919935
56	0x3bf457dd	0.007456763
57	0xbcd98995	-0.026554862
58	0xbbba9e82	-0.005695165
59	0xb88c7325	-6.6971676e-05
60	0xbc565b6d	-0.013083321
61	0xbdff99a7	-0.12480479
62	0x3d000a4a	0.031259812
63	0xbe50fc4b	-0.20408742
64	0xbc83a0a4	-0.01606781
65	0x3d7baf01	0.061446194
66	0x3cddb8f1	0.027065726
67	0xbd417942	-0.04723478
68	0xbd28c1b2	-0.041200347
69	0xbdb41c4f	-0.08794462
70	0x3db06532	0.086130515
71	0x3d961ddf	0.07329916
72	0x3dd8910a	0.10574539
73	0x3d4fc2b2	0.050722785
74	0xbcd71f3d	-0.026260013
75	0x3d206832	0.03916187
76	0x3d12ec74	0.03587003
77	0xbe2f160f	-0.17098258
78	0xbe3dbb73	-0.18528537
79	0x3e13ce20	0.14434099
80	0xbd195615	-0.03743561
81	0xbc8df782	-0.017329935
82	0xbca0c9c3	-0.019627457
83	0xbd5d1f21	-0.053984765
84	0x3c8d0143	0.017212516
85	0xbde480fb	-0.111574136
86	0x3d992ca4	0.07479218
87	0x3c293d9a	0.010329628
88	0xbdadef86	-0.08492951
89	0x3d0ef7bd	0.03490423
90	0x3c2fb072	0.01072322
91	0xbdb913b6	-0.09036963
92	0x3d1f8943	0.038949262
93	0xbcbda5ed	-0.023150409
94	0x3d8f7505	0.070047416
95	0x3d0104d7	0.031498756
96	0xbd97efb1	-0.074187644
97	0xbd77e81a	-0.060524084
98	0xbc1e5498	-0.009663723
99	0x3ca71f14	0.020400561
100	0x3c447190	0.011989966
101	0xbcdd2d6d	-0.0269992
102	0xbc788cab	-0.015170257
103	0x3cfadbec	0.030622445
104	0x3a27144a	0.0006373568
105	0x3d9a2101	0.07525826
106	0xbbac2241	-0.005253107
107	0xbbe080c9	-0.00685129
108	0x3d1eaab3	0.03873701
109	0x3be2c713	0.006920704
110	0x3c908f50	0.017646462
111	0x3cee001e	0.02905279
112	0x3c840ccb	0.016119381
113	0xbb921456	-0.0044579906
114	0x3d15f63a	0.036611773
115	0x3cd246c1	0.025668504
116	0x3c5451c8	0.012958951
117	0x3c882700	0.01662016
118	0x3ca76a09	0.020436304
119	0xbe33f441	-0.17573644
120	0x3c4ae31e	0.0123832505
121	0x3bc1be2e	0.0059125638
122	0xbc482b3f	-0.012217342
123	0xbd58ce6e	-0.05293124
124	0xba9a827a	-0.0011788153
125	0xbc8bff6e	-0.017089572
126	0xbe2aa998	-0.16666257
127	0x3d3a43f7	0.045474973
128	0x3c21b274	0.009869207
129	0xbc6ba1cb	-0.014381836
130	0xbd082fd0	-0.033248723
131	0xbc3bfea8	-0.011474289
132	0xbcb3e4a0	-0.021959603
133	0xbd531c7f	-0.051540848
134	0xbdcb7e98	-0.09936255
135	0xbcba50b1	-0.022743555
136	0xbd46901a	-0.04847727
137	0xbd80985f	-0.062790625
138	0xbb4fa2db	-0.0031682763
139	0xbd6cbf3e	-0.05779957
140	0x3e2e0d34	0.16997224
141	0xbcbe6a57	-0.023244066
142	0xbd125dac	-0.035733864
143	0xbbaca9fa	-0.005269286
144	0x3a59424d	0.00082877727
145	0x3d590123	0.0529796
146	0x392709ad	0.00015929966
147	0x3d5c04e5	0.053715605
148	0x3cc085b2	0.02350125
149	0x3c3efdc8	0.011657186
150	0x3d5a5832	0.053306766
151	0x3cb07bcb	0.021543404
152	0xba1f9fa0	-0.00060891546
153	0x3d0c36ac	0.034231827
154	0x3cab88db	0.020939281
155	0x3ba4bc55	0.0050273337
156	0x3cbc78b6	0.023006778
157	0x3d0cbb90	0.03435856
158	0x3ab7c869	0.0014021519
159	0x3b61e06c	0.0034466041
160	0x3cf2c97a	0.029637087
161	0xbb898531	-0.004196786
162	0x3d00fda0	0.031491876
163	0x3cba6b5a	0.022756267
164	0x3d507c57	0.05089983
165	0x3ce669dd	0.028126651
166	0x3d18186b	0.03713266
167	0x3d09d439	0.033649657
168	0x3d2993df	0.041400786
169	0x3cf8a5a3	0.03035242
170	0x3ca58dff	0.02020931
171	0x3dc03565	0.09385184
172	0x3d1e151f	0.03859436
173	0x3bfc3dba	0.007697788
174	0xbc12adce	-0.008952571
175	0x3c786ea3	0.015163097
176	0x3c43865d	0.01193389
177	0xbce6b03f	-0.028160213
178	0x3db5a784	0.08869842
179	0x3ce8de30	0.02842626
180	0xbced43f6	-0.02896307
181	0x3c9c047e	0.01904511
182	0x3cd3b80b	0.025844594
183	0x3d315f9d	0.043304075
184	0xbb29a9f4	-0.0025888653
185	0x3db59211	0.088657506
186	0xbcddb453	-0.027063524
187	0xbd057881	-0.032585625
188	0x3c9fbdc5	0.019499669
189	0x3d75e324	0.06003107
190	0x3d5856da	0.052817203
191	0xbcb41024	-0.021980353
192	0x3cbd457f	0.023104427
193	0xbbfed2c3	-0.0077765896
194	0x3d28eb88	0.041240245
195	0x3cb09cd4	0.021559156
196	0xbd72d94a	-0.059289254
197	0xbd768f37	-0.060195174
198	0xbe02111d	-0.1270184
199	0xbcef0450	-0.029176861
200	0xbd999487	-0.074990325
201	0xbd4c1752	-0.049826927
202	0xbd87313f	-0.0660119
203	0x3b5d0d03	0.003372968
204	0x3c4acfda	0.012378657
205	0x3beff93d	0.0073234127
206	0x3d9cdc1b	0.07659169
207	0x3d646e53	0.055769276
208	0x3c98eeaa	0.018668491
209	0x3cb44231	0.022004219
210	0xbd1454e5	-0.036213774
211	0xbc4a95f9	-0.012364858
212	0x3d0627f1	0.032752935
213	0x3d6cc848	0.05780819
214	0xbc06adb2	-0.008220123
215	0x3bfc9de8	0.0077092536
216	0xbd40b357	-0.04704603
217	0xbca59f2a	-0.020217497
218	0x3d0ada70	0.033899724
219	0x3da431ec	0.08017334
220	0x3d8bbbb6	0.068229124
221	0x3a63ac2d	0.0008685019
222	0x3d38fd5d	0.0451635
223	0x3d564216	0.05230912
224	0xbcafb628	-0.021449164
225	0x3bb41615	0.0054957964
226	0x3cb7b228	0.022423819
227	0xbc7784e1	-0.015107364
228	0xbd1c88e5	-0.03821649
229	0x3c1c5b29	0.009543219
230	0xbd2bc55b	-0.04193626
231	0xbd35fa18	-0.04442796
232	0x3d86adf6	0.06576149
233	0x3c88aedf	0.016684948
234	0xbcf94a25	-0.030430863
235	0xbd85e841	-0.065384395
236	0xbc382303	-0.011238816
237	0xbd15dcdc	-0.03658758
238	0xbd771713	-0.06032474
239	0xbd7088cf	-0.05872422
240	0xbd0b60e5	-0.034027953
241	0xbaf094d9	-0.0018354907
242	0xbba05c98	-0.0048938505
243	0xbc6f6ed4	-0.014613826
244	0xbcfe339f	-0.031030474
245	0xbee4a215	-0.4465491
246	0x3ccc8121	0.024963917
247	0xbda7e95a	-0.08198805
248	0xbd82480e	-0.063613996
249	0xbd4ab894	-0.049492434
250	0xbc649399	-0.013951206
251	0xbdff7fb5	-0.1247553
252	0xbdb31d2d	-0.08745799
253	0x3d9a7794	0.07542339
254	0xbcbd2353	-0.023088133
255	0x3c1cef1f	0.009578495
