DVC/examples/flow_pretrain_np/modelL2_F-1-weight.npy (npy, 50304 bytes, 1 tensors)

array f4 [32, 8, 7, 7]
00000000: 5f65 2abd 6161 4bbd 067a 27bd c0d5 ff3c
00000010: 3a57 b9bc ce53 743b 83d2 1dbd f200 3f3b
00000020: e588 2b3e 0008 4d3e 2c4a 193c 4c29 cd3c
00000030: 02ce 5ebb 1aba 44bd 0d3a fa3d 72a1 d73e
00000040: da7b 873e 52c3 c53c 0e52 8fbc 0f5e b4bc
00000050: 23ac 64bc 035c 8b3d d448 273e 7f56 72bc
00000060: 8796 49bd 61a2 0ebd b480 613c 9896 4ebc
00000070: bee6 b6bd 5ee1 8dbe fc36 a9be 67bd 13be
00000080: ee4a 2dbc 3bf8 933c 8a3d cebc 15e2 aebc
00000090: 20b4 fcbd b040 39be 744d 11bd e79f 66bc
000000a0: 5e0b 5a3c 5751 bdbc 38c3 0ebd c250 6a3b
000000b0: 71c4 9fbc 524e b4bc 8d81 c1bc 3e6d f13b
000000c0: 336b cdbc 4a00 a0ba 8de1 b6bd 7a25 34bd
000000d0: f145 e23c 0a17 ed3c 52c8 973c 164b 8e3d
000000e0: 8131 fa3b 74dd 513d 9cf1 bd3d 2fe8 d5bc
000000f0: 9547 49bd 8fbb a93b c409 6d3d 2e60 b2bc
00000100: 7a6f ac3e d9f3 2f3e b995 5ebb b636 77bc
00000110: dd49 9bbc f0e3 373c 0b91 32bc e988 da3d
00000120: 7443 57bd 1a3f 6cbd f542 323b 43c8 25bd
00000130: f217 033c fb7d 67bd 53e8 3dbe b0a6 70be
00000140: c967 8ebd 3762 de3b 8b6f 6a3c 124d 9b3c
00000150: d7a6 dd3c 4a70 1fbd 23a1 99bd d04f 8abc
00000160: 174e dc3a 7663 15ba 91ef 3a3c fc9d bbbb
00000170: 3b41 003d 4087 82bb a576 e13c 8b92 da3c
00000180: aa05 183c 22df 903c e4fd b93c efb3 b0bb
00000190: e5a6 0b3c e1aa 95bc 4b04 043c 3277 13bc
000001a0: e617 4ebd cd1c 5ebd ad09 003d 965a 6c3d
000001b0: c9e8 b739 8067 0e3d ef44 cf3b 2d4f 7abc
000001c0: 5670 15bc cf3f 4f3e e6cc 273e b46e ffbc
000001d0: dc56 fa39 09f2 8b3c 6e3d 14bc 5a30 dfba
000001e0: 6eca 29bc d8c4 5f3c d540 963c 46a0 10bc
000001f0: c7d8 ca3b 34fc 7cbb c33a 0b3d 92ef 27be
00000200: c6dc 35be b452 c0bc 4d16 92bc 40f6 d2bb
00000210: f472 ea3c 5ed9 9339 5167 7a3c ec98 85bc
00000220: 5951 96bb ad60 223d 4f97 82bb ba20 9bbc
00000230: a8f0 b23b 164d 023d 9d9f 2d3d c1ea b5bb
00000240: 514b 6ebc 8b50 0abc 9d6a 9139 c2bb 573c
00000250: 203d b93d b5ae 1a3d 0abf 71bc 11e5 7e3c
00000260: cf28 61bb 9a6f 143c baf3 44bc 2e19 cabd
00000270: 5f66 80be 9b8c 0ebd 93f9 19bb 9dcd ee3c
00000280: 188b dd3c bf7b 6fbd 0357 0abf 9829 efbe
00000290: e5ab 413c 5d37 293d 0cfb b13c 95c7 91bc
000002a0: 2dd4 6fbd 1944 23be 22cd 653d ecdf 3e3e
000002b0: 3e47 ad3d 3ddd 43bc 77f6 4e3c 0830 413d
000002c0: 1cce 813e 9765 dd3e 257e 2d3e 25e7 85bc
000002d0: 2ef6 6cbc 40c1 5c39 f363 6d3c be7b 373e
000002e0: b01d 343e ba26 503d c0fa 53bd 60ae 7abc
000002f0: efa6 1c3d d747 303c f4cc 6b3c 1c9e ae3b
00000300: 7d8f 2cbc aa2f 243d ba56 143c 933f 98bc
00000310: c898 3dbc 165f 993d 7984 cc3d f5dd 15bd
00000320: 0668 01bd b677 673c 5f5b 1bbd d113 463d
00000330: 4baf d8bc cb7a 43be cdac ad3c 9213 da3b
00000340: 6e85 81bd 5062 93b9 3f44 4bbc f668 92be
00000350: 7296 a6be 8ebf 423d a89b 2e3c fffd 3b3d
00000360: 7e29 533b f0da ecba ecc1 3fbe 2f27 263d
00000370: 6b99 233e 3d09 483b 03ec 39bc 7a81 6abc
00000380: d1ec 0f3d 1b67 513e 97f5 aa3e d598 833d
00000390: ed10 58bd b769 69bd 016e 003d 765f 3dbd
000003a0: c629 af3d 7a0d bd3d 5e4a cbbc a296 e93b
000003b0: 1f49 403d 11ca 63bb 4257 9fbc 3ed3 eabc
000003c0: f6e3 73bc 39f3 23bd 5adc 27bd ad02 34bc
000003d0: c273 43bb a60e 8ebc 6c06 133d 4a3d 45bd
000003e0: f91c be3b b22a aebc c7c2 afbc c81d 5a3d
000003f0: 62c6 dd3c 5f54 d03c 2da7 e3bd c823 6c3d
-0.04160058 -0.049653415 -0.040887855 0.031229854 -0.0226246 0.0037281397 -0.038530838 0.002914485
0.1675144 0.20022583 0.009356063 0.025044106 -0.0033997302 -0.048029043 0.122181036 0.4211536
0.2646168 0.024140988 -0.017495181 -0.022017507 -0.013957056 0.06804659 0.16336375 -0.01479113
-0.04921582 -0.034822825 0.013763595 -0.012609147 -0.08930729 -0.27711004 -0.33049762 -0.1442772
-0.010576947 0.018062701 -0.025175828 -0.021348039 -0.123390436 -0.18091083 -0.035474256 -0.01407621
0.013308374 -0.023110075 -0.034854144 0.0035753702 -0.01950285 -0.022010002 -0.023621345 0.007367759
-0.02507553 -0.0012207117 -0.08929739 -0.043981053 0.027621241 0.02894165 0.018528137 0.06947915
0.007635296 0.051236585 0.09274599 -0.02611169 -0.04914053 0.0051798294 0.05787064 -0.021774378
0.336788 0.17182864 -0.0033963753 -0.015088728 -0.01895612 0.011223778 -0.010898839 0.10670645
-0.052554563 -0.057677366 0.0027200554 -0.040474188 0.0080013145 -0.05651663 -0.18545656 -0.23501086
-0.06953389 0.0067866105 0.0143088205 0.018957648 0.027057094 -0.038925447 -0.075014375 -0.01688376
0.001680794 -0.000569872 0.011409656 -0.0057256203 0.03131221 -0.003983408 0.027522394 0.026681205
0.009278694 0.017684523 0.022704072 -0.0053925435 0.0085236775 -0.018269958 0.008057664 -0.009000586
-0.05031576 -0.054226685 0.031259228 0.057703577 0.00035077918 0.034766674 0.006325356 -0.015277666
-0.009121021 0.20239185 0.16386756 -0.031180717 0.0004774843 0.017083185 -0.009047849 -0.001702796
-0.010363204 0.013657771 0.018341461 -0.008827275 0.0061903927 -0.0038602473 0.033991586 -0.16399983
-0.1776 -0.023476936 -0.0178329 -0.0064380467 0.028619267 0.00028199976 0.015283422 -0.01630827
-0.004587334 0.03964298 -0.0039853225 -0.018936504 0.0054608174 0.031811796 0.042388547 -0.0055516665
-0.014544324 -0.0084420545 0.00027735988 0.013167324 0.09044862 0.03776427 -0.01475502 0.015557543
-0.00343566 0.009059811 -0.012021 -0.09868084 -0.25078103 -0.03480206 -0.0023494705 0.029150778
0.027043864 -0.058467623 -0.5403902 -0.4671142 0.011820768 0.041312564 0.021726154 -0.017795363
-0.058551956 -0.15943946 0.056103833 0.18640107 0.08460854 -0.011954603 0.012632004 0.047164947
0.2535256 0.4324157 0.16942652 -0.01634557 -0.014462991 0.00021052826 0.014489162 0.17918298
0.1758945 0.050818183 -0.051752806 -0.015300363 0.038245138 0.010759315 0.014392126 0.0053289067
-0.010532257 0.04008452 0.00905388 -0.018585002 -0.01157207 0.07488839 0.09986205 -0.036588628
-0.031593345 0.014127662 -0.037928935 0.048358742 -0.026450774 -0.1908981 0.021200562 0.006655165
-0.06324278 -0.00028111273 -0.012406408 -0.28595704 -0.32536656 0.047545962 0.0106572285 0.045896526
0.0032220776 -0.001807062 -0.18726319 0.040564712 0.15976493 0.0030523085 -0.0113477735 -0.014313096
0.035137955 0.20449488 0.33390495 0.06425635 -0.052750517 -0.056985583 0.031354908 -0.046233617
0.085528895 0.09231086 -0.024815734 0.0071285525 0.046944734 -0.0034757892 -0.019450787 -0.028665181
-0.014885893 -0.040026877 -0.040981628 -0.010986966 -0.0029823636 -0.01734097 0.035894796 -0.048154153
0.0058017937 -0.021260593 -0.021455182 0.053251058 0.027072135 0.025430856 -0.111158706 0.05765131
