DVC/examples/flow_pretrain_np/modelL4_F-4-weight.npy (npy, 100480 bytes, 1 tensors)

array f4 [16, 32, 7, 7]
00000000: 8c6a 343d 831d 693d cc9b 303c 8c16 b43d
00000010: 9096 81bb 3c96 bc3c eb66 eb3b 1143 4b3d
00000020: 3bb6 e03c 8a66 993a ae2b 263d 3240 d1bc
00000030: cf3e 503c 74bc 543c e88c 42bb 5c56 b63c
00000040: c360 093c c821 d13c 4564 083d 517e 4f3c
00000050: 3cb8 c1bc c7bc 573d 6c64 2a3d 150a 7c3c
00000060: 1ff3 933c 66de 02bc ec42 383d b9a3 993d
00000070: 8c0b 333d 3285 163d 42d7 283d 1749 a03d
00000080: 0e99 c7bc 9cee 8bbc 6938 3f3c f845 e53c
00000090: 47dd 193c 8ca9 9c3c 01dd 9a3d 7eda 633c
000000a0: 56bf 1e3d 8d31 e6bc 510d 20bd 68aa 2e3d
000000b0: 7a1e 253c 2618 30bc 072d 01bd f409 423d
000000c0: 78bc 953c bef2 9fbc 9b13 633d 87ab 4ebd
000000d0: 361d e83c 7157 3fbc e211 10bd 84b3 04be
000000e0: d303 9f3c 449b bcbc 09f1 e2bb 244a ef3a
000000f0: d6ed 8abb ad49 fabd 8a14 7f3c d6a5 44be
00000100: d5d0 6abc 27cc 793d d5a7 0e3d 064e 05bd
00000110: 689c 20bd c250 c8bd 019e bf3d 7e90 943d
00000120: 7a76 e63d c2c5 7b3d ba33 89bc c004 f73c
00000130: 10a7 d63c 50f1 21be 6685 38be 462f 213e
00000140: 1d71 e9bc a702 26bc 520c 98bc 9e35 50bd
00000150: a794 eb3c cb6b dabd 64a1 af3d 1360 063c
00000160: bb92 a9bd 5902 293d c890 773c 2b66 8cbd
00000170: a713 3c3d 5ec1 61bc 03e9 843d edd5 fd3c
00000180: 4066 8ebd c132 72bd a19d c1bc 3d19 cf3b
00000190: 5182 003c f064 13bd 8740 05bd 62f6 843c
000001a0: 820a 23bc 124a 853d c0f0 03bc 48c6 d2bb
000001b0: 89ce 013d 9186 55bb 68c3 1c3c f3c6 af3c
000001c0: 2e97 8d3c 802a c1ba 82c8 333d 82af 063d
000001d0: 3492 913c 9588 9f3c b40b ae3c 4056 2bbe
000001e0: 519a b73c f98c 903c b9e7 163b 82ee 22bd
000001f0: bfd6 363b 34b6 73bc a2dd 22be 8930 813d
00000200: c1cf b53c 9d0b 5cb7 fbcc a7bc 0915 03bc
00000210: 06cf b1bc 6a35 4fbd 0a15 a4bd ac4d 26bc
00000220: 5036 08bd 32b2 48bd 3273 0d3a 59ba 61bd
00000230: 302e 263e ca69 8cbc 1eb9 e5bc 8ce8 5b3b
00000240: 0760 003c b8ed 563d 4658 a1ba 2993 6b3d
00000250: cce7 e43c 6069 593c 0411 563d 0d99 d23c
00000260: f9ee d13a e306 f83c 38c2 b63c ee02 c33b
00000270: 0c0c c03c ccec 0c3d d2e2 ea3b 6cd3 023c
00000280: 8622 023d fa75 48bb 40bb fe3c 62ab c13c
00000290: 4d96 493d 1b33 f03c 780d 233d 0f43 203d
000002a0: 5c99 273d c605 ec3c 75d3 b13c 7a96 bc3d
000002b0: 65a1 0f3d 4603 0a3c 75e9 6fbb 6869 233c
000002c0: 05ab 043c cdae e9bc 4448 ac3d 56f4 bf3c
000002d0: e2c5 f0bc 1031 a93c 7c2a c23c 70f2 2b3d
000002e0: 8a6c c7ba 048a ab3d c306 f3bc 9438 fabc
000002f0: fc78 b93c 439a 783d 4e3c 543d 5be6 b7bc
00000300: 154b 9a3c a926 22bc 3c98 2a3d 4fe7 d03c
00000310: 7849 79bd f3f9 80bd 6b2f 02be b521 02bd
00000320: 9556 a4bd 25cd 60bd e0bd 8ebd 6d3e 9d3b
00000330: f3a6 503c c7b5 373c 87a0 a13d c2d6 5a3d
00000340: 73d3 863c cbd2 b43c e44b 16bd e238 4abc
00000350: 4444 1b3d 724a 7c3d 6148 2fbc 8637 9e3b
00000360: 9842 45bd af92 93bc 5299 153d 2345 b33d
00000370: 86a1 933d 9859 eeb9 03a9 373d 27a1 5d3d
00000380: 039a 90bc d5af 1d3c 5535 e83c b601 62bc
00000390: 90a0 21bd 2dad 283c 5a7b 1abd f8fd 35bd
000003a0: 11bc 853d d7ab 853c 72c5 04bd a760 8bbd
000003b0: 3276 57bc 15af 10bd 274c 7dbd 9c15 74bd
000003c0: 1e6f 19bd 5641 bfbb e632 0cbc 8da3 90bc
000003d0: 82c2 00bd 8095 d5be 9b55 a63c 21a4 adbd
000003e0: c0c8 5ebd f7b3 1fbd 9319 b5bb 2812 dcbd
000003f0: f5d2 95bd 610c a93d ea0f 84bc 03a4 9c3c
0.044046924 0.05691291 0.010779332 0.08793363 -0.003954716 0.023020856 0.0071838996 0.049624506
0.027430644 0.0011703533 0.040569 -0.025543306 0.012710287 0.012984384 -0.0029686037 0.022257976
0.008384886 0.025528803 0.03329875 0.0126643935 -0.02364742 0.052670266 0.041599676 0.015383263
0.018060265 -0.007987594 0.044985697 0.07501931 0.043712184 0.03674812 0.04122091 0.07826441
-0.024364974 -0.017081551 0.011671164 0.027987465 0.009391136 0.019123815 0.075616844 0.013907073
0.03875669 -0.0280998 -0.0390752 0.04264298 0.010078067 -0.010747945 -0.031537082 0.047372773
0.018278345 -0.019524928 0.05543862 -0.05045655 0.028334241 -0.0116785625 -0.035173304 -0.12959105
0.019411003 -0.023023255 -0.0069257063 0.0018256349 -0.004239778 -0.12221084 0.015568862 -0.19203886
-0.014332016 0.06098571 0.034828026 -0.032545112 -0.03921166 -0.09781028 0.09356309 0.07254122
0.11253066 0.061467893 -0.016748298 0.030153632 0.026202708 -0.1581471 -0.18019637 0.1574069
-0.02849632 -0.010132468 -0.018560562 -0.050832383 0.028757406 -0.10665091 0.08575705 0.008201617
-0.0827994 0.041262005 0.015110202 -0.068554245 0.04591718 -0.0137790125 0.06489756 0.030985797
-0.069530964 -0.059130434 -0.023634734 0.0063201473 0.00784357 -0.035984933 -0.03253224 0.016230766
-0.009951236 0.065082684 -0.008053005 -0.0064323284 0.031691108 -0.0032581429 0.009568073 0.021457171
0.017284002 -0.0014737397 0.04389239 0.03288222 0.01776991 0.019474307 0.021245815 -0.1673212
0.022412451 0.017645346 0.00230263 -0.03977824 0.0027898995 -0.014874984 -0.15904859 0.063080855
0.022193791 -1.3115726e-05 -0.020483484 -0.008000621 -0.021705162 -0.05058805 -0.080118254 -0.010150354
-0.03325492 -0.048998065 0.00053958886 -0.055109356 0.16228557 -0.017140288 -0.028042372 0.0033555357
0.007835395 0.0524728 -0.0012309633 0.05751339 0.02794256 0.013269752 0.05226232 0.025707746
0.0016016654 0.030276721 0.022309408 0.005951277 0.023443244 0.034405515 0.0071681524 0.007984977
0.031771205 -0.0030587898 0.031095147 0.023641292 0.049215604 0.029321244 0.039807767 0.039126452
0.04091774 0.028811347 0.021707276 0.092083886 0.035066027 0.008423632 -0.0036607657 0.009973861
0.008097415 -0.028525734 0.08412221 0.023431938 -0.029391233 0.020653278 0.023701899 0.041979253
-0.0015214842 0.08375934 -0.02966631 -0.030544557 0.022640698 0.06069399 0.051815324 -0.02244871
0.01883463 -0.009896913 0.04164909 0.025500922 -0.06086108 -0.06297674 -0.12713401 -0.031770427
-0.08024327 -0.05488314 -0.069698095 0.0047987015 0.012735116 0.011212773 0.07891946 0.053427465
0.016458249 0.02207317 -0.03669347 -0.0123426635 0.0379069 0.061594434 -0.010698409 0.0048283963
-0.048159212 -0.01801428 0.03652317 0.08753421 0.072085425 -0.0004546165 0.044838917 0.054108765
-0.017651564 0.009624441 0.028345743 -0.013794353 -0.039459765 0.010295195 -0.037715293 -0.044431657
0.065300114 0.016317291 -0.03241486 -0.06805544 -0.013150739 -0.03532322 -0.061840203 -0.05959092
-0.037459485 -0.005836646 -0.008557057 -0.017656112 -0.031435497 -0.41715622 0.020304492 -0.08478571
-0.05439067 -0.038989987 -0.0055267303 -0.107456505 -0.073156275 0.08254314 -0.01612087 0.019121176
