DVC/examples/flow_pretrain_np/modelL3_F-1-weight.npy (npy, 50304 bytes, 1 tensors)

array f4 [32, 8, 7, 7]
-0.07615847 -0.08819123 -0.070233874 0.008308324 -0.026621435 0.0069442904 -0.029592013 -0.047029
0.11151084 0.18748358 0.0028327832 0.020949295 0.009097509 -0.02213425 0.08966373 0.45175275
0.37092352 0.06687162 -0.023368988 -0.019792616 0.010804387 0.05744436 0.1482672 -0.009806066
-0.05200516 -0.030741485 0.027098162 0.017714733 -0.13316385 -0.3885013 -0.46711776 -0.2427838
-0.029686969 0.018483147 -0.020415576 -0.024379058 -0.17950988 -0.24761204 -0.06992131 -0.008697764
0.016613573 -0.010244185 -0.012374766 0.016742596 0.01149808 0.0073347045 -0.011641211 0.016796079
-0.003668934 0.01659476 -0.07652333 -0.03877539 0.017442686 0.029803596 0.0065933103 0.033379264
0.004610252 0.060940497 0.12897618 -0.01760496 -0.040098242 0.0062761772 0.03827106 -0.023442622
0.40100074 0.2942073 0.034334734 -0.015082416 -0.026181059 -0.0039166817 -0.025068719 0.071603216
-0.06629058 -0.06729093 0.014263055 -0.031378318 0.004579869 -0.07876448 -0.2874273 -0.34702066
-0.1353327 0.014353733 0.017892813 0.0008566407 0.048536483 -0.06534299 -0.10013722 -0.015889442
0.020031344 -0.0107249115 -0.009096241 0.0056109964 0.031568367 0.022570902 0.04341453 0.012800708
-0.019496998 -0.013089125 0.04057495 -0.00026300654 -0.0025102359 -0.05006033 0.004558352 -0.004497744
-0.038321514 -0.064905 0.050961867 0.09421247 -0.024029361 0.015015085 -0.0010938346 -0.009540878
-0.02873771 0.29048222 0.30428705 -0.0025478206 -0.011994232 -0.002801786 -0.013994726 -0.04614684
-0.04476504 0.008128858 0.0034115852 -0.0023342744 0.004069871 -7.8969046e-05 0.007569486 -0.25697395
-0.27402192 -0.085934915 -0.0068988595 0.003573607 0.034584507 0.028303253 -0.0019035368 -0.033774678
-0.0044171154 0.061157875 -0.0025533678 -0.00672778 0.0014447947 0.019770231 0.05176794 -0.0061453963
-0.03233753 -0.030877696 -0.006257517 0.02310665 0.13086693 0.088804886 0.0069451057 0.016483054
-0.0050599994 0.008115293 0.0669614 -0.049751095 -0.22661333 -0.01598611 0.0040080748 0.021356484
0.017840844 -0.013794186 -0.61342597 -0.5724549 -0.04547298 0.015688773 0.0024449085 -0.028778747
0.0060862224 -0.12310991 0.091716595 0.1943446 0.06549676 -0.01941536 0.014700619 0.088992804
0.3960324 0.59969723 0.22803758 -0.032875586 -0.02648966 -0.020113971 -0.0063612997 0.21122625
0.2269639 0.041546147 -0.061374687 -0.0046865605 0.03750295 -0.010042283 -0.0112695005 -0.018432962
-0.038828786 0.03720422 0.010807177 -0.022573764 -0.041254703 0.0694066 0.1091098 -0.03525661
-0.022894269 0.0197939 -0.043464646 0.0763742 -0.015486539 -0.19167718 0.025724089 0.023183852
-0.05554064 -0.0058619026 -0.011679902 -0.38120708 -0.43769324 -0.012351922 0.0024988423 0.045605954
0.0010912692 0.026213378 -0.18243787 0.04546321 0.1483725 -0.004489873 -0.0001869714 -0.0003990024
0.06539536 0.32307044 0.471303 0.10778085 -0.056140594 -0.04971286 0.023994753 -0.05813749
0.10705697 0.12870395 -0.034821745 0.012258438 0.07046999 0.0057963477 -0.020990096 -0.05290777
-0.038049947 -0.05146264 -0.016803076 0.008433006 0.0015366434 -0.04711919 0.031584736 -0.03325153
0.012076327 0.00417549 -0.004883727 0.053955957 0.013822251 0.0007444339 -0.13861413 0.039961662
00000000: f9f8 9bbd 9b9d b4bd c7d6 8fbd a31f 083c
00000010: 3215 dabc ee8c e33b f36a f2bc 7ba1 40bd
00000020: cc5f e43d b2fb 3f3e 37a6 393b db9d ab3c
00000030: b80d 153c e352 b5bc 9ea1 b73d 234c e73e
00000040: b0e9 bd3e fdf3 883d 5270 bfbc 2024 a2bc
00000050: e204 313c c74a 6b3d 5bd3 173e 9fa9 20bc
00000060: 5d03 55bd 91d5 fbbc f7fc dd3c 7d1e 913c
00000070: 1b5c 08be a4e9 c6be 0f2a efbe 519c 78be
00000080: 1632 f3bc f869 973c 913e a7bc 97b6 c7bc
00000090: 70d1 37be 038e 7dbe e732 8fbd 1181 0ebc
000000a0: 3019 883c 3ad7 27bc 88bf 4abc c527 893c
000000b0: 7162 3c3c f657 f03b c7ba 3ebc ee97 893c
000000c0: 8072 70bb bcf1 873c 43b8 9cbd f1d2 1ebd
000000d0: f7e3 8e3c ac26 f43c b20c d83b b2b8 083d
000000e0: 9911 973b be9c 793d 5512 043e 4738 90bc
000000f0: 0e3e 24bd 64a8 cd3b 1dc2 1c3d be0a c0bc
00000100: f84f cd3e 57a2 963e 94a2 0c3d 3d1c 77bc
00000110: a979 d6bc 8257 80bb ea5c cdbc b5a4 923d
00000120: 5bc3 87bd d4cf 89bd 97af 693c 8d86 00bd
00000130: ba12 963b 464f a1bd ac29 93be b1ac b1be
00000140: a894 0abe eb2b 6b3c f393 923c 2f90 603a
00000150: 31ce 463d 8cd2 85bd be14 cdbd 932a 82bc
00000160: c618 a43c 8ab7 2fbc 6608 15bc 73dc b73b
00000170: d54d 013d 9de6 b83c 6fd3 313d 10ba 513c
00000180: 2bb8 9fbc c573 56bc eb31 263d 24e4 89b9
00000190: c582 24bb 100c 4dbd 3a5e 953b d061 93bb
000001a0: 05f7 1cbd eaec 84bd 64bd 503d 78f2 c03d
000001b0: 39d9 c4bc d501 763c 005f 8fba 5851 1cbc
000001c0: 596b ebbc 16ba 943e 83cb 9b3e 56f9 26bb
000001d0: 7583 44bc 2b9e 37bb 234a 65bc 7804 3dbd
000001e0: 8c5b 37bd e72e 053c e794 5f3b a0fa 18bb
000001f0: 8d5c 853b 2f9c a5b8 7309 f83b 1792 83be
00000200: 9a4c 8cbe a5fe afbd d40f e2bb 2d33 6a3b
00000210: 7ca8 0d3d 39dc e73c 1980 f9ba 5157 0abd
00000220: 73bd 90bb ae80 7a3d 6756 27bb b674 dcbb
00000230: 445f bd3a 2ef5 a13c 9f0a 543d 525f c9bb
00000240: 5c74 04bd 39f3 fcbc db0b cdbb 284a bd3c
00000250: fb01 063e 56df b53d c593 e33b 7807 873c
00000260: 5ace a5bb 02f6 043c 0f23 893d cec7 4bbd
00000270: 530d 68be 4df5 82bc 2b56 833b cbf3 ae3c
00000280: f626 923c 0201 62bc 7c09 1dbf 688c 12bf
00000290: e041 3abd be85 803c c23a 203b 68c1 ebbc
000002a0: ef6e c73b 0c21 fcbd e9d5 bb3d 4502 473e
000002b0: 2a23 863d f60c 9fbc ddda 703c dc41 b63d
000002c0: c2c4 ca3e c285 193f af82 693e 8da8 06bd
000002d0: d800 d9bc 0ec6 a4bc 7372 d0bb b24b 583e
000002e0: 3969 683e 4b2c 2a3d 0664 7bbd b891 99bb
000002f0: b19c 193d 6388 24bc b6a3 38bc b900 97bc
00000300: ef0a 1fbd 7463 183d 9610 313c 9dec b8bc
00000310: b1fa 28bd 0c25 8e3d f574 df3d 3c69 10bd
00000320: c38c bbbc d126 a23c fc07 32bd 146a 9c3d
00000330: 41bb 7dbc 0647 44be 53bb d23c 10ec bd3c
00000340: 957e 63bd 3415 c0bb 0f5d 3fbc 932d c3be
00000350: 5419 e0be b75f 4abc 9ec3 233b 4fcd 3a3d
00000360: eb08 8f3a 70bd d63c fed0 3abe a237 3a3d
00000370: f6ee 173e c91f 93bb c10d 44b9 3231 d1b9
00000380: 01ee 853d 7d69 a53e a04e f13e 35bc dc3d
00000390: aef3 65bd b69f 4bbd a590 c43c 9421 6ebd
000003a0: af40 db3d f8ca 033e 3fa1 0ebd 9ed7 483c
000003b0: 9252 903d 4aef bd3b 6cf3 abbc d1b5 58bd
000003c0: 43da 1bbd 7dca 52bd 9ba6 89bc 972a 0a3c
000003d0: 3269 c93a 0d00 41bd ff5e 013d c232 08bd
000003e0: c9db 453c 8cd2 883b ac07 a0bb ec00 5d3d
000003f0: b976 623c 1d26 433a ddf0 0dbe d7ae 233d
