DVC/examples/flow_pretrain_np/modelL3_F-5-weight.npy (npy, 6400 bytes, 1 tensors)

array f4 [2, 16, 7, 7]
000000 e8 76 d1 ba 55 15 a8 ba 83 d2 b5 ba 00 61 00 bb
       -0.0015980871 -0.001282374 -0.0013871941 -0.0019589067
000010 7a 43 0a bb 1d 99 61 bb 5f be 38 bb 2a e1 69 ba
       -0.0021097348 -0.0034423538 -0.0028189642 -0.00089217967
000020 23 51 17 ba 76 09 27 ba 81 b1 af ba e7 4d cd ba
       -0.0005772283 -0.0006371954 -0.0013404341 -0.0015663475
000030 89 6f 31 bb e8 a9 51 bb ef 39 11 ba 12 f4 95 b9
       -0.0027074537 -0.003199214 -0.0005539944 -0.0002860134
000040 da fb 8e b9 6d d3 42 ba 45 cc 26 ba c3 86 2a bb
       -0.00027271995 -0.00074320176 -0.0006362836 -0.0026020266
000050 61 fa 55 bb 1e 2e 28 ba cc a5 e6 b9 63 2f e3 b9
       -0.0032650458 -0.00064155634 -0.00043992547 -0.0004333212
000060 dd 36 21 ba 1a fa b9 b9 5f 18 ed ba 16 ae 12 bb
       -0.0006149838 -0.0003547229 -0.0018088928 -0.0022381595
000070 0a fb 08 ba e3 6b 1f ba 44 dc 0f ba c8 ae 4f ba
       -0.0005225396 -0.0006081445 -0.0005487839 -0.0007922468
000080 41 f6 2d ba da 4f ce ba 45 ee bb ba 50 12 2a ba
       -0.0006636121 -0.001574035 -0.0014337978 -0.0006487714
000090 ab 81 28 ba 3e 15 2b ba 0b ec 7e ba dc 38 87 ba
       -0.00064280134 -0.00065262977 -0.0009724504 -0.0010316628
0000a0 00 6f da ba e9 4f 90 ba 7f cc 55 b9 fe cb c8 b9
       -0.0016665161 -0.0011010143 -0.00020389444 -0.0003829896
0000b0 9d 5a 08 ba 81 68 45 ba 6b 48 1a ba 22 5e 79 ba
       -0.0005201491 -0.0007530526 -0.0005885425 -0.0009512623
0000c0 41 3e a1 b9 6f e4 b4 ba 77 93 73 ba b2 fe c8 ba
       -0.00030754696 -0.0013800989 -0.00092916883 -0.0015334694
0000d0 f1 7d 31 bb 38 ae 7e bb ca a3 6f bb 23 2a 1c bb
       -0.0027083124 -0.0038861167 -0.0036566132 -0.0023828826
0000e0 e4 6f eb ba 1b 3e f7 ba cb bb 36 bb 16 ea 83 bb
       -0.0017962423 -0.0018863113 -0.002788293 -0.004025708
0000f0 5e 37 b5 bb 1e 70 aa bb f7 78 6d bb b6 f2 e0 ba
       -0.005530282 -0.0052013537 -0.003623543 -0.0017162177
000100 48 56 e9 ba 2b 0b 2c bb 31 71 8f bb 44 16 db bb
       -0.0017802203 -0.0026251774 -0.004377507 -0.006686004
000110 64 00 cb bb 24 90 88 bb af 89 ad ba 29 d5 ce ba
       -0.006195115 -0.0041675735 -0.0013239885 -0.0015780079
000120 ec 78 19 bb 79 ef 7d bb ce 01 d3 bb 2c 9a ce bb
       -0.0023418022 -0.0038747473 -0.006439424 -0.006305
000130 ae 62 95 bb 6d c1 83 ba 53 25 8f ba 64 0e f3 ba
       -0.0045588827 -0.0010052152 -0.0010921158 -0.0018543717
000140 d8 f9 60 bb 14 da b8 bb a8 35 b6 bb 99 62 89 bb
       -0.0034328606 -0.0056412313 -0.0055605955 -0.004192662
000150 1d 71 18 ba 4d 70 14 ba 36 2c 97 ba a3 85 22 bb
       -0.0005815195 -0.0005662486 -0.0011533562 -0.0024798892
000160 40 b7 7f bb 42 3e 81 bb 51 09 4d bb 2e 88 a8 b9
       -0.0039019138 -0.0039441893 -0.003128607 -0.0003214492
000170 8a 66 a6 b9 6b ac 44 ba e0 b5 ee ba 86 33 33 bb
       -0.00031738385 -0.0007502499 -0.0018212162 -0.0027343943
000180 97 dd 41 bb 8f 4a 2e bb a0 6e 01 3c ea 31 b9 3b
       -0.002958154 -0.0026594733 0.00789991 0.005651702
000190 fa 94 89 3b 51 4a 3f 3b d2 04 0d 3b cb eb f4 3a
       0.0041986676 0.0029188583 0.0021517766 0.0018685994
0001a0 91 58 06 3b 88 f5 03 3c 7d 79 8e 3b 69 a0 5d 3b
       0.0020499567 0.008054145 0.0043479786 0.0033817536
0001b0 af 92 07 3b e3 c8 b9 3a b5 f6 b4 3a 5c ee d7 3a
       0.0020686795 0.0014174249 0.0013806435 0.0016474235
0001c0 96 39 33 3c b3 f8 98 3b 69 24 3c 3b 78 7d 9a 3a
       0.0109390225 0.004668319 0.0028708226 0.001178666
0001d0 a4 4c 5d 3a 6d 14 a8 3a 1b 08 f3 3a 8c ad 70 3c
       0.00084419013 0.001282347 0.0018541844 0.014689814
0001e0 a2 0f b2 3b 7f 5f 5b 3b a8 a3 c0 3a 77 1e a2 3a
       0.0054339925 0.0033473668 0.0014697211 0.0012368698
0001f0 04 3f d4 3a 59 8c 13 3b e6 9b 92 3c 48 08 05 3c
       0.0016193097 0.0022514074 0.017896604 0.00811965
000200 23 a6 a1 3b de d2 3c 3b 5a 49 2c 3b b1 c3 41 3b
       0.004933135 0.002881221 0.0026288838 0.0029566104
000210 c8 a1 51 3b 5e a5 7b 3c 3f 3f 4f 3c 2f 08 ff 3b
       0.0031987298 0.015359251 0.012649356 0.007782958
000220 9a 48 ae 3b 89 59 8e 3b 62 f6 60 3b e7 a9 46 3b
       0.0053187134 0.0043441695 0.0034326543 0.0030313672
000230 de 2e 40 3c c9 b3 45 3c 73 97 2a 3c 52 23 ed 3b
       0.011729924 0.01206679 0.010412085 0.0072368765
000240 7e 2c b2 3b 28 4e 8c 3b d5 fb 8d 3b 7c 19 04 37
       0.005437433 0.004281778 0.0043329992 7.873747e-06
000250 6c bd fb 39 3f 4c 50 39 e4 9c 4d b8 0a 19 1e b9
       0.0004801558 0.0001986483 -4.9021924e-05 -0.00015077382
000260 0c 40 7f 39 f8 17 10 3a db 3f 1e 39 cb 5a 24 3a
       0.00024342554 0.00054967357 0.00015091842 0.0006269633
000270 84 82 82 39 44 94 8a 39 8b 0a 9a 38 ab e1 b6 39
       0.00024892774 0.00026431878 7.345256e-05 0.0003488188
000280 25 28 02 3a b0 d6 da 38 32 db 60 3a 74 35 0f 3a
       0.00049650884 0.00010435039 0.00085775845 0.0005462982
000290 f8 b6 cc 39 53 27 87 38 f0 ff c1 39 c4 68 1a 3a
       0.00039046234 6.444626e-05 0.00037002517 0.0005890245
0002a0 12 f6 33 3a 33 c2 a9 3a 51 00 56 3a 5c 15 5c 3a
       0.00068649754 0.0012951553 0.00081634993 0.0008395517
0002b0 b8 66 05 3a 4b a6 46 3a 58 44 53 3a cd 34 99 3a
       0.00050888536 0.000757788 0.0008059195 0.001168871
0002c0 9e ff 04 3b 88 17 cb 3a 90 b9 a2 3a 65 d7 82 3a
       0.0020293961 0.0015494684 0.0012414921 0.0009982405
0002d0 ea c4 86 3a c8 8d a3 3a bf 0a be 3a bc 6a e4 3a
       0.0010282074 0.0012478167 0.0014499052 0.0017426829
0002e0 0a 02 fd 3a 2c 50 c5 3a 05 5a 9d 3a 07 04 a1 3a
       0.0019302976 0.00150538 0.0012004977 0.0012284525
0002f0 ed 95 cc 3a f2 9b ac 3a ae 6c d1 3a da 31 f0 3a
       0.0015608646 0.0013169034 0.0015977824 0.0018325404
000300 99 20 f8 3a f3 cd e9 3a c5 7f e8 3a e0 54 05 3b
       0.0018930613 0.0017837867 0.0017738274 0.002034478
000310 4b 55 4f ba 63 42 88 ba f5 a9 9e ba b7 99 89 ba
       -0.0007909133 -0.0010395761 -0.0012105095 -0.0010498081
000320 13 39 43 ba 94 4b 80 b9 06 89 e0 b8 de 49 5c ba
       -0.00074471644 -0.00024470373 -0.00010706675 -0.0008403341
000330 8b 3e 85 ba e4 ca 9b ba fc e0 4c ba 19 d3 37 ba
       -0.0010165734 -0.0011886028 -0.00078155077 -0.0007012352
000340 b2 fd 95 b9 bb f2 ed b8 b6 fb 62 ba f0 68 97 ba
       -0.00028608512 -0.00011346253 -0.00086587237 -0.001155166
000350 77 8f bc ba 93 e6 97 ba 31 2b a3 ba 0d 79 45 ba
       -0.0014386018 -0.0011589102 -0.0012448785 -0.00075329916
000360 0f d0 08 ba fc 6f 27 ba 2f c9 91 ba e2 79 bf ba
       -0.00052189914 -0.00063872314 -0.001112258 -0.0014608467
000370 60 73 9d ba 2e 51 a0 ba 88 6f 32 ba ab ab fd b9
       -0.0012012534 -0.0012231225 -0.00068067806 -0.00048383823
000380 aa 9d f7 b9 94 25 8e ba 09 75 c0 ba 10 81 b7 ba
       -0.0004722898 -0.0010844939 -0.0014683317 -0.0014000256
000390 f5 e2 be ba 67 6c 40 ba da 3c 07 ba d4 4a c1 b9
       -0.0014563488 -0.0007340372 -0.0005158909 -0.0003686758
0003a0 8e 5e 4b ba 91 83 91 ba 43 54 b2 ba 77 26 ba ba
       -0.0007757925 -0.0011101832 -0.0013605434 -0.0014202137
0003b0 df 1a 54 ba 92 41 42 ba 65 46 bf b9 9e ba 23 ba
       -0.00080911623 -0.00074102834 -0.00036482807 -0.00062457647
0003c0 2b 94 4c ba d7 53 71 ba 5b 02 88 ba b4 94 28 ba
       -0.0007804061 -0.00092059135 -0.0010376679 -0.000643085
0003d0 a9 e5 2e ba 2a 1c e7 3a f3 29 bc 3a b6 0f c0 3a
       -0.0006671795 0.0017632295 0.0014355764 0.001465312
0003e0 b0 72 b1 3a 42 3a af 3a df 47 93 3a cb 4e 65 3a
       0.0013538208 0.0013368803 0.0011236629 0.0008747398
0003f0 02 34 da 3a 21 21 dc 3a 87 aa 00 3b f0 72 f1 3a
       0.001664758 0.0016794541 0.0019632892 0.0018421095
