DVC/examples/flow_pretrain_np/modelL6_F-1-weight.npy (npy, 50304 bytes, 1 tensors)

array f4 [32, 8, 7, 7]
000000 c5 f1 90 bd 31 c1 a6 bd 00 40 84 bd 0c ff 61 3c
       -0.07077364 -0.08142317 -0.064575195 0.013793718
000010 b3 ad a9 bc 45 bc 5d 3c de 38 cf bc 30 21 25 bd
       -0.020712709 0.0135336565 -0.025295671 -0.040314853
000020 95 5b e2 3d f1 5a 3f 3e 7f e9 21 3c dd 5c b7 3c
       0.11052624 0.18687035 0.00988233 0.022383148
000030 8d c6 18 3c 2b 00 a0 bc db 7d bc 3d dd f4 df 3e
       0.009324682 -0.01953133 0.092036925 0.43741503
000040 c1 fe bb 3e ad 82 95 3d 4b af d5 bc 57 13 c1 bc
       0.367178 0.07300315 -0.026084563 -0.023568792
000050 18 1d 1a 3c a1 2c 6e 3d 6d c2 16 3e e9 bd c7 bb
       0.009406351 0.05814803 0.14722605 -0.006095637
000060 4d 50 55 bd c7 96 0c bd 94 5e df 3c fc 6c 8f 3c
       -0.052078534 -0.03432348 0.027266778 0.017508022
000070 a7 11 0e be a9 28 c6 be cb e0 f1 be dd 8b 82 be
       -0.13873921 -0.38702896 -0.47241816 -0.25497332
000080 ce 65 18 bd 2f 5c 97 3c 2e 10 9c bc 9b cc 03 bd
       -0.037206464 0.018476574 -0.019050684 -0.03217755
000090 a3 db 42 be 2a 93 84 be d3 56 a1 bd 50 69 4a bc
       -0.19029097 -0.25893527 -0.078778885 -0.01235421
0000a0 6c cb 97 3c aa 98 d2 bb 3b a7 8d bc fc 23 14 3c
       0.018529616 -0.0064268904 -0.017291656 0.0090417825
0000b0 0a 21 04 3c b3 26 13 3c 80 b8 26 bc 9b 0f a6 3c
       0.008064518 0.008981395 -0.010175824 0.020271113
0000c0 77 4d 9b 37 ce 68 b8 3c 42 c3 89 bd a8 27 03 bd
       1.8513512e-05 0.022510912 -0.067266956 -0.03202024
0000d0 5a 71 9f 3c d0 4e f3 3c 8a ab c8 3b aa b6 ee 3c
       0.01946323 0.029700667 0.0061239647 0.029139835
0000e0 8f 7f 6d 3c 25 ca 86 3d d7 07 07 3e 84 49 31 bc
       0.014495744 0.06581525 0.13186584 -0.01082075
0000f0 91 80 1e bd 78 7d ab 3b bf 65 17 3d 34 24 bd bc
       -0.03869683 0.005233463 0.036962267 -0.023088552
000100 6e e9 c3 3e 61 40 92 3e 52 0e 16 3d e4 39 99 bc
       0.3826403 0.28564742 0.03663475 -0.018704362
000110 23 cc 01 bd 28 27 26 bc 5d a5 fb bc 3c 59 7c 3d
       -0.03168882 -0.0101411715 -0.0307185 0.061608538
000120 e4 67 8c bd 8b a9 8d bd 5d 0b 36 3c 73 f8 02 bd
       -0.06855753 -0.069171034 0.011111108 -0.03197522
000130 e5 1d 48 39 e2 7b af bd 23 a1 92 be f0 11 b2 be
       0.00019084623 -0.08568551 -0.28638563 -0.3477931
000140 4b 42 10 be e3 7b 44 3c 29 88 9d 3c 48 28 de b9
       -0.14087789 0.0119924275 0.019229965 -0.00042373152
000150 04 4d 2d 3d c0 8d 92 bd 35 d2 d2 bd e1 7d 85 bc
       0.042309776 -0.07155943 -0.10294 -0.016295375
000160 d0 94 ab 3c b1 eb 15 bc 1e ee 1f bc 67 3f b5 38
       0.020944983 -0.0091504315 -0.009761361 8.642562e-05
000170 4d 64 ca 3c 11 bf b7 3c 8c 8c 41 3d 08 de 63 3c
       0.02470603 0.022429975 0.047253177 0.013907917
000180 e5 31 9e bc b9 54 7b bc 17 df 2d 3d d2 a5 9c 3b
       -0.019310901 -0.015340024 0.042449083 0.0047805095
000190 59 46 33 39 34 dc 59 bd 44 dd d0 ba eb 87 21 bc
       0.00017096977 -0.053188518 -0.0015935083 -0.0098590655
0001a0 d2 b4 34 bd f2 4d 5f bd 7f 3e 67 3d 0d b6 c6 3d
       -0.044117756 -0.054517694 0.056456085 0.09702692
0001b0 d4 f3 a0 bc 40 ca 58 3c f7 0d 82 bb 9f c3 24 bc
       -0.019647516 0.013231814 -0.00396895 -0.010056405
0001c0 86 83 03 bd 00 02 89 3e b9 07 95 3e c6 1a 79 bb
       -0.032107852 0.26759338 0.29107454 -0.0038010343
0001d0 01 f0 94 bc 8e b2 25 bc ba 79 a8 bc 75 15 64 bd
       -0.018180849 -0.010113372 -0.020565856 -0.055684526
0001e0 fa c4 71 bd b1 c9 5b 3b 6c de 90 3a dc 36 a2 bb
       -0.059025742 0.0033536965 0.0011052615 -0.0049503874
0001f0 d9 a5 6f 3b 8e f7 7d bb 55 dd 11 3b e7 1b 81 be
       0.0036567359 -0.003875229 0.0022257168 -0.252166
000200 b8 41 89 be 35 4d ac bd 2b 16 3f bb 39 43 18 3c
       -0.26807952 -0.084131636 -0.00291575 0.009293371
000210 7e 81 13 3d 87 3d cc 3c 74 02 a0 bb 4e c9 fd bc
       0.036012165 0.024931682 -0.004883105 -0.030979779
000220 15 77 7c 3a f8 91 86 3d 53 5a a6 3a 40 97 bf bb
       0.0009630782 0.0657081 0.0012691714 -0.005846888
000230 e4 5d 8c bb cc f8 3f 3c cf 7c 52 3d 24 99 d9 ba
       -0.0042836536 0.011717033 0.051388558 -0.0016601426
000240 2e 19 00 bd 33 a2 fe bc 6b a9 0d bc e6 1f c1 3c
       -0.031274013 -0.031083202 -0.008646349 0.02357478
000250 b8 f7 05 3e 96 dd bc 3d 0a b9 6b 3c 1b ea be 3c
       0.13082778 0.09221952 0.0143873785 0.02330499
000260 b3 5d 61 3b 06 e2 94 3c e9 11 82 3d a7 18 79 bd
       0.0034388124 0.018174183 0.06351072 -0.060814526
000270 83 4f 6f be 1e 09 64 bc b6 56 f5 3b 7d 53 cc 3c
       -0.23370175 -0.013918189 0.0074871434 0.024942154
000280 83 70 b6 3c 6c 30 d6 bc ea 28 23 bf 13 05 17 bf
       0.022270447 -0.026146136 -0.63734305 -0.5899212
000290 33 15 55 bd 4a b6 4b 3c aa 5c dc b8 71 df f7 bc
       -0.05202217 0.012433598 -0.000105076775 -0.030257912
0002a0 fa 49 b7 3b 8a 99 f5 bd 65 7a cf 3d 46 59 4d 3e
       0.0055935355 -0.11992176 0.10130767 0.20053586
0002b0 ae a0 84 3d 76 39 ae bc 61 c7 7f 3c 0a 83 c2 3d
       0.0647596 -0.021267634 0.0156115005 0.0949765
0002c0 bf 06 d6 3e fa 6e 20 3f e2 f7 77 3e a9 e3 07 bd
       0.41802022 0.62669337 0.24215654 -0.033176098
0002d0 9e db e4 bc 18 89 81 bc 96 e5 0e bc 57 a1 61 3e
       -0.027936753 -0.015812442 -0.00872173 0.22034203
0002e0 47 0b 74 3e 81 a5 36 3d 4c 11 84 bd be 73 97 bb
       0.23832427 0.04459143 -0.064486116 -0.004621952
0002f0 60 e3 3c 3d 4b 3f b8 bc b9 98 95 bc ee 58 ba bc
       0.04611528 -0.022491118 -0.0182613 -0.022747483
000300 09 55 30 bd 9f 43 02 3d a6 63 23 3c 1a 0a 86 bc
       -0.043049846 0.03180277 0.0099724885 -0.016362239
000310 99 13 33 bd e7 c7 85 3d ae c9 dc 3d 5f 91 09 bd
       -0.04371986 0.06532269 0.10780655 -0.033585902
000320 40 f9 b6 bc 2f f6 b2 3c 44 59 24 bd f8 40 98 3d
       -0.022335649 0.021845905 -0.040124193 0.07434267
000330 1c 84 cd bc 44 e1 49 be a4 1f e0 3c 7c b3 d1 3c
       -0.025087409 -0.19714838 0.027358837 0.02559828
000340 84 e6 57 bd 5e 10 3f bb db fa bc bc 59 49 cf be
       -0.05271007 -0.0029154043 -0.023068836 -0.40485647
000350 87 e1 e8 be 3e a8 a1 bc 0f 4f a3 ba f2 a5 2e 3d
       -0.45484564 -0.019733544 -0.0012459474 0.042638727
000360 52 fa 03 bb b5 01 d8 3c 03 2d 39 be 8c fc 57 3d
       -0.0020138216 0.026368001 -0.18083577 0.05273108
000370 a1 4b 1d 3e 18 de 6c bb 91 f4 09 ba 18 b7 54 ba
       0.15360881 -0.003614312 -0.00052625785 -0.00081144413
000380 82 75 98 3d 3c 46 b0 3e 48 c6 fe 3e 0a 15 fe 3d
       0.07444288 0.34428585 0.49760652 0.12406357
000390 72 e4 56 bd 88 a0 47 bd da b9 d8 3c 79 09 60 bd
       -0.052463956 -0.04873708 0.026455808 -0.054696534
0003a0 70 d0 f3 3d 1f 1d 13 3e f3 30 dc bc d6 c8 52 3c
       0.11904991 0.14366578 -0.02687881 0.012865266
0003b0 0c fa 90 3d a9 0e 2c 3c 6d 5b db bc a0 aa 63 bd
       0.07078943 0.010501542 -0.026776994 -0.055582643
0003c0 df 69 1c bd be 05 55 bd 46 1c a8 bc 19 f1 b2 3b
       -0.038186904 -0.05200743 -0.020521294 0.00546087
0003d0 69 cf 04 3b b5 88 45 bd d9 25 eb 3c 1a df 07 bd
       0.0020265228 -0.048226077 0.02870457 -0.03317175
0003e0 b8 09 4b 3c fc 71 e8 3a fa 79 c7 bb c5 0e 5e 3d
       0.012392454 0.0017734165 -0.006087539 0.054213304
0003f0 c2 54 62 3c ff 2c dc bb 60 98 10 be e5 54 2f 3d
       0.013814153 -0.006719231 -0.14120626 0.04280557
