DVC/examples/flow_pretrain_np/modelL4_F-5-weight.npy (npy, 6400 bytes, 1 tensors)

array f4 [2, 16, 7, 7]
-0.0019265905 -0.0017744923 -0.0017184974 -0.0019513072 -0.0021406722 -0.0030277737 -0.0032368586 -0.001216152
-0.0010947818 -0.00092392246 -0.0014042376 -0.0016149316 -0.0022754192 -0.0031725322 -0.0010867359 -0.0009453651
-0.0006759999 -0.0009996344 -0.00076887396 -0.0021154606 -0.0027477331 -0.001194595 -0.0011242743 -0.0008793133
-0.0009402352 -0.0004922708 -0.0017414632 -0.0024434137 -0.0009417437 -0.0010000432 -0.00068685063 -0.0007416752
-0.000553166 -0.0014188902 -0.0019214854 -0.0010241547 -0.0009682488 -0.0008033964 -0.00096413016 -0.0009625103
-0.0013123415 -0.0016478951 -0.00054494414 -0.0007902795 -0.0007748604 -0.0007536882 -0.0007277984 -0.00090949755
-0.00096209487 -0.0008711339 -0.0011105181 -0.0014821604 -0.0023874803 -0.0033870696 -0.003288643 -0.0026926917
-0.0013030986 -0.0019039222 -0.002496905 -0.0034264822 -0.004567049 -0.004309256 -0.003514868 -0.0011355889
-0.0017132809 -0.002191752 -0.003376078 -0.005105274 -0.004829428 -0.0037103056 -0.00088051736 -0.0015092851
-0.0019110261 -0.0029469272 -0.0047166105 -0.004816128 -0.0039589787 -0.00086669414 -0.001246023 -0.0016945963
-0.0027846028 -0.0043517607 -0.0045030434 -0.003940126 -0.00047823132 -0.00080016325 -0.001101432 -0.0020147136
-0.0031617535 -0.0032931499 -0.003124405 -2.6266156e-07 -0.00048439862 -0.0005205088 -0.0012689459 -0.0021341431
-0.0024592285 -0.0028198082 0.009489034 0.0054921266 0.004315592 0.0030079642 0.0022852158 0.0023338476
0.0029998622 0.008472956 0.0039306446 0.003015674 0.0017509895 0.0014095088 0.0017340248 0.002489621
0.00992187 0.0035157667 0.0017573925 0.0005086179 0.00054322346 0.0013180536 0.0022506334 0.012277217
0.0038920282 0.0017397287 0.0005179611 0.0008088161 0.0015225789 0.0025780473 0.014025884 0.0063870917
0.003244942 0.0018986642 0.0022453389 0.0027356632 0.0033253343 0.0122371605 0.009076629 0.0057340204
0.0039166133 0.0035110977 0.0030846572 0.0033998906 0.011478057 0.009669105 0.00836442 0.0058511985
0.004913983 0.004679624 0.005635295 0.00070812186 0.00082517037 0.0006956573 0.00042557507 0.00045908158
0.00075666484 0.0014783152 0.0004643355 0.0009417947 0.0005440741 0.00041341604 0.00043095424 0.0006666092
0.0012741556 -4.6671812e-05 0.0010086617 0.0005898751 0.00021527542 3.6641308e-05 0.00041709686 0.0009883704
0.00036879315 0.0016278431 0.0011628031 0.0008245658 0.00054458814 0.00077644514 0.0011241867 2.4803318e-05
0.0018194636 0.0019894957 0.0012310828 0.0008545061 0.0007911352 0.0010554825 2.14004e-05 0.0007485289
0.0018202335 0.0015170776 0.0012886944 0.0013036123 0.0015379043 0.00033180538 0.00064690603 0.0012547944
0.0012950223 0.001145874 0.0012432579 0.0015757397 -0.0011850393 -0.0011032169 -0.0013835899 -0.0012071127
-0.00084524386 -0.00041717073 -0.00038510305 -0.0011712796 -0.0011050375 -0.0013697315 -0.0008296888 -0.0006057446
-0.00042622985 -0.00044108092 -0.0011596172 -0.0012336352 -0.001481919 -0.0010404157 -0.00096993643 -0.00080052385
-0.000720498 -0.0010149231 -0.0010744052 -0.0012774396 -0.0008115506 -0.00080366683 -0.000665342 -0.00069492485
-0.00088485755 -0.0010419661 -0.0012837712 -0.0008821392 -0.00095021166 -0.00072202017 -0.00081562955 -0.000771187
-0.00088577514 -0.0011783895 -0.0010583148 -0.0010253047 -0.00078425586 -0.0009862335 -0.00064303353 -0.0007374326
-0.0008961767 -0.00079757895 -0.0008108536 -0.00067263853 -0.000994641 0.0015145112 0.0012945739 0.0013159433
0.0012951429 0.001354396 0.0012854211 0.0011124373 0.0013436242 0.0012629952 0.0013914041 0.0013513904
00000000: a685 fcba 1596 e8ba 343f e1ba 01c3 ffba
00000010: 854a 0cbb 9d6d 46bb 7a21 54bb 4a67 9fba
00000020: c87e 8fba 6333 72ba 650e b8ba 1dac d3ba
00000030: 331f 15bb 42ea 4fbb ce70 8eba 61d2 77ba
00000040: 9635 31ba 2a06 83ba 428e 49ba 8aa3 0abb
00000050: 5013 34bb f593 9cba 635c 93ba b781 66ba
00000060: 1e7a 76ba bc0b 01ba cf41 e4ba ae21 20bb
00000070: 5adf 76ba e213 83ba c40d 34ba fb6c 42ba
00000080: 5802 11ba 0efa b9ba 5ada fbba ee3c 86ba
00000090: 14d2 7dba 059b 52ba aebd 7cba f950 7cba
000000a0: e002 acba 2ffe d7ba 95da 0eba c22a 4fba
000000b0: 0020 4bba 2993 45ba b9c9 3eba 596b 6eba
000000c0: 1835 7cba ce5c 64ba ce8e 91ba 0d45 c2ba
000000d0: 4677 1cbb 99f9 5dbb 4686 57bb df77 30bb
000000e0: bccc aaba 078d f9ba 1da3 23bb d58e 60bb
000000f0: 2fa7 95bb a934 8dbb b359 66bb 0ad8 94ba
00000100: 2b90 e0ba 7fa3 0fbb 3141 5dbb 244a a7bb
00000110: 2e40 9ebb 9928 73bb 85d2 66ba 34d3 c5ba
00000120: 657b faba 3c21 41bb cc8d 9abb 9cd0 9dbb
00000130: 52ba 81bb dc32 63ba 9851 a3ba 371d deba
00000140: e27d 36bb 3799 8ebb 448e 93bb 2c1c 81bb
00000150: 1fbb fab9 0cc2 51ba ed5d 90ba 4909 04bb
00000160: 6c35 4fbb e3d1 57bb d1c2 4cbb ee03 8db4
00000170: e2f6 fdb9 c172 08ba c252 a6ba fbdc 0bbb
00000180: 022b 21bb 88cc 38bb e577 1b3c 4cf7 b33b
00000190: cf69 8d3b 4421 453b 8fc3 153b 77f3 183b
000001a0: 5699 443b 27d2 0a3c a3cc 803b 9da2 453b
000001b0: 7581 e53a 44bf b83a 3848 e33a e928 233b
000001c0: 578f 223c c768 663b 4f58 e63a c554 053a
000001d0: 1c67 0e3a 8ac2 ac3a 5d7f 133b 6126 493c
000001e0: 6611 7f3b 9c07 e43a c8c7 073a bb06 543a
000001f0: 4591 c73a 75f4 283b d2cc 653c cf4a d13b
00000200: 18a9 543b 99dc f83a 8926 133b d048 333b
00000210: daed 593b 5f7e 483c 24b6 143c 73e4 bb3b
00000220: ef56 803b 721a 663b f627 4a3b b3d0 5e3b
00000230: 760e 3c3c 2a6b 1e3c ec0a 093c 69bb bf3b
00000240: 7a05 a13b 8857 993b 48a8 b83b 41a1 393a
00000250: 3f50 583a c55c 363a b81f df39 e3b0 f039
00000260: eb5a 463a 07c4 c13a 0e72 f339 c6e2 763a
00000270: 32a0 0e3a c3bf d839 b3f1 e139 63bf 2e3a
00000280: 9101 a73a 7ac1 43b8 1235 843a d9a1 1a3a
00000290: 8ebb 6139 4eaf 1938 cbad da39 358c 813a
000002a0: 945a c139 5a5d d53a 3369 983a ad27 583a
000002b0: b1c2 0e3a 5a8a 4b3a 7259 933a b810 d037
000002c0: 117b ee3a 3362 023b 495c a13a ef00 603a
000002d0: 2f64 4f3a 1e58 8a3a 0285 b337 ed38 443a
000002e0: e794 ee3a add8 c63a 69e9 a83a f8dd aa3a
000002f0: 8193 c93a 2af6 ad39 2195 293a ea77 a43a
00000300: bdbd a93a 2731 963a d0f4 a23a 0d89 ce3a
00000310: 5253 9bba d199 90ba 9359 b5ba fb37 9eba
00000320: 5b93 5dba b5b7 dab9 a8e7 c9b9 9f85 99ba
00000330: e8d6 90ba 9088 b3ba 797f 59ba d5ca 1eba
00000340: 9a77 dfb9 e140 e7b9 4cfe 97ba eeb1 a1ba
00000350: f33c c2ba 8f5e 88ba 5543 7eba 3fda 51ba
00000360: cddf 3cba 2b07 85ba 0ed3 8cba c36f a7ba
00000370: 3dbe 54ba 2bad 52ba 596a 2eba 9e2b 36ba
00000380: c9f5 67ba 9592 88ba 3744 a8ba 5c3f 67ba
00000390: a017 79ba f445 3dba f9cf 55ba 7c29 4aba
000003a0: 5d33 68ba 3174 9aba 27b7 8aba 8463 86ba
000003b0: 8596 4dba 8144 81ba 4091 28ba 4450 41ba
000003c0: 66ed 6aba 9e14 51ba 778f 54ba 0254 30ba
000003d0: 9d5e 82ba 9082 c63a b1ae a93a bb7b ac3a
000003e0: c9c1 a93a fd85 b13a 937b a83a 34cf 913a
000003f0: 8c1c b03a 168b a53a c65f b63a 2321 b13a
