DVC/examples/flow_pretrain_np/modelL1_F-4-weight.npy (npy, 100480 bytes, 1 tensors)

array f4 [16, 32, 7, 7]
00000000: e3a9 4e3c 809f d33b 6324 f1bc 4252 303d
00000010: ce7f d2bc 83ef c93c 34e3 be3a 6ff5 293d
00000020: 77fb e03a fc34 c9bc d28d a23c 85a0 8dbc
00000030: e845 b23c 269d 883c a8ec 06bc 9f0a 133c
00000040: 7ee3 09bc 58c6 e7ba f240 973c f5b4 2fbb
00000050: 991b 65bc 01f1 303d f72e d13c 9865 b1bc
00000060: 8144 fa3a 8c02 7fbc e396 ea3c 5ccf 923d
00000070: beeb 8e3d 4e2f 6a3d 2535 e73b cb26 8c3d
00000080: 5853 883a bedf 44bc 278b b53c 559e a439
00000090: b700 aebc 520c 9ebc 6706 413d bc8c 73b9
000000a0: a8b3 9d3c 924c 93bc 160e 6abd 2199 4e3b
000000b0: 46ab 28b8 00ca 76bb e65e 89bb 08a9 3a3d
000000c0: 94ec 143d bb48 81bd b7ed 1abd a52a b2bd
000000d0: 4978 753d f42f a3bc b27f 88bc facf 8cbd
000000e0: 45f4 463d 098d 9cbb 2c83 00bb 1dc4 133d
000000f0: 44d4 c3bb 30a9 a5bd afb6 be3d 7e12 fcbd
00000100: 446d 383b 0209 b33b c414 343d cc20 bbbc
00000110: f6dc 82bc e3a4 72bd f706 6b3d 958c 89bb
00000120: ee2d 3abd e4a7 0b3d df99 b4bc 78be ba3c
00000130: 068a d23c 38c1 c9bd a7b0 09be aad4 f6bc
00000140: 8623 35bc 5cc1 523d 2d3f 2cbc 7fb9 88bd
00000150: c368 56bd ec79 8fbc b37f 28bd 55bd d93c
00000160: 6746 e7bc 43d6 2f3d a703 353c b6d4 bfbe
00000170: 9f62 1fbd 6011 00be abc0 103d 0304 c8bc
00000180: c56d 0ebe 6365 74bd 13f1 d63c 5b5f fdbc
00000190: aa54 a93c ea02 15bd 0e85 89bc 27a5 a13b
000001a0: 89b6 01bd 073b e23c b45b 10bd 7a68 81ba
000001b0: 81d2 3fbb a7df b5bc 3afb 8e3b 951c 6ebc
000001c0: a110 d8bb aab2 283c 8fa0 773b 463e 90bc
000001d0: 8372 b6bc e156 493b 4c86 afbc 1d23 5cbd
000001e0: f3ca 603c 7b52 c1bc 0993 e7ba f3e8 01bd
000001f0: efef ae3c e35e c8bc 430f 9cbc f0c5 753b
00000200: 236f 97bc d953 1b3c 212f a83a 95be 09bc
00000210: da44 723c 48a0 37bc 7fc0 8abd 0a38 993b
00000220: 86cc 6c3c 4559 a73b 9058 d23b fbd9 2abb
00000230: 609e 973d 3611 81bd 7a35 53bd b4ff 603b
00000240: 935c c63b 54e1 ab3b f268 94bc 7800 8a3c
00000250: 3c59 393c c27b 8a3b d0ef e43c 1b9a a83c
00000260: 1d91 b03c 06f0 9d3d 2109 1d3d 9c68 2c3c
00000270: 9673 883c acbc db3c 358a 5d3c 68c3 263a
00000280: b946 203d 1240 563b fe0d 8dbb c9b0 a5bc
00000290: 914f 5a3c e400 493c 80a1 483c be0f 583d
000002a0: 19c0 0b3d 8b7e 4f3c 58f7 3abc 6c31 d33c
000002b0: f483 0f3d c3ca e83c 1462 023d 8103 cfbc
000002c0: 194f dabb 0d5b e8bc 99d2 6239 69da 0a3d
000002d0: 7068 7c3b 0023 513d 6321 b3bc 9dd9 6a3c
000002e0: 0d7a 7e3b 6ad1 223d 7602 abbb 099c 59bb
000002f0: 4872 813d c0a0 4abc 975a 7a3b b579 abbb
00000300: 7dbd a839 87a2 683b d548 103d 037c 203d
00000310: d629 8f3c 0635 df3c da7d 40bd 3021 f93c
00000320: 944e d5bc 4b79 963c f466 c33c d956 9b3b
00000330: b33e ebbb 01d5 c6bc fadb d73c 073c f63a
00000340: 83b0 abbb d74c e33c 89ea caba aafb c2bc
00000350: 742b 1fbb 713a b73c 1b9a 1bbd 9f97 86bb
00000360: 68db ebbc 5117 a83c f05d 003d 9fff 3c3d
00000370: 8767 7a3d 6257 e5bb 7cdd 9b3c ae86 613d
00000380: 99a3 113d ebb6 173c e81e 643c af7b 5f3c
00000390: c189 323b 01bb f43c 16de 25bc 9da1 7a3c
000003a0: 509a 7a3d ce82 1a3c c465 2bbd d22b 9cbd
000003b0: 9eb1 c8bc cafa 1abd 37df ddbb d8b2 66bd
000003c0: 371f 8dbc d159 033b d2ca 85b9 f305 723c
000003d0: 1f24 c23c 0f14 81bf 17a1 41be df7a 30be
000003e0: 5f1d 2ebe d1f0 18be 2e2d 95be d536 42bf
000003f0: 773c f4bd 4873 ca3d 11cf 343d 9106 7c3d
0.012613746 0.006458223 -0.029436296 0.043047197 -0.025695708 0.02465034 0.0014563561 0.04149383
0.0017164786 -0.024561398 0.019843016 -0.017288456 0.02176185 0.016676497 -0.008235134 0.0089747
-0.008416055 -0.0017683012 0.018463586 -0.002681074 -0.013983631 0.04319859 0.02553509 -0.021654889
0.0019093902 -0.015564572 0.028636402 0.07168457 0.06978558 0.05717402 0.007055896 0.06843337
0.0010400815 -0.012016235 0.02216108 0.00031398484 -0.021240575 -0.019292984 0.047125246 -0.00023226714
0.019250706 -0.017980848 -0.05714234 0.0031524377 -4.0213832e-05 -0.0037657022 -0.004192221 0.045571357
0.03635843 -0.063127 -0.03782436 -0.0869954 0.059929166 -0.019920327 -0.016662452 -0.06875606
0.048572797 -0.004777555 -0.0019609435 0.0360757 -0.005976232 -0.080889106 0.09312188 -0.123082146
0.00281413 0.0054637203 0.043965116 -0.022842787 -0.015974503 -0.05923928 0.05737969 -0.004197667
-0.04545396 0.03409566 -0.022046028 0.0227959 0.02570058 -0.09851307 -0.13446294 -0.030130703
-0.011055833 0.051453933 -0.010513109 -0.066760056 -0.052346002 -0.017514192 -0.04113741 0.026579538
-0.028231813 0.042928945 0.011048234 -0.37466973 -0.03891241 -0.12506628 0.035339992 -0.024415975
-0.13909061 -0.059667002 0.026238 -0.030929258 0.020670254 -0.036379732 -0.016787078 0.004933018
-0.03166822 0.027616037 -0.035243705 -0.0009873055 -0.0029269757 -0.022201372 0.0043634446 -0.014533182
-0.006593779 0.010296503 0.003778491 -0.01760782 -0.0222714 0.003072195 -0.021426342 -0.053744424
0.013720262 -0.0235989 -0.0017667721 -0.0317163 0.021354644 -0.024459308 -0.019050246 0.0037502013
-0.018485611 0.00948044 0.0012831428 -0.008407255 0.014786923 -0.011207648 -0.06774997 0.00467587
0.014453059 0.0051070773 0.006419249 -0.0026069868 0.074032545 -0.06302111 -0.05156467 0.0034332098
0.006053516 0.005245367 -0.018116448 0.016845927 0.011312779 0.004226179 0.027946383 0.020581296
0.02155357 0.077117965 0.038338784 0.010522988 0.016656678 0.026823364 0.013521721 0.0006361515
0.039129946 0.0032691997 -0.0043046465 -0.0202259 0.013324634 0.012268279 0.012245536 0.052749388
0.034118745 0.012664448 -0.01141151 0.025780402 0.03503795 0.028416997 0.031831816 -0.025270225
-0.006662261 -0.028363729 0.00021631493 0.0338997 0.0038514398 0.05105877 -0.021866506 0.01433411
0.0038830072 0.039750494 -0.005218799 -0.0033204576 0.063206255 -0.012367427 0.0038200968 -0.0052330145
0.00032184637 0.0035497264 0.035225708 0.039180767 0.017476004 0.027246963 -0.04699502 0.030411333
-0.026038446 0.018368384 0.023852803 0.0047405777 -0.007179105 -0.02427149 0.02635001 0.00187862
-0.0052395477 0.027746601 -0.0015481274 -0.023801643 -0.0024287375 0.022366734 -0.037988763 -0.00410743
-0.028791144 0.02051893 0.031339586 0.046142217 0.061133888 -0.0069989422 0.01902651 0.05506008
0.03555641 0.00925992 0.013923384 0.013640328 0.0027242752 0.029874327 -0.01012375 0.015297321
0.06118232 0.0094306 -0.0418451 -0.076255456 -0.024498757 -0.037836827 -0.006770994 -0.056322902
-0.017226798 0.0020042548 -0.0002551885 0.014771926 0.023698865 -1.0084246 -0.18909107 -0.17234372
-0.17003392 -0.14935614 -0.29136032 -0.7586492 -0.11925595 0.098852694 0.044142786 0.0615297
