DVC/examples/flow_pretrain_np/modelL2_F-5-weight.npy (npy, 6400 bytes, 1 tensors)

array f4 [2, 16, 7, 7]
00000000: e469 dcba 1c33 d2ba af4f 1cb9 e993 b53a
00000010: 90cb 343b 9d2f 473b 954d 773a 6a6a 9d39
00000020: 84ca b03a 80d8 ce3a d9c2 d23a d10c 943a
00000030: 0645 373b 370e 483b ea60 673a ff34 f73a
00000040: 8371 6c3a 5cb0 653a bc2f a03a 20b5 5f3a
00000050: e618 493b 53bf 1f3a b206 583a 16d9 523a
00000060: 1c25 c03a 1ab9 143b 8df0 1e3b c62a 0b3b
00000070: dde7 513a 7254 3039 58a0 b4b7 2895 f139
00000080: 97cb 993a b659 db3a e32d 6f39 898a 963a
00000090: 68fa 073a 8485 ae39 cd54 2139 c15b 703a
000000a0: 0437 8f3a 52ad c1b8 ecba eb3a 4c1f 353a
000000b0: 067b 5f3a be09 843a 8d99 b03a b5c4 563a
000000c0: fffe 8b39 dbf9 56bb 4ec3 6fbb 0e11 90bb
000000d0: 64b7 acbb 9051 a9bb 51c1 98bb 2422 81bb
000000e0: 5adc 82bb 55aa 9ebb 8694 b8bb a860 d1bb
000000f0: 2f1a d7bb e14a c7bb f6e2 b2bb b787 87bb
00000100: b6da a1bb 2f14 bebb e1e5 dfbb 19a2 f9bb
00000110: a374 ebbb 3abe d6bb ded4 98bb d746 bbbb
00000120: 8a43 d3bb defb eebb 4e0f 02bc 1efe 09bc
00000130: 4ca4 01bc 9f75 65bb aa33 97bb d5ba b0bb
00000140: d6a0 cebb 49c7 e8bb 656e ecbb bd09 e4bb
00000150: b5d9 4cbb 70a0 83bb 4e33 9cbb ac53 c8bb
00000160: c8cd d8bb 16d4 c6bb d4b9 cfbb 9e9d 2dbb
00000170: 53ad 6ebb db7c 8ebb c9cf c1bb 111e c7bb
00000180: ae5f bcbb 0fd4 c9bb a5e7 683c bc6e 473c
00000190: 73f4 193c d2ca f03b 1388 5c3b 44f8 173b
000001a0: dc16 e43a 36b3 5d3c fb00 3a3c 122d ff3b
000001b0: e6a1 a63b 2629 dd3a e1b2 9f3a 85a9 7d39
000001c0: 5571 ad3c 4228 7d3c 182f 223c 4ecc b73b
000001d0: d8bf 0a3b 445c 493b 3088 163b c279 003d
000001e0: 319d a13c 3d1a 5a3c caf1 023c 8195 863b
000001f0: 701a a73b 1c21 a23b 9aa7 1f3d e030 be3c
00000200: 53f7 813c 761e 403c efaa 073c 6d1f 163c
00000210: c3b7 123c ece0 0f3d 6c4f 023d cf5a ac3c
00000220: e32a 833c b95e 523c 805e 3e3c c407 103c
00000230: d3d1 ca3c 4ab8 f93c 86e5 e73c 2642 be3c
00000240: b4bb 833c 4ef0 453c 9a25 243c 3333 b73a
00000250: fbc9 df3a 38e8 3f3a 737a 4db8 d070 0dba
00000260: 6d23 f237 8280 05ba ad21 d13a da02 a43a
00000270: 06d3 b739 d8c5 d238 d5a2 11ba f22e e534
00000280: 90fd 43b9 9ac6 8e3a 6097 d83a f080 a53a
00000290: dacd fd39 aabd 47b9 73b8 c939 5053 65b9
000002a0: 4ef2 803a 3132 413b 8a58 c33a 1502 483a
000002b0: d466 5e38 a23a 403a cc66 4f3a 342f 2f3b
000002c0: d9de af3b 6b72 3b3b 7e81 f73a 5785 913a
000002d0: c940 c03a adf9 e33a df1e 393b 84b3 953b
000002e0: 74f2 793b 34a2 1e3b a77f b63a 67a2 dc3a
000002f0: ca72 013b 0987 7a3b 0173 b23b de5b 9f3b
00000300: e36c 453b 3505 093b 8c37 fc3a f07d 2f3b
00000310: 1d8e 74ba ff5b 85ba 8f29 94ba 67e5 56ba
00000320: 67d8 37ba 4e42 d0b9 1bec 38b9 b02b 27ba
00000330: c0e7 70ba 1a5f dfba 5a50 b8ba 2468 9bba
00000340: aaeb 33ba 69ae fab9 2408 1cba 45c3 c3ba
00000350: a1c2 29bb 9ba2 1bbb 9708 fbba 22b4 95ba
00000360: e1bf 2dba a83d adba 8479 06bb 471c 76bb
00000370: ed40 69bb a9de 41bb 6651 f8ba 1e35 8fba
00000380: f819 88ba 8df3 eeba b94c 6dbb becc 6cbb
00000390: 6a9f 35bb dfb8 d6ba c4f4 31ba 7679 2cba
000003a0: 8666 c7ba 4c0f 34bb b934 44bb 88f7 04bb
000003b0: dd06 95ba b733 b6b9 8848 c0b9 95f1 f9b9
000003c0: 18d2 8eba d250 b0ba 9bea 33ba 6bc1 1cb9
000003d0: a0ae 0a39 1ba2 463b 5eb9 363b d231 6a3b
000003e0: e784 8d3b be60 733b 90b0 3e3b 4bd4 083b
000003f0: a3d5 463b 06a3 533b 3f2c 8a3b 35af a63b
-0.0016816226 -0.001603696 -0.00014907004 0.0013853285 0.0027587153 0.003039337 0.0009433863 0.00030024658
0.0013488089 0.0015781075 0.0016079798 0.0011295323 0.0027964725 0.003052605 0.0008826392 0.0018860399
0.00090196 0.00087619363 0.0012221257 0.00085337646 0.0030685007 0.0006093878 0.0008240744 0.00080432126
0.0014659497 0.0022693337 0.0024252266 0.0021235212 0.00080072676 0.00016816126 -2.1532338e-05 0.00046078232
0.0011733648 0.001673511 0.0002280991 0.0011485378 0.0005187155 0.00033287343 0.00015385747 0.0009168946
0.001092643 -9.2352406e-05 0.0017984784 0.00069092656 0.0008525107 0.0010073704 0.0013473496 0.0008192764
0.00026702133 -0.0032802734 -0.0036584917 -0.0043965643 -0.0052708853 -0.0051671937 -0.004661717 -0.0039408375
-0.003993553 -0.0048420825 -0.0056329397 -0.006389696 -0.0065644006 -0.0060819243 -0.0054591848 -0.0041360515
-0.0049394025 -0.005800746 -0.0068328236 -0.0076182005 -0.007185535 -0.0065534385 -0.0046640476 -0.005715232
-0.0064472603 -0.0072932085 -0.007938219 -0.008422403 -0.007912707 -0.0035012735 -0.004614313 -0.005393366
-0.006305794 -0.0071038348 -0.0072153085 -0.0069591687 -0.0031257693 -0.0040169284 -0.004766858 -0.00611349
-0.006616328 -0.006067763 -0.006339291 -0.0026491652 -0.0036419227 -0.00434838 -0.0059146625 -0.0060765822
-0.0057487106 -0.0061593126 0.014215385 0.012172397 0.00939666 0.007348397 0.0033650442 0.002318875
0.0017401832 0.013531497 0.011352773 0.007787355 0.0050852178 0.0016873225 0.0012184047 0.00024191111
0.021172205 0.015451493 0.009898923 0.005609072 0.0021171477 0.003072516 0.0022969358 0.031366117
0.019728275 0.01331192 0.007992217 0.0041071777 0.005099587 0.0049477946 0.038978197 0.023216665
0.015865004 0.011726012 0.0082805 0.009162766 0.008954945 0.03512661 0.031814024 0.021039395
0.01601166 0.012839966 0.01161921 0.008790914 0.024758255 0.030483384 0.028307687 0.023224901
0.016080715 0.012081219 0.010018731 0.001397705 0.0017073745 0.0007320675 -4.898985e-05 -0.00053955335
2.8865144e-05 -0.00050926965 0.0015955471 0.0012513057 0.00035061705 0.000100504316 -0.0005555575 4.268873e-07
-0.00018691109 0.0010892928 0.0016524605 0.0012626927 0.00048409292 -0.00019048774 0.00038475133 -0.00021870178
0.0009837837 0.002947938 0.0014903706 0.0007629705 5.302469e-05 0.0007332956 0.0007911741 0.0026731016
0.0053671417 0.0028602134 0.0018883196 0.001110236 0.0014667745 0.0017393135 0.002824716 0.004568519
0.0038138898 0.0024205567 0.0013923541 0.0016833068 0.0019752258 0.003822746 0.0054458384 0.0048632463
0.0030124716 0.0020907645 0.0019242628 0.0026777945 -0.0009329038 -0.0010174512 -0.0011303889 -0.0008197636
-0.00070131425 -0.00039722252 -0.00017635564 -0.00063770544 -0.0009189807 -0.0017041892 -0.0014062033 -0.0011856598
-0.0006863425 -0.00047813662 -0.0005952141 -0.0014935514 -0.0025903361 -0.0023748043 -0.001915234 -0.0011421482
-0.00066280185 -0.0013217228 -0.0020519206 -0.0037553476 -0.0035591677 -0.0029582179 -0.0018945157 -0.0010925864
-0.0010383716 -0.0018230543 -0.003620906 -0.0036132778 -0.0027713426 -0.0016382 -0.0006788487 -0.00065793784
-0.001521305 -0.0027474938 -0.0029938652 -0.0020289142 -0.0011369843 -0.00034752276 -0.00036675134 -0.00047672974
-0.0010896353 -0.0013451821 -0.0006863267 -0.00014949373 0.00013225758 0.0030309025 0.0027881484 0.0035735262
0.0043188217 0.003713652 0.0029096939 0.002087849 0.003033974 0.0032293214 0.0042167003 0.0050868043
