DVC/examples/flow_pretrain_np/modelL5_F-2-weight.npy (npy, 401536 bytes, 1 tensors)

array f4 [64, 32, 7, 7]
00000000: 2801 32bd eaa5 2dbc c174 d3bc 6aaf 62bc
00000010: 0c5a a33d 9ce5 00bd 18ea 08be 4fed 2c3c
00000020: fe08 cfbb a2ed 113c 0053 213e 5b38 493c
00000030: feae a53c d4f5 453c 20af c13a 7c2d 81bd
00000040: 7e66 d23c f402 f0bd 0e2d 9bbe aeed 97be
00000050: bd45 c6bd 7d03 19bd 7e8b a1bd c473 9fbd
00000060: 986a 55be e505 c5be c10a 82be e635 2cbd
00000070: 910e 53bd 517e 813b 55e2 aebd 2847 1bbd
00000080: 3b4d d03d 9bd1 6a3d 1581 6a3d f265 8ebc
00000090: a0b3 99b9 e7f7 9e3a ae79 e53d ee01 003d
000000a0: b3b7 0fbd 6bad b63d affc 93bb 5c5b 583d
000000b0: 02b3 f73c 16ac 723d 0ba1 8e3d d316 353d
000000c0: 8f58 333e 910a 4abd ef65 0dbd 4d65 1d3e
000000d0: dfe9 803e 16dd 173e d323 1e3c 59fb eebc
000000e0: ba5a a03c b1b6 9a3d 01f0 693e 6d7e b43e
000000f0: 471b 6b3e 1c67 8b3c 843c 2fbd b980 a2bc
00000100: 090c 2cbd 1bfb a23d 4bc0 243e 9dc2 c43d
00000110: 8b0d 8fba 536f 54bd 98ee 7ebd ff63 b6bd
00000120: 5b53 a2bd 81c8 e9bd 9bdc 0dbe a91b acbd
00000130: 3f4b 84bd 8a6a 40bc a4f4 51bd 43a3 0ebc
00000140: fd0e 89bc aabe 51bd db47 63bd 12ab 0cbd
00000150: 501a 22bd 13f6 97bd caae c9bd 121d 98bd
00000160: bda4 a2bd 4bc9 93bd ae37 1ebc 7069 0539
00000170: 78e9 99bc e88c d2bc b1c8 36bd 869f 7dbc
00000180: 0e77 92bc cd5a a93c fde6 85bd ddd5 9abc
00000190: 4598 583c e9db cabd d9d8 53bd 55d2 b0bc
000001a0: 75fd b238 cd13 f0bd faaf 89bd d65f 81be
000001b0: 7bba dcbd a3ad c0bc b63c 1d3c 7ffe 5ebc
000001c0: 7517 533c 5837 8e3c 12a5 09bf 3909 bb3d
000001d0: 9cc8 b0bd 9381 2bbb 870c eabc 6cf7 83bd
000001e0: 460d e8bc 723f babe d56c 9c3e 5076 c3bd
000001f0: 2cc7 d33a 225b 24bc 1075 d8bd 2d49 cfbc
00000200: 0cc8 e3bd 6bce a53d 4af0 76bd 3f7e 98bc
00000210: 349a 8bbb a7e5 68bd c0e5 ac3c ef6d 01be
00000220: 21a5 a8bd 4a09 94bd 1f2e 24bd 2b45 84bc
00000230: 22d5 5dbc ca88 183d 7c85 1a3d f000 643c
00000240: b5a3 d4bd c341 7cbc 41a9 da3c 0ca2 0e3c
00000250: 8f82 823c 00de d63d 619d 81bd 5686 afbd
00000260: 7efd a63d 27fb 333c 75b7 cc3c 45e3 fc3b
00000270: 7e97 a43c 21b6 13bf 0768 51bf 8d10 c3bd
00000280: a398 8a3d fdd6 0ebc ae00 c1bc 4a6c 803c
00000290: b1d3 07bf 70be 35bf b064 1abc df41 d33d
000002a0: c44d f83c 555e 443d 39f7 d23d 7ffd 5cbc
000002b0: c7e9 a1bd ad75 a63d 73ea 443d d4db c23c
000002c0: 4387 8a3c ed55 193e b445 fd3d afff 023e
000002d0: 3b8f 033e 7b02 a73d 7efc 113d 46ee fb3c
000002e0: 2612 c83d 190b 9a3d a891 4c3d 18e2 0d3c
000002f0: c638 5c3d 67c7 003c cf59 0d3c c297 8a3d
00000300: a083 473c f4ee 2f3c ab26 edbc 7ad6 253d
00000310: 53e8 8abc 950d e1bc 41f3 a1bd e032 94bd
00000320: ad3b 49bd f39f 6cbc 7e99 8e3c 4b59 113c
00000330: e456 113d e5c5 2a3c ffcd 24bd 18a8 d8bc
00000340: 8ded f2bc 9909 cd3a 201a ab3d e8ab d13d
00000350: d0ff 82bd 3e03 43be 1166 013e cda4 933d
00000360: 12b6 ee3c e564 c2bc 92e2 c2bd 88cf f0be
00000370: 6b8c 6fbf ab38 74be 2728 fb3c 42c7 dfbb
00000380: 89f8 fabc a716 a7bd 752e 66be 9156 c2be
00000390: af58 7abe abe0 3abd 0799 48bc dd80 45bc
000003a0: c1e9 52bd f70d 6dbd 399d 92bd bff8 8abd
000003b0: 9ae8 10bd 5364 98bc 6bde a43b e8b4 89bd
000003c0: 09f6 1bbd 7d6a 6a3c 133c 463b 6740 bb3c
000003d0: 15fd 3d3c 9ebb 193d 4675 993d fdaa 9fbc
000003e0: fa7c cbbc a6ae 693e ad27 bf3c 62dd 253d
000003f0: c974 e93c 9329 2ebd 94c3 f7bd 0015 94be
-0.043458134 -0.010598639 -0.025812509 -0.013835767 0.079761595 -0.031468973 -0.1337055 0.010554626
-0.0063182106 0.008906754 0.15754318 0.012281503 0.020225044 0.012082536 0.0014776923 -0.063075036
0.025683638 -0.11719313 -0.30307811 -0.29673523 -0.0968127 -0.037356842 -0.07887934 -0.077857524
-0.20841444 -0.3848106 -0.2539883 -0.04204359 -0.051527563 0.0039518257 -0.08539263 -0.037909657
0.101709805 0.0573288 0.05725201 -0.017382596 -0.00029316265 0.0012128324 0.11204849 0.03125184
-0.0350873 0.089197956 -0.004516206 0.052821502 0.030236725 0.059246145 0.0696431 0.04421122
0.17514251 -0.049326483 -0.03452104 0.15370674 0.2517843 0.14830431 0.009652096 -0.029172586
0.019574512 0.07554377 0.2284546 0.35252705 0.22959624 0.01701694 -0.04278232 -0.01983677
-0.042003665 0.07958051 0.16088979 0.09607432 -0.001091407 -0.05186398 -0.06223926 -0.089057915
-0.07926055 -0.11415196 -0.13853686 -0.08403713 -0.064596646 -0.011744151 -0.051258698 -0.008705917
-0.01673078 -0.051207222 -0.05548845 -0.034342833 -0.039575875 -0.07419982 -0.098477915 -0.0742742
-0.079415776 -0.07216128 -0.00965683 0.00012723147 -0.018788084 -0.025701955 -0.044624988 -0.015479928
-0.017879035 0.02067318 -0.06538198 -0.018900806 0.013219898 -0.09905226 -0.051720474 -0.02158467
8.5349115e-05 -0.11722527 -0.06723018 -0.2526843 -0.10777756 -0.023520296 0.009596994 -0.013610481
0.012884011 0.017360374 -0.537675 0.091326185 -0.08632013 -0.0026169762 -0.028570427 -0.06443676
-0.028326642 -0.3637653 0.30551782 -0.09544051 0.001615738 -0.010031493 -0.10569203 -0.025303448
-0.1112214 0.08096012 -0.06028775 -0.018614886 -0.004260326 -0.05685964 0.021105647 -0.12639593
-0.08234621 -0.07228334 -0.040083047 -0.016146263 -0.013539584 0.037239827 0.037724957 0.013916239
-0.10382787 -0.015396538 0.026692035 0.008705627 0.015931396 0.10491562 -0.06328846 -0.085705444
0.081538185 0.010985172 0.024989823 0.0077175223 0.020091768 -0.5769978 -0.8179936 -0.09524641
0.067673944 -0.008718249 -0.023559894 0.015676636 -0.5305739 -0.7099371 -0.00942342 0.10315298
0.030310519 0.047941525 0.1030106 -0.013488173 -0.079059176 0.081279136 0.04807515 0.023786463
0.016910201 0.14974184 0.123668104 0.12792848 0.12847607 0.0815477 0.035641186 0.030753266
0.097690865 0.07521648 0.049943596 0.008659862 0.05376508 0.007860041 0.008627369 0.06767227
0.012177378 0.010738123 -0.028949102 0.040487744 -0.016956484 -0.027472297 -0.07907725 -0.07236266
-0.049129177 -0.014442432 0.017407175 0.008871387 0.035483256 0.010423158 -0.040235516 -0.02644734
-0.029654289 0.0015643119 0.08354592 0.10237867 -0.063964486 -0.19044206 0.12636591 0.07209168
0.029139552 -0.02372975 -0.09515871 -0.47033334 -0.93573636 -0.23849742 0.030658795 -0.0068291733
-0.030636089 -0.081586175 -0.2247866 -0.3795667 -0.24447893 -0.045624416 -0.012243516 -0.012054649
-0.051492456 -0.057874646 -0.07158894 -0.06785726 -0.035378076 -0.018602526 0.005031397 -0.06723958
-0.038076434 0.014307615 0.003024821 0.022857858 0.011595984 0.03753244 0.07493071 -0.019490713
-0.024839867 0.2282053 0.023334349 0.04049433 0.02849807 -0.042520117 -0.120978504 -0.28922272
