DVCreimplement/examples/flow_pretrain_np/modelL6_F-2-weight.npy (npy, 401536 bytes, 1 tensors)

array f4 [64, 32, 7, 7]
000000 50 50 2c bd 54 c9 09 bc 89 14 bf bc a3 0a 0d bc
       -0.04206878 -0.008409817 -0.023325222 -0.008608493
000010 97 ac ba 3d de 4c cf bc fc 67 08 be 3c a7 52 3c
       0.0911495 -0.025305208 -0.13320917 0.012857255
000020 c7 46 aa bb dd 33 2f 3c e6 e4 2b 3e 63 5b 7a 3c
       -0.0051964256 0.0106935175 0.16786537 0.015280577
000030 90 bf ba 3c 23 d2 64 3c e1 50 74 3b 04 8d 82 bd
       0.022796422 0.013966116 0.0037279653 -0.06374553
000040 81 4a e3 3c 90 1e fa bd 35 d0 a1 be e9 7f 9d be
       0.027745487 -0.122128606 -0.31604162 -0.3076165
000050 3c ec ca bd c6 27 17 bd e7 1d a4 bd 26 57 a2 bd
       -0.099083394 -0.036903165 -0.08013516 -0.079267785
000060 65 c0 5a be c7 fe c9 be 96 13 85 be d0 11 2c bd
       -0.21362455 -0.39452192 -0.25991505 -0.042009175
000070 51 30 53 bd 33 2c 9b 3b 38 1c b1 bd 29 8a 1a bd
       -0.05155975 0.0047354936 -0.086479604 -0.037729416
000080 f6 49 d6 3d aa 47 74 3d cd 6b 75 3d ed 11 98 bc
       0.10463326 0.059638657 0.05991726 -0.018563235
000090 92 b6 8b ba 0a f0 21 3a 2f 77 e8 3d 97 b7 03 3d
       -0.0010659269 0.0006177431 0.113508575 0.032157507
0000a0 67 4b 0e bd fb 24 bb 3d c8 3d c7 bb ea 98 56 3d
       -0.034739878 0.09137913 -0.006080363 0.052391924
0000b0 2f b9 f4 3c ee 08 75 3d 47 85 91 3d bc 0a 3b 3d
       0.029873459 0.05982297 0.07105499 0.045664534
0000c0 6d 69 36 3e 19 e0 35 bd ae fb f0 bc a9 61 23 3e
       0.17813654 -0.04440317 -0.029416885 0.15955223
0000d0 a2 18 84 3e 96 08 1e 3e 41 7c 79 3c 6d 62 c2 bc
       0.25800043 0.15432963 0.015227378 -0.023728574
0000e0 a7 7c c6 3c e1 62 a4 3d dd d4 6e 3e 5e f6 b6 3e
       0.02422936 0.08026672 0.23323388 0.35734838
0000f0 62 d8 6f 3e fe 1c ae 3c 58 a6 1d bd 17 c0 6d bc
       0.23422387 0.021254059 -0.038488716 -0.01451113
000100 70 bd 17 bd f1 c0 ac 3d ad 7f 29 3e 3a 56 ce 3d
       -0.037045896 0.08435238 0.1655261 0.1007504
000110 24 14 71 3b 87 34 41 bd d7 80 67 bd 78 1e ab bd
       0.0036785686 -0.047169235 -0.056519356 -0.08355421
000120 a9 3e 97 bd 1c 11 df bd 6b 6c 08 be 11 bc a0 bd
       -0.07384998 -0.10891935 -0.13322608 -0.07848371
000130 07 33 72 bd eb 65 c3 bb c4 01 3a bd ab 5a 24 bb
       -0.059130695 -0.0059630773 -0.04541184 -0.0025078456
000140 3a 7f 2c bc 30 dd 38 bd 6e 71 4b bd 39 f6 eb bc
       -0.01052838 -0.045132816 -0.04966872 -0.028803932
000150 6e 23 09 bd 13 90 8b bd 24 2a bd bd 7d b6 8b bd
       -0.033481054 -0.06814589 -0.09236553 -0.06821916
000160 bf b1 96 bd 86 71 88 bd e3 4f 8e bb 24 9d e6 3b
       -0.07358121 -0.06662278 -0.0043430193 0.0070377756
000170 77 48 4a bc ac 52 9f bc d9 6a 1e bd 91 2f 1e bc
       -0.0123463785 -0.0194486 -0.038676117 -0.009654895
000180 37 53 4a bc bf 88 d5 3c 55 85 8d bd c4 bf 9f bc
       -0.0123489415 0.026066182 -0.06910197 -0.01950062
000190 ad 0d 93 3c a2 74 c7 bd 0c 19 44 bd 81 5d 9b bc
       0.017950857 -0.09739043 -0.04787545 -0.018965485
0001a0 a8 94 65 3b 07 e9 02 be d2 82 9a bd a5 cc 8a be
       0.0035031233 -0.12784205 -0.07544483 -0.27109256
0001b0 e3 32 dd bd 02 cf a1 bc 04 ea 45 3c 8a 1f 2f bc
       -0.108007215 -0.01975203 0.012079719 -0.010688672
0001c0 9e 13 1c 3c cd 4d 82 3c 92 b5 10 bf 8b 98 d2 3d
       0.0095261615 0.015906239 -0.56527054 0.102830015
0001d0 e2 28 b0 bd 34 7f 4b 37 16 43 d6 bc 31 b9 98 bd
       -0.08601548 1.212936e-05 -0.026155036 -0.074571975
0001e0 e2 41 10 bd 6e 2e c8 be 95 b2 a6 3e 89 e5 c4 bd
       -0.03521908 -0.39097923 0.32558122 -0.09614093
0001f0 b1 a6 90 3b 6e 38 01 bc 40 3b ee bd ca 3a ee bc
       0.0044144024 -0.007886989 -0.11632395 -0.029080767
000200 43 b1 02 be 22 c6 b1 3d 26 f7 70 bd ad 7a 82 bc
       -0.12762932 0.08680369 -0.05882945 -0.015927637
000210 eb 5a e1 ba 5a 60 6b bd 68 19 de 3c 28 db 07 be
       -0.0017193233 -0.057464935 0.027111724 -0.13267195
000220 ac 79 a9 bd 62 7f 8f bd ed 66 15 bd 16 25 47 bc
       -0.0827516 -0.07006718 -0.03647511 -0.012154838
000230 cb 2e 4d bc c1 bc 2d 3d 98 d1 2e 3d 63 52 93 3c
       -0.012523363 0.042416338 0.042680353 0.017983621
000240 a9 c1 d3 bd e9 2b 3f bc c2 4d ff 3c 4b 2c f6 3a
       -0.10339672 -0.011668184 0.031165008 0.0018781511
000250 2d ed 1a 3c 46 f1 cb 3d 14 99 8f bd 17 ff bc bd
       0.009455961 0.09958129 -0.07011619 -0.09228342
000260 e8 db 9e 3d 84 92 d8 3b 23 f4 98 3c 54 64 b4 3a
       0.077567875 0.006609263 0.018671101 0.001376281
000270 5b a0 63 3c 7c 1d 17 bf a8 62 55 bf 0d ff cf bd
       0.013893212 -0.59029365 -0.8335366 -0.10156069
000280 7f bd 82 3d 8a 08 73 bc dc 1a f6 bc f0 5f 17 3c
       0.063838 -0.014833579 -0.030042104 0.009239182
000290 16 19 0b bf 32 6a 39 bf ab 64 74 bc 67 67 cc 3d
       -0.54335153 -0.72427666 -0.014916579 0.0998066
0002a0 e6 cb cb 3c 76 a0 2d 3d 2b 0b c8 3d 28 8b a4 bc
       0.0248775 0.042389356 0.09767755 -0.020085886
0002b0 5d 5b b0 bd fd 76 9d 3d e7 62 36 3d d6 7b 97 3c
       -0.08611176 0.07688711 0.044527914 0.018491667
0002c0 40 79 3b 3c 52 97 14 3e 91 79 f3 3d ab ca fc 3d
       0.0114424825 0.14510849 0.11888421 0.12343343
0002d0 86 a7 ff 3d e6 cb a0 3d d2 83 fa 3c d8 1f d3 3c
       0.124831244 0.078513905 0.030580435 0.02577202
0002e0 b6 06 bf 3d 6c 53 91 3d 95 e5 3b 3d 45 3a a3 3b
       0.09327452 0.070959896 0.045873243 0.0049813115
0002f0 3d fd 50 3d 3b a1 2c 3b 00 3d 73 3b 37 07 82 3d
       0.051022757 0.0026341218 0.0037115216 0.06349032
000300 47 bf 07 3c b0 61 ef 3b 88 a0 03 bd 6b 9b 1b 3d
       0.00828535 0.0073053464 -0.032135516 0.037990015
000310 01 46 65 bc b8 17 d0 bc de 3f a0 bd 55 bf 92 bd
       -0.013993741 -0.025401935 -0.07824682 -0.071654
000320 14 f5 45 bd eb ff 52 bc 91 ea a0 3c 59 63 2a 3c
       -0.048329428 -0.012878398 0.0196431 0.010399663
000330 da 19 10 3d 6f e8 12 3c 6d 88 2c bd d4 61 e1 bc
       0.035180904 0.008966549 -0.042122293 -0.027512468
000340 c5 d2 f3 bc eb 95 31 3b 69 52 b3 3d 6b ce d2 3d
       -0.029763589 0.0027097415 0.08755953 0.10293277
000350 b4 c1 98 bd 08 07 54 be 38 1a 07 3e 01 c9 99 3d
       -0.07458821 -0.20705807 0.13193595 0.075090416
000360 72 f2 fe 3c 1d 28 c5 bc c0 93 d6 bd f3 1c fe be
       0.031121466 -0.024066979 -0.104774 -0.49631462
000370 fc dd 76 bf ff 34 85 be 36 18 f9 3c e6 c4 0a bc
       -0.9643247 -0.26016995 0.030407052 -0.008469796
000380 4e 78 04 bd 50 30 b7 bd 17 d8 77 be d6 b9 cd be
       -0.032341294 -0.08944762 -0.24203525 -0.40180844
000390 c8 87 85 be 83 2b 4f bd 18 18 84 bc 82 97 6d bc
       -0.26080155 -0.050578605 -0.01612477 -0.014501454
0003a0 3f bb 6c bd b1 2e 88 bd 80 b1 a4 bd b8 17 9c bd
       -0.05779576 -0.06649531 -0.08041668 -0.076217115
0003b0 83 02 2d bd 83 91 c9 bc 13 50 98 3b f3 09 90 bd
       -0.042238723 -0.024605518 0.0046482175 -0.07033148
0003c0 71 1c 30 bd b4 9c 11 3c 0c e2 6e bb e3 db 8d 3c
       -0.042995874 0.008887459 -0.0036450652 0.017316764
0003d0 bf e2 d0 3b a1 a0 0d 3d 99 3b 97 3d 25 51 b3 bc
       0.0063746865 0.034577016 0.07384414 -0.021889279
0003e0 27 9d bf bc c8 3a 74 3e 34 7c f3 3c 57 38 3b 3d
       -0.023390366 0.23850548 0.02972231 0.045708027
0003f0 30 7f d2 3c 18 d8 3a bd 71 8c 00 be a5 d6 96 be
       0.025695413 -0.04561624 -0.12553574 -0.29460636
