DVCreimplement/examples/flow_pretrain_np/modelL5_F-1-weight.npy (npy, 50304 bytes, 1 tensors)

array f4 [32, 8, 7, 7]
000000 ea 42 8c bd 77 bb a2 bd 51 bc 80 bd 1c 11 79 3c
       -0.068487 -0.07945912 -0.062859185 0.015201833
000010 e1 73 9e bc a6 3f 73 3c 73 5e c4 bc 25 f8 1a bd
       -0.019342365 0.014846718 -0.023970818 -0.037834305
000020 ba 6b e6 3d ce f0 40 3e 2a c1 3a 3c c6 23 c4 3c
       0.11251016 0.1884186 0.011398593 0.02394284
000030 40 c7 33 3c 9d 48 93 bc 54 26 bf 3d 2e 3f e0 3e
       0.010972798 -0.01797896 0.093334824 0.43798202
000040 4a 27 bc 3e 38 92 96 3d ee f8 ce bc c0 1a ba bc
       0.36748725 0.07352108 -0.025265183 -0.022717834
000050 8f 8d 24 3c e3 8a 6f 3d 8e ac 16 3e fd 80 c0 bb
       0.010043516 0.058482062 0.14714262 -0.0058747516
000060 05 4b 53 bd 30 df 09 bd 2d 52 e3 3c 61 05 92 3c
       -0.051585216 -0.033660114 0.027749145 0.01782483
000070 47 82 0e be 11 68 c6 be ba d9 f1 be 5c 5f 82 be
       -0.13916884 -0.3875127 -0.47236425 -0.25463378
000080 a2 55 17 bd ea 7c 97 3c a8 25 9d bc 0a 7e 05 bd
       -0.0369469 0.01849218 -0.019182995 -0.032590903
000090 4c 53 43 be bc 9f 84 be e5 53 a1 bd e3 92 49 bc
       -0.19074744 -0.25903118 -0.0787733 -0.012303087
0000a0 34 a1 96 3c a1 f6 db bb dd 89 8e bc ec 30 10 3c
       0.018387415 -0.00671275 -0.017399723 0.008800726
0000b0 7b 2a 02 3c 78 fb 11 3c 62 85 26 bc b9 2b a5 3c
       0.007944698 0.0089100525 -0.010163637 0.02016245
0000c0 21 0d 41 b9 aa 8a c8 3c f3 52 86 bd 0f d1 fb bc
       -0.00018410805 0.024480183 -0.0655879 -0.030739335
0000d0 99 eb a6 3c 5a 79 f9 3c 9a 0f e0 3b 00 3b f4 3c
       0.020376014 0.030453373 0.0068377974 0.02981329
0000e0 4e 53 89 3c 53 79 8a 3d ca 41 08 3e fc ba 20 bc
       0.016763356 0.06761422 0.13306347 -0.009810206
0000f0 ca 60 1a bd d2 03 cc 3b 76 0c 1b 3d 76 21 b2 bc
       -0.03768996 0.0062260414 0.03785368 -0.021744471
000100 45 26 c4 3e 23 47 92 3e 6e 59 16 3d 1e 6e 97 bc
       0.38310447 0.28569898 0.03670638 -0.018485125
000110 9b c4 00 bd ae d2 23 bc ef 83 f8 bc 41 e4 7b 3d
       -0.031437498 -0.00999896 -0.030336348 0.061496977
000120 40 68 8c bd c0 79 8d bd 8c 63 37 3c 3e fe 02 bd
       -0.068558216 -0.069079876 0.011193167 -0.031980745
000130 94 bb 86 38 23 83 b0 bd c0 ff 92 be 07 43 b2 be
       6.424557e-05 -0.08618762 -0.28710747 -0.34816763
000140 bf 6e 10 be 8f 50 40 3c 01 9f 99 3c 66 5a 83 ba
       -0.14104746 0.011737957 0.018752577 -0.0010021448
000150 8e 95 2b 3d f3 e6 93 bd 95 da d3 bd 12 87 88 bc
       0.041890673 -0.072217844 -0.103444256 -0.016665969
000160 8f d0 a8 3c bb 29 1e bc cd 63 2a bc e3 69 1f 39
       0.020607261 -0.009653504 -0.010399771 0.00015202868
000170 ac ab c8 3c 8c be b5 3c 1c 5c 40 3d d2 c1 5f 3c
       0.024495922 0.022185586 0.046962842 0.01365705
000180 43 04 a1 bc 8c 30 81 bc 57 d1 35 3d 5c 92 d0 3b
       -0.019655352 -0.01577022 0.044389095 0.0063651036
000190 60 67 b4 3a f0 e9 55 bd 1b 28 5a ba 40 74 15 bc
       0.0013763718 -0.052225053 -0.0008322016 -0.009121954
0001a0 31 41 31 bd ee 0b 56 bd fc 3c 6e 3d 3d 0a c9 3d
       -0.043275062 -0.05225747 0.058163628 0.09816406
0001b0 22 5f 99 bc 64 39 66 3c 29 e0 4a bb ae 3a 16 bc
       -0.01872212 0.014051769 -0.0030956364 -0.009169264
0001c0 f2 62 fc bc d3 45 89 3e 0a 01 95 3e b3 01 79 bb
       -0.0308089 0.26811084 0.29102355 -0.0037995398
0001d0 94 93 94 bc 20 f1 24 bc 9d eb a7 bc a7 f2 61 bd
       -0.018136777 -0.010067254 -0.020498091 -0.055163052
0001e0 8f 51 71 bd fb 80 53 3b f1 3e 80 3a f6 a2 a4 bb
       -0.05891567 0.0032272923 0.0009784383 -0.0050243093
0001f0 6f d8 62 3b af a7 84 bb 9c 11 fa 3a 58 65 81 be
       0.0034613868 -0.0040483098 0.0019078734 -0.25272632
000200 b5 7f 89 be 00 08 ad bd 22 1f 56 bb 57 58 0f 3c
       -0.26855245 -0.084487915 -0.0032672365 0.008749089
000210 63 f2 10 3d f6 b9 cb 3c 4f 04 b2 bb d3 4e 01 bd
       0.035387408 0.024868947 -0.0054326425 -0.031569313
000220 81 82 03 3a 8b a3 85 3d 6c 48 39 3a 32 42 d4 bb
       0.00050167 0.06525334 0.00070679816 -0.0064776177
000230 92 08 7b bb 1b 02 41 3c bf d5 51 3d c8 dc ee ba
       -0.003830467 0.011780287 0.051229235 -0.0018223757
000240 27 bb 00 bd 35 91 00 bd e4 ba 13 bc 73 ca c0 3c
       -0.031428482 -0.03138848 -0.009016726 0.023534035
000250 e5 89 05 3e c2 cc bb 3d 5b 9c 63 3c 37 de bb 3c
       0.13040884 0.09169914 0.0138922585 0.022933109
000260 c3 97 4c 3b 93 46 91 3c ff d3 82 3d d1 58 78 bd
       0.0031218387 0.017733848 0.06388091 -0.060631577
000270 59 2b 6f be 3f fb 65 bc 8e a1 f7 3b f5 1b cd 3c
       -0.2335638 -0.0140369525 0.0075571006 0.025037745
000280 85 1a b6 3c 6f 08 d8 bc c1 29 23 bf 23 1b 17 bf
       0.022229442 -0.026371209 -0.63735586 -0.5902578
000290 78 88 58 bd a5 a2 41 3c 86 3a 34 ba a9 4f fd bc
       -0.05286452 0.011818563 -0.0006875176 -0.030921774
0002a0 c4 84 ac 3b 2b ff f6 bd f4 6c cd 3d 3a 64 4c 3e
       0.0052648503 -0.12060388 0.10030547 0.19960108
0002b0 8e 65 83 3d b9 d3 b2 bc 90 34 74 3c 3a 85 c1 3d
       0.064158544 -0.021829473 0.01490511 0.09449239
0002c0 b4 79 d5 3e 24 21 20 3f 9d 47 77 3e d7 ac 09 bd
       0.41694415 0.6255057 0.24148412 -0.0336121
0002d0 06 dc e9 bc 80 b8 87 bc 53 4e 0f bc 7c 56 61 3e
       -0.028547298 -0.016567469 -0.008746701 0.22005647
0002e0 32 dc 73 3e fb 69 36 3d 50 60 84 bd 2d be a6 bb
       0.23814467 0.044534665 -0.06463683 -0.0050885887
0002f0 e4 03 3a 3d 47 ee b6 bc f1 80 94 bc 56 c1 b8 bc
       0.045413867 -0.022330416 -0.01812789 -0.022553127
000300 e2 ad 2f bd a5 06 02 3d 50 ec 1e 3c d0 91 89 bc
       -0.042890437 0.031744618 0.009699896 -0.016793162
000310 6c 38 34 bd da 69 84 3d 23 f0 da 3d fa ea 0c bd
       -0.04399912 0.06465502 0.10690334 -0.03440378
000320 39 5b bd bc 7e a1 ab 3c 71 4a 28 bd 01 a4 98 3d
       -0.023114787 0.020951029 -0.041086618 0.07453156
000330 2a f2 cd bc 3f 0b 4a be ba 48 dc 3c b8 e1 ce 3c
       -0.025139887 -0.19730853 0.026890147 0.025254115
000340 16 21 59 bd aa 1d 61 bb 9d 71 be bc 68 6a cf be
       -0.05301007 -0.0034349957 -0.023247534 -0.4051087
000350 54 29 e9 be 24 d6 a9 bc 94 11 07 bb f2 d6 2a 3d
       -0.45539343 -0.020731993 -0.0020609843 0.041708894
000360 83 0e 46 bb 70 ce d6 3c 9a 95 39 be 28 88 54 3d
       -0.0030221052 0.026221484 -0.18123475 0.05188766
000370 e8 64 1c 3e 60 33 8b bb 0e ce ab ba 19 18 df ba
       0.15272868 -0.0042480677 -0.0013107674 -0.0017020731
000380 12 0c 98 3d 3d e1 af 3e ed 48 fe 3e 75 fb fc 3d
       0.07424177 0.3435153 0.49665013 0.12352649
000390 10 f8 58 bd 4d a9 4a bd 62 e1 d0 3c bc df 5e bd
       -0.052970946 -0.049477864 0.025498096 -0.05441259
0003a0 57 cd f3 3d 26 13 13 3e 49 15 dc bc d5 04 4e 3c
       0.119044 0.14362773 -0.026865618 0.012574394
0003b0 c4 ad 8f 3d 97 0f 20 3c 99 05 d8 bc 79 71 62 bd
       0.07015565 0.009769342 -0.026369857 -0.055283997
0003c0 67 7a 1b bd 07 45 54 bd d9 f8 a7 bc ae 84 aa 3b
       -0.03795853 -0.051823642 -0.020504402 0.005203805
0003d0 92 af d2 3a 82 65 45 bd 63 64 e8 3c 21 c0 09 bd
       0.0016074053 -0.04819251 0.02836818 -0.033630494
0003e0 07 19 41 3c 44 35 99 3a 65 00 de bb d0 9c 5a 3d
       0.011785752 0.0011688848 -0.0067749494 0.053372204
0003f0 36 ff 69 3c c2 04 d8 bb 16 98 10 be ab 21 2e 3d
       0.014282038 -0.006592364 -0.14120516 0.042512577
