DVCreimplement/examples/flow_pretrain_np/modelL5_F-3-weight.npy (npy, 401536 bytes, 1 tensors)

array f4 [32, 64, 7, 7]
000000 6b 1c 85 bc 52 b6 d1 3c 7d f9 5d 3d 7a eb af 3c
       -0.016248902 0.025599632 0.05419301 0.021474589
000010 7a f4 80 3d fb aa 2a bc 63 fc 5e bc 65 3e f6 bb
       0.0629663 -0.0104167415 -0.013609978 -0.007514762
000020 8d 42 44 3d 0a e4 e0 bb 06 2b a4 bd 2a 14 97 3d
       0.04791503 -0.006863122 -0.080160186 0.07376893
000030 cd e0 e4 3c a1 c7 cf bc 37 f3 c3 3c 76 89 89 bd
       0.027939225 -0.025363745 0.023919685 -0.06715672
000040 67 a6 7a bc 64 8f ca bc 20 c6 8f 3d 19 0e 6c 3c
       -0.0152984625 -0.024726577 0.07020211 0.014407658
000050 eb af 3a 3d 12 d6 41 bd b1 8e 93 bd 2c 5f fb 3d
       0.045577925 -0.047323294 -0.072049506 0.12274012
000060 9e c6 4a 3e e4 cb 27 3d 86 c2 ad bd d7 6c 1b bd
       0.19802329 0.04096593 -0.08484368 -0.037945595
000070 de 14 22 3d 7b 35 b2 bd 96 d1 73 3c 88 f2 0d 3c
       0.03957068 -0.08701607 0.014881512 0.008663781
000080 ed 14 d3 bd 6b 18 5c bd 2e c7 a0 3d 45 65 12 3e
       -0.10306726 -0.053734224 0.078504905 0.14296444
000090 2c d4 f2 ba 7d c3 92 bd 00 4b a3 bd f1 80 99 3a
       -0.0018526367 -0.07166193 -0.079732895 0.0011711401
0000a0 e0 f1 0c 3d 27 cf f9 3c 89 2f 11 bd 99 58 0d 3d
       0.034410357 0.030494286 -0.035445724 0.03450832
0000b0 2d 96 96 3d e2 75 00 bd de 06 06 bb 8e b5 7b bd
       0.073528625 -0.03136242 -0.002045087 -0.06145244
0000c0 70 67 3e bd 29 5d d8 bb db 3b ed 3d 1b 5e be bd
       -0.046485364 -0.0066029024 0.11583682 -0.09295293
0000d0 ca 17 16 bd 07 8b ca 3d 46 a1 15 3e ba 83 e2 3c
       -0.03664378 0.098897986 0.14612302 0.027650703
0000e0 e9 25 f7 3d 26 fd c2 3d 09 5a 6b bc 45 25 f0 bc
       0.12067778 0.095209405 -0.014364728 -0.029314646
0000f0 ed 77 ac 3d 31 72 2f 3d 36 e5 d4 3d d2 d2 0a 3e
       0.084213115 0.04283351 0.10395281 0.13556984
000100 60 04 44 be da 67 17 be 54 ad 26 be 09 0a 0f be
       -0.19142294 -0.1478571 -0.16277057 -0.13968672
000110 c0 38 07 be 34 79 b2 3d 82 0c 7a 3d bd b8 8f be
       -0.13205242 0.08714524 0.061047085 -0.28070632
000120 d6 8e 8b be a0 ee 37 be 48 f2 08 bf 28 1d 38 3b
       -0.27257413 -0.17962122 -0.5349469 0.002809355
000130 31 30 d3 3d 76 aa 32 3e 1f dd e9 bb cf 2a b5 bd
       0.10311926 0.17447838 -0.0071369554 -0.08846056
000140 ec dd 35 be fd ce 43 bf f0 61 80 be f8 0c 46 3d
       -0.17760438 -0.76487714 -0.2507472 0.04835221
000150 40 9f 87 3d 71 0d b9 3c de fc da bc e9 f1 2c 3c
       0.066221714 0.022589417 -0.026731905 0.010555723
000160 92 83 6b be 71 f1 34 bd 97 00 18 3e dc 19 9e bd
       -0.22999409 -0.04417557 0.14843975 -0.07719776
000170 02 ac a0 bd 65 77 08 3d af 09 5e 3d 20 fc 87 3c
       -0.07845308 0.03331699 0.054208454 0.016599715
000180 d8 ed 0a 3d e6 5a 83 3d 42 02 71 be 4d ae 1f 3d
       0.03391823 0.06413822 -0.23536018 0.038984586
000190 a4 3b 8c 3c df d9 e8 3c c5 21 b5 3d e3 91 82 bb
       0.017118283 0.028424202 0.08844332 -0.003984676
0001a0 27 b0 cf 3e 6c 06 5b be d0 60 67 ba 9a 98 8f 3d
       0.4056408 -0.21389169 -0.0008826377 0.07011528
0001b0 b8 58 a1 3d b7 e2 f2 3d ac e4 5a 3d 38 6f 1e 3e
       0.0787825 0.11859649 0.053440735 0.15472114
0001c0 7b 98 0c be b8 01 a8 bd 2a 0f 41 be 72 2b 29 3d
       -0.13730042 -0.08203453 -0.18853441 0.0413012
0001d0 81 11 b7 bd 1e da 40 bd a5 f4 cd 3d b2 45 8f bd
       -0.089388855 -0.047083013 0.10056428 -0.06995715
0001e0 ab 84 9e 3c 48 71 d7 bd 26 d4 dd 3d 36 3a 19 bd
       0.01935037 -0.105196536 0.1083148 -0.03740903
0001f0 6d e5 a1 bd 4a 46 51 3e 35 40 81 be fe 51 b4 3c
       -0.079050876 0.2043697 -0.252443 0.022011753
000200 2d 25 5f bd 27 b3 93 bd 9d 31 01 bc f0 aa fc 3c
       -0.054478813 -0.07211905 -0.007885364 0.030843228
000210 f8 50 93 3e e8 9f 83 be a5 0d f0 3c 96 d9 b5 3d
       0.28772712 -0.25707936 0.029303381 0.08879392
000220 a0 e8 39 bc da 72 90 bb d1 bb bb 3c 2f 66 7b 3e
       -0.011346966 -0.0044082226 0.022916706 0.24550699
000230 37 a4 31 be 16 02 1f bd 56 64 bf bc a4 7f 85 3c
       -0.17347799 -0.03882035 -0.023363274 0.016296215
000240 f7 ef 13 3d 0e ba ef 3d fe 6f 95 3e e7 c0 85 3d
       0.03611752 0.11705409 0.29187006 0.06530934
000250 58 4b c8 bc 67 75 12 bd 54 c4 db 3c c6 e3 95 3d
       -0.02444999 -0.035756495 0.026827015 0.07318835
000260 31 94 84 3c a3 b9 40 bd 86 64 78 3d 43 05 99 bd
       0.016183944 -0.047052037 0.06064274 -0.07471707
000270 78 50 32 bd d6 2d 62 3d c9 01 14 3d 03 e1 c4 3c
       -0.043533772 0.055219494 0.036134515 0.024033075
000280 d9 1f 8f bd 99 f7 95 3d 1f 90 d0 3c d7 f7 6c bd
       -0.06988496 0.07322616 0.025459347 -0.057853546
000290 29 fd 72 bd 4b 20 a0 bd ad 12 88 3b a4 ea af bd
       -0.059323464 -0.078186594 0.004152617 -0.08589676
0002a0 cd d4 83 3c 4f a0 87 3c 9c df 2d bd 82 7f 09 bd
       0.016092682 0.016555933 -0.04244958 -0.033568867
0002b0 7a 81 8d bd da 75 82 3d 02 3d e0 3c cc 39 df 3d
       -0.06909461 0.06370135 0.02737284 0.10899696
0002c0 2a 8a b4 3c ff 52 84 3d 73 10 90 3d ff 1f 5f bd
       0.022038538 0.06461143 0.070343874 -0.054473873
0002d0 f2 9d c0 bd 55 d3 34 bd 58 ee d5 3d 35 28 6c bc
       -0.09405126 -0.044146854 0.10445851 -0.014413883
0002e0 dc ff ee 3c 34 bf 9c 3d 52 8c 6b 3c 6b 01 b4 bd
       0.029174738 0.076536566 0.014376717 -0.08789333
0002f0 e9 43 10 bd 2e 8d 83 3b 47 b3 71 bd 72 7f d4 bd
       -0.035221014 0.0040146327 -0.059008863 -0.10375871
000300 ad 82 3b bd 75 c5 c4 bc 33 ee 1d 3c 25 b9 50 bc
       -0.04577892 -0.024019936 0.009639311 -0.012739454
000310 f4 96 a9 bd 75 90 be 3d 02 20 e4 bd fd 1a 0c be
       -0.08280745 0.09304897 -0.111389175 -0.1368217
000320 e6 b7 72 3d 5d 96 2d bd 27 3e 19 3e 85 31 a0 bc
       0.05925741 -0.042379726 0.14965115 -0.019554863
000330 8b 43 0a bd 1d de 25 be 37 41 a8 bd 56 eb cd 3d
       -0.03375582 -0.1619801 -0.08215564 0.100546524
000340 03 16 84 3d a4 5c 11 3e a4 f5 e6 bd 37 13 c4 3c
       0.06449511 0.14195496 -0.11277321 0.023934944
000350 b8 8a f7 3d da 09 a4 3d 45 11 94 bd 51 3d 8d bd
       0.120870054 0.080096915 -0.072298564 -0.06896461
000360 8e 87 f1 3d b6 54 f2 bd 73 48 80 3d f0 fc c4 3d
       0.11793433 -0.118325636 0.062638186 0.096185565
000370 1a 66 77 3b a5 f8 b9 bd 1c 77 18 be 93 cd e9 3d
       0.0037750066 -0.09080628 -0.14889187 0.11416163
000380 17 5d 0b 3d 9e a2 ee 3c e3 da 18 3d ca 6c 7e bc
       0.034024324 0.029130276 0.03731812 -0.015528867
000390 8c 1b 05 3c 8f cf 4f 3d 9c bc 2f 3e a3 eb 6d bd
       0.0081242435 0.050735053 0.17161793 -0.05808605
0003a0 c2 9c b5 bc 55 d3 ef bc 59 7d d8 3c e0 b6 6c 3d
       -0.022169475 -0.029275576 0.026426958 0.05779159
0003b0 33 eb cd bc e6 87 02 3e 63 c9 c6 bc 84 a0 76 bc
       -0.025136566 0.12747154 -0.02426595 -0.015052918
0003c0 72 74 2b 3d d8 4e e0 bb 51 3e 50 3d 8a b2 2c 3d
       0.041859098 -0.0068453364 0.05084068 0.042162456
0003d0 55 cb 8e 3e 38 b5 10 3d fb 8d 73 bb ca c4 9e 3b
       0.27889505 0.035329074 -0.0037163484 0.0048452364
0003e0 0d fc a2 bb 32 66 a5 bc e4 21 84 b9 fd 31 ef 3c
       -0.0049738945 -0.020190332 -0.00025202252 0.029198641
0003f0 75 fe 28 3b bb d5 60 bd c3 d3 2b bd 9a ac 10 3d
       0.0025786434 -0.05489133 -0.04195 0.035320856
