DVCreimplement/examples/flow_pretrain_np/modelL6_F-3-weight.npy (npy, 401536 bytes, 1 tensors)

array f4 [32, 64, 7, 7]
0	0xbc61709d	-0.013759759
1	0x3cee3eef	0.029082743
2	0x3d705b86	0.058681034
3	0x3cc5d515	0.024149457
4	0x3d88787e	0.06663607
5	0xbc190b9e	-0.009341149
6	0xbc5b2bf4	-0.013377178
7	0xbbaaa133	-0.0052072047
8	0x3d533e5a	0.051573135
9	0xbb9d6434	-0.004803205
10	0xbda62fa7	-0.08114558
11	0x3d9d8faf	0.07693421
12	0x3cf07885	0.029354343
13	0xbcd3fc71	-0.02587721
14	0x3cd86c51	0.026418837
15	0xbd8ca33a	-0.068670705
16	0xbc81a754	-0.015826859
17	0xbcd7e792	-0.026355539
18	0x3d92481b	0.07142659
19	0x3c61d020	0.013782531
20	0x3d3aab60	0.045573592
21	0xbd46bd17	-0.048520174
22	0xbd994221	-0.07483316
23	0x3e0080a5	0.12549074
24	0x3e4ed77d	0.2019939
25	0x3d23fa8d	0.040033866
26	0xbdb77ee8	-0.08959752
27	0xbd2a7b01	-0.041621212
28	0x3d24d8e6	0.040245913
29	0xbdba619e	-0.0910065
30	0x3c579d65	0.013160084
31	0x3bb01eb8	0.0053747557
32	0xbde09572	-0.109660044
33	0xbd6f6767	-0.05844822
34	0x3d9f0216	0.0776407
35	0x3e17bafc	0.14817423
36	0xbabf3b6c	-0.0014589853
37	0xbd976bfe	-0.07393645
38	0xbdab3af3	-0.08360853
39	0xbaa01080	-0.0012211949
40	0x3d066bc0	0.032817602
41	0x3cea05a2	0.028567139
42	0xbd12e051	-0.035858456
43	0x3d13ad17	0.036053743
44	0x3d9bfc12	0.07616438
45	0xbd071ea0	-0.03298819
46	0xbb8483c2	-0.004044027
47	0xbd86827c	-0.06567857
48	0xbd4f77c6	-0.050651334
49	0xbc00a166	-0.00785098
50	0x3df195b6	0.11796133
51	0xbdccb70f	-0.09995853
52	0xbd318c76	-0.043346845
53	0x3dc61372	0.09671678
54	0x3e14a8e0	0.14517546
55	0x3cbb10a9	0.022835093
56	0x3dfe5c45	0.12419943
57	0x3dc41773	0.09574785
58	0xbc9e4ccc	-0.019323729
59	0xbd16743c	-0.036731943
60	0x3da70528	0.0815528
61	0x3d1b85d2	0.037969418
62	0x3dce830a	0.100835875
63	0x3e0f20fa	0.13977423
64	0xbe4f88c5	-0.20267017
65	0xbe226d99	-0.1586212
66	0xbe34328e	-0.1759741
67	0xbe1b2efe	-0.15154645
68	0xbe126892	-0.14297703
69	0x3dab1259	0.08353109
70	0x3d7c165f	0.061544772
71	0xbe970904	-0.29499066
72	0xbe934667	-0.2876465
73	0xbe466aed	-0.19376726
74	0xbf0e2deb	-0.55538815
75	0xbb994731	-0.004677676
76	0x3dcb9cd9	0.09942026
77	0x3e37b13d	0.17938705
78	0xbc35eba6	-0.011103546
79	0xbdc681d2	-0.0969273
80	0xbe43fd4a	-0.19139591
81	0xbf49a504	-0.7876742
82	0xbe882fe9	-0.26599053
83	0x3d2d1cdc	0.04226385
84	0x3d8dfc50	0.069328904
85	0x3cb32930	0.021870226
86	0xbcfaaeb1	-0.030600877
87	0x3bba93d3	0.0056938916
88	0xbe798e79	-0.24370755
89	0xbd55a8b9	-0.05216286
90	0x3e16a84c	0.14712638
91	0xbda00ba3	-0.078147195
92	0xbda73824	-0.08165005
93	0x3d0773a6	0.033069275
94	0x3d566120	0.05233872
95	0x3c530fb6	0.012882164
96	0x3cf7f191	0.030266555
97	0x3d787774	0.060660794
98	0xbe78e495	-0.24305947
99	0x3d249ec6	0.04019048
100	0x3c849be3	0.016187614
101	0x3cddae99	0.027060794
102	0x3db72715	0.08943001
103	0xbbc19ea2	-0.005908803
104	0x3ed41f91	0.41430333
105	0xbe6265a5	-0.22109087
106	0xb9b63c3c	-0.00034758623
107	0x3d939edd	0.07208035
108	0x3da24f32	0.079252616
109	0x3df493b9	0.11942238
110	0x3d58e2d1	0.052950684
111	0x3e211f5f	0.15734623
112	0xbe124375	-0.14283545
113	0xbdae6948	-0.085161746
114	0xbe490c24	-0.19633538
115	0x3d273ec7	0.040831354
116	0xbdc44e39	-0.09585232
117	0xbd56211a	-0.05227766
118	0x3dce8182	0.100832954
119	0xbd95f5b6	-0.07322256
120	0x3ca49673	0.020091271
121	0xbddef0d5	-0.10885779
122	0x3de525ae	0.111888275
123	0xbd27ba15	-0.040948946
124	0xbdad3647	-0.08457618
125	0x3e555855	0.20834477
126	0xbe86cefa	-0.26329786
127	0x3cb0b1ee	0.021569218
128	0xbd6887f0	-0.056770265
129	0xbd993890	-0.074814916
130	0xbc13aeb7	-0.009013823
131	0x3cf8f047	0.03038801
132	0x3e9721cb	0.2951797
133	0xbe89270f	-0.26787612
134	0x3cee9319	0.029122876
135	0x3dbc0d2a	0.09182198
136	0xbc4044a6	-0.011735117
137	0xbb950caf	-0.004548631
138	0x3cc1d70e	0.023662116
139	0x3e819cb3	0.25314865
140	0xbe391c56	-0.18077216
141	0xbd29f070	-0.041489065
142	0xbccda570	-0.0251033
143	0x3c897c5c	0.016782932
144	0x3d19b781	0.03752852
145	0x3df9b952	0.1219355
146	0x3e9ac207	0.30226156
147	0x3d8c4e63	0.068508886
148	0xbcbb032f	-0.022828666
149	0xbd0c9a0b	-0.034326594
150	0x3cee59d5	0.02909557
151	0x3d9d4e2b	0.07680925
152	0x3c95e318	0.018296763
153	0xbd3cd3b6	-0.04610034
154	0x3d81d379	0.06339163
155	0xbd98df13	-0.07464423
156	0xbd2e3be9	-0.042537604
157	0x3d6d8ab2	0.0579936
158	0x3d1f56e3	0.03890122
159	0x3cd6d8d3	0.026226437
160	0xbd8e2078	-0.06939787
161	0x3d9bac10	0.07601178
162	0x3ce31500	0.027719975
163	0xbd6aaf5c	-0.057296142
164	0xbd7187d1	-0.058967415
165	0xbd9f4924	-0.07777622
166	0x3bc43553	0.005987802
167	0xbdaf0d1d	-0.08547423
168	0x3c8c62c3	0.017136937
169	0x3c9596ff	0.018260477
170	0xbd2b4058	-0.04180941
171	0xbd061ae7	-0.0327405
172	0xbd8c2e9e	-0.06844829
173	0x3d888005	0.06665043
174	0x3cf4d5ff	0.029887198
175	0x3de72efe	0.1128826
176	0x3cc6aa3f	0.024251102
177	0x3d8b1e78	0.06792921
178	0x3d9688fe	0.07350348
179	0xbd5a254a	-0.053258218
180	0xbdbfa3e7	-0.09357434
181	0xbd2ce25f	-0.04220807
182	0x3dde4e9d	0.10854838
183	0xbc50382e	-0.012708707
184	0x3d02cbcb	0.031932633
185	0x3da3a0eb	0.07989677
186	0x3c8d84c8	0.01727523
187	0xbdb193ed	-0.08670793
188	0xbd05026d	-0.032473017
189	0x3bbb36b6	0.005713309
190	0xbd6e7fd5	-0.05822738
191	0xbdd47b2b	-0.10375055
192	0xbd3768e3	-0.044777762
193	0xbcb2834a	-0.02179112
194	0x3c5176ed	0.012784702
195	0xbc1c0fdf	-0.009525268
196	0xbdacf807	-0.08445745
197	0x3dc6e530	0.09711683
198	0xbde982a0	-0.11401868
199	0xbe100fad	-0.1406848
200	0x3d7a2953	0.061074566
201	0xbd376294	-0.044771746
202	0x3e1d2b43	0.15348534
203	0xbc95e6cb	-0.018298527
204	0xbd08c4b4	-0.033390716
205	0xbe29fea9	-0.16601051
206	0xbdab88ac	-0.083756775
207	0x3dd5c4b4	0.10437909
208	0x3d8877fc	0.0666351
209	0x3e1620b7	0.14660917
210	0xbde8d7d8	-0.11369294
211	0x3cdab2b3	0.026696539
212	0x3e00f069	0.12591709
213	0x3dab4337	0.083624296
214	0xbd9781b4	-0.07397786
215	0xbd91a579	-0.071116395
216	0x3df9a391	0.12189401
217	0xbdf6a120	-0.12042451
218	0x3d870ccc	0.06594238
219	0x3dcc27a6	0.099685
220	0x3b7e648d	0.0038817257
221	0xbdc0201f	-0.093811266
222	0xbe1dc6f8	-0.15407932
223	0x3df21da4	0.1182206
224	0x3d1674c1	0.03673244
225	0x3d00a610	0.03140837
226	0x3d228e47	0.039686467
227	0xbc78c3a5	-0.015183364
228	0x3c14a727	0.009073055
229	0x3d590fcb	0.052993577
230	0x3e366c17	0.1781467
231	0xbd700689	-0.058599982
232	0xbcaf12fa	-0.021371353
233	0xbcebd231	-0.02878675
234	0x3ceb8a55	0.028752485
235	0x3d794034	0.060852244
236	0xbcd1be4a	-0.025603432
237	0x3e07fcb8	0.13279998
238	0xbcc21574	-0.02369187
239	0xbc69a06f	-0.014259442
240	0x3d388360	0.045047164
241	0xbba7aa02	-0.005116702
242	0x3d6101dd	0.054933418
243	0x3d3beaf2	0.04587836
244	0x3e94e3f7	0.29080173
245	0x3d2513d1	0.0403021
246	0xb8fa6e6d	-0.00011941497
247	0x3c018305	0.007904773
248	0xbb26782c	-0.0025401218
249	0xbc97f044	-0.018547185
250	0x3a9ed4a0	0.001211781
251	0x3cfe2e0f	0.031027822
252	0x3bdfcbf3	0.0068297326
253	0xbd568125	-0.052369256
254	0xbd224db9	-0.039624903
255	0x3d1f92d3	0.03895838
