DVCreimplement/examples/flow_pretrain_np/modelL5_F-5-weight.npy (npy, 6400 bytes, 1 tensors)

array f4 [2, 16, 7, 7]
000000 67 0b a4 ba 4c 76 94 ba cd 3e 95 ba ad 00 91 ba
       -0.0012515605 -0.0011326759 -0.0011386514 -0.0011062823
000010 48 16 7f ba 73 02 36 bb 06 10 33 bb 16 fe bd b9
       -0.0009730798 -0.0027772456 -0.0027322783 -0.00036238198
000020 bb d8 a5 b9 99 77 af b9 d4 39 0a ba 49 14 8d ba
       -0.0003163273 -0.00033467708 -0.0005272899 -0.0010763492
000030 52 95 d2 ba b4 37 82 bb c6 6c 4c b9 5c f7 14 b9
       -0.001606623 -0.0039739255 -0.00019495477 -0.00014206528
000040 0b a5 8b 38 2a 24 d8 b8 b9 98 c0 b9 76 f1 77 ba
       6.658778e-05 -0.00010306419 -0.0003673488 -0.0009458283
000050 ed b4 53 bb 80 94 83 b9 97 68 82 b9 0c 82 f8 b8
       -0.0032303885 -0.00025096908 -0.00024873458 -0.00011849785
000060 6b 8d 00 38 68 a1 30 39 92 9a 92 ba 1b b6 23 bb
       3.0649284e-05 0.00016844796 -0.0011184982 -0.002498037
000070 c2 03 ae b8 a4 75 40 b9 ba 3f 32 b8 66 c2 50 39
       -8.2976665e-05 -0.00018354371 -4.2497857e-05 0.00019908845
000080 0b c2 83 39 7a 7f b6 ba 6d 35 b1 ba 07 d4 ec b9
       0.0002513084 -0.0013923489 -0.001351995 -0.000451714
000090 56 0f 0b ba 70 a7 02 ba e7 6f cb b9 d0 25 67 ba
       -0.00053047144 -0.00049840566 -0.0003880255 -0.0008817585
0000a0 d8 4b 9c ba 2d 6b bc ba a6 61 57 b9 84 7d 02 ba
       -0.0011924459 -0.0014375203 -0.00020540375 -0.000497781
0000b0 b7 7a 11 ba 7a 75 6d b9 10 06 d0 b9 3b e1 46 ba
       -0.0005549597 -0.00022645845 -0.00039677368 -0.00075866625
0000c0 6c 4b 9e ba db 14 41 ba 59 13 41 ba e6 2b 91 ba
       -0.0012076921 -0.00073654734 -0.0007365249 -0.0011075705
0000d0 7d 0d 01 bb 7c 1e 3b bb 9e 94 4c bb 63 01 2f bb
       -0.0019691878 -0.0028552106 -0.0031216512 -0.0026703707
0000e0 43 e0 9d ba f1 bc b9 ba ce 31 05 bb 31 f8 42 bb
       -0.0012044985 -0.0014170689 -0.0020323875 -0.0029749984
0000f0 2f 2f 85 bb 35 4e 89 bb 19 07 68 bb a9 84 91 ba
       -0.0040644626 -0.004190231 -0.003540462 -0.0011102158
000100 9a fc b7 ba 46 81 07 bb 64 6e 5b bb 14 cd a1 bb
       -0.0014037073 -0.0020676418 -0.0033482546 -0.0049377773
000110 8c 70 a7 bb 3b 1e 87 bb 0e fa 5c ba 4b 8c 90 ba
       -0.005109852 -0.004123477 -0.0008429595 -0.0011028139
000120 61 5b dd ba 19 2c 37 bb 33 db 97 bb b6 a3 a6 bb
       -0.0016888195 -0.0027949868 -0.004634285 -0.005085434
000130 44 24 87 bb 7f 19 45 ba 76 38 65 ba 4a 0b a4 ba
       -0.0041241962 -0.0007518753 -0.000874407 -0.0012515571
000140 5e 9e 15 bb 74 9d 80 bb 29 5e 90 bb fa 8e 75 bb
       -0.002282999 -0.00392502 -0.004405756 -0.0037469254
000150 74 6d 76 b9 d7 23 7f b9 39 c9 05 ba 33 8c ad ba
       -0.00023501163 -0.00024332046 -0.0005103532 -0.0013240635
000160 57 86 22 bb e8 bb 3f bb 5a eb 2c bb a4 6b 24 b8
       -0.002479931 -0.0029256288 -0.0026385398 -3.9200895e-05
000170 73 73 2b b8 3d d1 f6 b8 fb f9 34 ba 61 89 d3 ba
       -4.0877097e-05 -0.00011769168 -0.0006903705 -0.0016138965
000180 2a 72 0e bb 3c a7 12 bb 67 62 0f 3c 75 3e c7 3b
       -0.0021735528 -0.0022377511 0.008751488 0.0060804435
000190 f6 2f 86 3b fe f6 26 3b 01 ab fe 3a e0 9a ed 3a
       0.004095073 0.0025476809 0.0019429625 0.0018127821
0001a0 b2 8d 38 3b ec 7c 05 3c 80 ba 6e 3b 86 12 2f 3b
       0.002816063 0.0081474595 0.003642708 0.0026713922
0001b0 9f ed a7 3a 8a 34 5c 3a ec e6 8a 3a dd 5c fd 3a
       0.0012811905 0.0008400163 0.0010597385 0.0019330044
0001c0 23 c2 2d 3c 47 47 3c 3b 90 fa c4 3a 9e 3e 90 39
       0.010605368 0.0028729008 0.0015028287 0.00027512474
0001d0 e6 d6 e9 39 b6 4e 7a 3a 9e 64 09 3b 2a 41 60 3c
       0.00044601335 0.0009548472 0.0020964514 0.013687411
0001e0 4a f5 34 3b 7e d3 af 3a 5d 73 83 b8 23 84 70 3a
       0.0027612024 0.001341447 -6.268055e-05 0.00091749633
0001f0 bd e2 bd 3a d3 2e 37 3b 05 bc 8a 3c 07 54 96 3b
       0.0014487129 0.0027951493 0.016935358 0.0045876536
000200 da c8 14 3b 37 c6 45 3a 21 b6 d7 3a 7e 1f 25 3b
       0.0022702725 0.000754449 0.0016457477 0.0025195773
000210 e1 7b 5c 3b 45 57 3d 3c 50 9f 4d 3c 73 64 a0 3b
       0.0033643174 0.011556451 0.01255019 0.004894787
000220 84 df 5e 3b 60 1c 3f 3b 4d 88 31 3b 22 1c 5e 3b
       0.0034007737 0.00291612 0.0027089298 0.003389128
000230 c2 10 31 3c 0a 47 3a 3c 78 66 1f 3c 52 67 cf 3b
       0.010807218 0.011369476 0.00972902 0.0063294554
000240 71 e7 ad 3b e0 5c ac 3b d9 f5 c2 3b d5 de 70 3a
       0.005307131 0.005260095 0.0059497175 0.0009188478
000250 5e bc 30 3a 85 37 0c 3a 3c d7 e7 39 d0 6b 0f 3a
       0.0006741936 0.0005348849 0.00044220116 0.00054710824
000260 80 17 1e 3a bc 89 a1 3a e4 2d 1f 3a b0 c0 7b 3a
       0.00060307235 0.0012324373 0.0006072207 0.0009603603
000270 94 69 b2 39 91 c0 ad 39 c9 63 f3 39 58 91 3f 3a
       0.00034029467 0.00033140605 0.00046422918 0.00073077297
000280 16 33 72 3a 32 29 67 39 45 ed b4 3a 38 8d 9f 39
       0.000923918 0.00022045223 0.0013803622 0.0003043206
000290 77 2d 1e 39 27 57 f0 38 19 58 20 3a fc af 70 3a
       0.00015084991 0.00011460325 0.0006116643 0.0009181497
0002a0 6a 1f d7 39 3b d7 e9 3a 64 37 d1 39 e8 78 6c 39
       0.000410314 0.0017840633 0.00039904856 0.00022551755
0002b0 77 4c 86 b8 34 56 16 3a ec b6 5a 3a 21 4a 1f ba
       -6.4038606e-05 0.0005734891 0.00083432975 -0.0006076415
0002c0 c2 d3 3b 3b 1e 57 cf 3a 60 99 fd 39 df e0 07 3a
       0.0028660153 0.001581881 0.00048370194 0.000518335
0002d0 5d 8b 11 3a 10 29 39 3a 9f 88 88 ba 18 49 92 37
       0.0005552078 0.0007063309 -0.0010416693 1.7438593e-05
0002e0 9a 70 0c 3b a0 d4 86 3a c6 a3 57 3a 1d 47 64 3a
       0.002142942 0.0010286756 0.0008226003 0.00087081065
0002f0 b8 59 77 3a 9f 15 95 3a 92 12 02 3a 62 d4 54 3a
       0.00094356714 0.0011374241 0.00049618736 0.00081188057
000300 42 9b 9e 3a 16 3b 86 3a 6c 06 be 3a cb ae a1 3a
       0.0012100714 0.0010240998 0.0014497763 0.0012335418
000310 80 25 37 ba b5 fe 67 ba f5 93 90 ba 56 3a 77 ba
       -0.0006986484 -0.0008849905 -0.0011030423 -0.0009430995
000320 61 a7 42 ba 41 1f fb b8 c4 9d 97 37 43 d3 81 ba
       -0.0007425454 -0.00011974434 1.8074068e-05 -0.000990488
000330 e4 d6 94 ba 17 c3 ba ba 90 93 8c ba 37 82 76 ba
       -0.0011355546 -0.0014248815 -0.0010725129 -0.0009403559
000340 42 1b 07 ba 51 08 dd b9 5e 86 67 ba de 2a 9b ba
       -0.0005153903 -0.000421586 -0.0008831973 -0.0011838337
000350 92 e8 c3 ba d3 5e a6 ba 0b ce aa ba b7 9c 59 ba
       -0.0014946631 -0.0012693055 -0.0013031376 -0.00083012454
000360 21 8f 29 ba 70 a9 4f ba f7 83 96 ba 77 07 b6 ba
       -0.0006468166 -0.00079216715 -0.001148342 -0.0013887723
000370 0b 58 9d ba d9 09 a8 ba 44 73 6b ba d1 26 4a ba
       -0.0012004388 -0.0012820318 -0.00089817145 -0.00077114726
000380 8c 24 2c ba 91 1c 87 ba 64 ce 9f ba d4 74 9d ba
       -0.0006566725 -0.0010308196 -0.0012192247 -0.0012012967
000390 db ae b2 ba 3c b6 71 ba 0c 0e 6d ba a7 40 e4 b9
       -0.0013632433 -0.00092205754 -0.00090429257 -0.0004353572
0003a0 66 e6 4b ba 7d 43 7d ba 72 23 8d ba 97 d9 90 ba
       -0.00077781675 -0.00096612406 -0.001076801 -0.0011051175
0003b0 d1 71 4f ba aa 87 76 ba 6e 08 c0 b9 25 1c 2c ba
       -0.00079133833 -0.0009404371 -0.00036627374 -0.0006565473
0003c0 c8 88 39 ba 01 db 50 ba 4d db 72 ba 3c 14 36 ba
       -0.0007077572 -0.00079672044 -0.0009264246 -0.0006945764
0003d0 23 dc 58 ba 94 06 f0 3a a8 85 ac 3a de 80 86 3a
       -0.0008272549 0.0018312507 0.0013162391 0.0010261794
0003e0 c1 49 88 3a be 0f a1 3a 84 cd a4 3a 92 70 b0 3a
       0.0010397957 0.0012288017 0.0012573455 0.0013461283
0003f0 c1 79 d0 3a a5 9c 93 3a 39 57 83 3a fa 68 88 3a
       0.0015905426 0.0011261894 0.0010020501 0.0010407262
