DVCreimplement/examples/flow_pretrain_np/modelL1_F-2-weight.npy (npy, 401536 bytes, 1 tensors)

array f4 [64, 32, 7, 7]
00000000: e961 24bb 6398 16bd 734a b9bc 1753 da3c
00000010: e2bc 1a3e 8853 843d 7391 0fbe 3aee 8d3c
00000020: b0a4 a6bc c899 563d 1a7f 223e 68c0 30be
00000030: ec30 d3bd 14c2 29bd 8024 4b3c 8e43 35bd
00000040: a34b 9c3d a7a0 cdbd a0db a5be c8b8 9ebe
00000050: a1e9 29be 153e e63c 7d5a bdbc eae0 81bd
00000060: 0fa8 6dbe 0998 b4be ca3e 65be 69ad babd
00000070: 7125 c83b 1287 123d 21f8 c1bd 9bb2 83bd
00000080: e0b9 be3d 6501 423d 69dd 853a 6a5b f23c
00000090: 31f3 90ba f61e 23bd ea59 803d 8892 923c
000000a0: cbe8 32bd d642 8fbc 09df 4f3d d5b7 813d
000000b0: 4305 513c a781 04bb 80fe c838 776e cbbc
000000c0: 624b 1d3d 4e62 bcbd 8880 78bd beb6 f83d
000000d0: 76a0 4f3e 9302 af3d c2a2 bcbc 2f53 f7bc
000000e0: ac96 69bc 9781 5c3d aaf2 4b3e 7427 a23e
000000f0: 7554 4c3e 5957 be3c b06d 50bc 8385 b8bc
00000100: 36f9 e8bc 89e4 c73d 4964 423e 0928 0c3e
00000110: 02c6 643d dd6d 363a b193 bfbc 7ea6 3dbd
00000120: 37c2 c3bc 2d2a 02bd d8a3 2abd 6f1f fcba
00000130: 6b7f 87bc f24a 29bb 4072 3cbd 01ea 113a
00000140: eead 033c 9d4c 0fbc 220b f0bb ab4a d8b9
00000150: 7daf 59bc 1158 41bd 72df 82bd 94cd 13bd
00000160: 0001 4cbd b13a 22bd 993e 943c c307 dc3c
00000170: dfff d33b 23b1 813b 9f8c 4fbc ff21 f03a
00000180: c818 84bb 3136 f63c 5744 db3c 1784 de3c
00000190: c51c 1f3e d666 25bc a80d adbc d5b8 093b
000001a0: f606 0dbc 4cfb 24bd 398d 59bc 6713 81bd
000001b0: 4cf5 58bd 1bbb b1bc 62b3 733c 887c 9dbc
000001c0: 4f31 903d 7fcf d4bb 9344 a8be c312 dc3d
000001d0: a0c0 d3bd 88ff 0abd af63 00bd a47b 103c
000001e0: 48e8 32bd c925 b0be 4962 893e 7f99 e6bd
000001f0: b58e 46bd 8e90 55bc d881 55bd b065 493d
00000200: 4143 b6bd 21b1 c83d 6db3 48bd fcba e2bc
00000210: bac1 943c 28d2 4ebc a262 cc3d 56da 36bd
00000220: bf7e 703c cdeb 9a3c 5959 39ba 522e 3c3c
00000230: b040 06bc d4d5 843d c29e 763d 73f6 283d
00000240: 261b dfbc 3b5e 12bd 1bbc aeba abd9 d5bb
00000250: eee2 db3c b999 8a3d 1b12 28be f20d 81be
00000260: 17be bebc 4147 19bd ac31 593d 3310 1e3d
00000270: 757e 81bc 3d7b 25bf 796d 74bf 4df4 49be
00000280: a0ad 1b3d cefe 7ebc 009f 69bc 1beb 65bb
00000290: 8b74 07bf 087c 44bf 17ad a4bd 3e7f 933d
000002a0: 336b 923c e363 763d fb3a 9c3d d3a5 91bd
000002b0: 06b2 3cbe 65b6 623c 461f b33c 49c7 07bc
000002c0: a54f ed3b 88e4 ba3d 75d2 983c ef15 703b
000002d0: 1633 9a3d b09c 833d 3545 1f3c 083d f43c
000002e0: e4c2 8d3d 49c4 e13c a1e9 593b ad37 033c
000002f0: 4722 2f3d ce20 13bd 8aa1 98bc ece0 ba3c
00000300: 6f5c dfbc fc37 76bc a3a3 eebc cbfb 43ba
00000310: 6b86 183b 682c d53b da39 04bd b9c9 4abc
00000320: 74b6 6b39 edee 9e3c 8d1b 953c 883b 1a3d
00000330: 3d7c 223d 4849 c53c c458 debc a3db 29bc
00000340: f0a4 293c ba7f ca3c baf8 2c3d 3252 fdbc
00000350: 51ac 30be dd28 9fbe 3b8f 093c ff29 033d
00000360: 3e28 94bc 7a09 4a3c 890a 54bd 924a 35be
00000370: 567d 1abf 0aad 67be bb6a 9c3d 5957 23bc
00000380: f6cc 403c 8a31 fcbc f002 94bd ed34 4fbe
00000390: 0d3d 10be 275d 453d d551 6fbc 7c10 573c
000003a0: b94d 37bd 93ea e1bc 109f 51bd 7387 7abd
000003b0: 8ac4 a1bc 55f7 36bd 52db e23c 72c5 75bd
000003c0: 7a04 00bd 5151 163c c68e 35bb d117 0f3d
000003d0: bf69 3f3c adaa a2bc 4fe9 e73c 546b 2cbd
000003e0: 92a7 c2bd 5f78 053e a7c7 94bd 3166 91bd
000003f0: 9815 33bc 086d 2ebd 9f44 d1bd e721 a1be
-0.0025082773 -0.03676642 -0.022618508 0.026650948 0.15111116 0.06461245 -0.14020328 0.01732551
-0.020342201 0.05239275 0.15868798 -0.17260897 -0.103120655 -0.041444853 0.012398839 -0.04425388
0.07631614 -0.10040408 -0.32394123 -0.31000352 -0.16593029 0.028105775 -0.023114437 -0.06341727
-0.2320864 -0.35272244 -0.22387233 -0.091151066 0.006107979 0.035773344 -0.09471155 -0.06430551
0.093127966 0.04736461 0.001021308 0.029584605 -0.0011058805 -0.03982445 0.0626715 0.017892137
-0.04367904 -0.017487925 0.050749812 0.06333891 0.012757602 -0.002021888 9.5841475e-05 -0.024832947
0.03840197 -0.09198438 -0.060669452 0.1214423 0.20276055 0.08545413 -0.023026828 -0.030191032
-0.014257114 0.053834524 0.19916788 0.31670725 0.19954093 0.02323501 -0.012721464 -0.0225246
-0.028439146 0.097603865 0.18983568 0.13687147 0.055852897 0.000695912 -0.023385854 -0.046301357
-0.02389632 -0.031778503 -0.04166016 -0.0019235442 -0.01654025 -0.0025832024 -0.046007395 0.00055661803
0.008037074 -0.008746293 -0.007325546 -0.00041254362 -0.013286469 -0.047203127 -0.06390275 -0.036084726
-0.04980564 -0.039606754 0.018096255 0.02685917 0.006469711 0.003957884 -0.012667804 0.0018320679
-0.0040312745 0.030055137 0.026765985 0.027162595 0.15538318 -0.010095319 -0.021124676 0.002101471
-0.008607617 -0.040278718 -0.013278299 -0.06302529 -0.05296831 -0.021695664 0.014874311 -0.01922442
0.07040655 -0.006494462 -0.32864818 0.10745766 -0.10339475 -0.0339351 -0.031345066 0.008818541
-0.043678552 -0.34403828 0.26832798 -0.11259746 -0.04847594 -0.013034953 -0.05212578 0.049169242
-0.088995464 0.0979941 -0.04899924 -0.027677052 0.018158782 -0.012623347 0.0997975 -0.044641815
0.014678656 0.018911267 -0.0007070504 0.011485653 -0.008194134 0.06486097 0.060209997 0.041250657
-0.027234625 -0.035734396 -0.0013331206 -0.006526192 0.026841607 0.067676015 -0.16413157 -0.25205952
-0.023284001 -0.03742147 0.053025886 0.038589668 -0.01580737 -0.6464117 -0.9547954 -0.197221
0.03800738 -0.01556368 -0.0142591 -0.003508276 -0.52912205 -0.76751757 -0.08040827 0.07202004
0.017873382 0.060153853 0.07628437 -0.071117066 -0.18427286 0.013837432 0.021865498 -0.008287259
0.0072421604 0.0912562 0.018655041 0.0036634167 0.07529275 0.0642637 0.00972109 0.029814258
0.06921938 0.027559416 0.0033250826 0.00800888 0.0427573 -0.035919957 -0.018631715 0.02281233
-0.027265755 -0.015027996 -0.029130762 -0.000747618 0.0023273479 0.006505538 -0.032281734 -0.012377196
0.00022479316 0.019401038 0.018201614 0.03765443 0.039669264 0.024082795 -0.027141936 -0.010367307
0.010354266 0.024719108 0.04222939 -0.030922983 -0.17253233 -0.31085864 0.008395965 0.032022472
-0.018085595 0.012331361 -0.05176786 -0.17704228 -0.603475 -0.22624603 0.07637545 -0.009969556
0.0117676165 -0.03078534 -0.07227123 -0.20235033 -0.14085789 0.04818454 -0.014606913 0.013126489
-0.044751856 -0.027577674 -0.051177084 -0.06116433 -0.019747037 -0.044669468 0.02769247 -0.06000275
-0.03125427 0.009174661 -0.0027703508 0.034934822 0.011682927 -0.019856775 0.028309492 -0.042094544
-0.09504618 0.13034199 -0.07264643 -0.070995696 -0.010930441 -0.04258445 -0.102181666 -0.31471178
