DVCreimplement/examples/flow_pretrain_np/modelL1_F-1-weight.npy (npy, 50304 bytes, 1 tensors)

array f4 [32, 8, 7, 7]
-0.019397521 -0.03141065 -0.033476524 0.044485062 -0.017941907 0.005275038 -0.031963445 0.017116912
0.18049274 0.1979177 0.011887189 0.028196607 -0.0044921804 -0.0463509 0.13224229 0.4138035
0.24200605 0.018667271 -0.010809468 -0.021943413 -0.016607197 0.073591806 0.15956989 -0.021362875
-0.042784363 -0.025520464 0.011403303 -0.019971926 -0.073460884 -0.2584243 -0.31491494 -0.11636483
0.00086069474 0.018423917 -0.031095445 -0.014235504 -0.109867536 -0.16914947 -0.020341296 -0.014904439
0.008547581 -0.033733346 -0.03594902 0.0054756184 -0.023246303 -0.0212438 -0.029341286 0.0048049088
-0.02945951 0.010454026 -0.0831069 -0.048954483 0.03602458 0.03078712 0.022796983 0.08294145
0.011689107 0.052461375 0.07772779 -0.027687464 -0.05060773 0.0053146495 0.06805063 -0.01993602
0.3201128 0.14118308 -0.010054896 -0.014569593 -0.019918956 0.01715617 -0.0032958183 0.1044234
-0.060308293 -0.052126225 0.0066722916 -0.043667804 0.008539737 -0.03886348 -0.16465196 -0.22098646
-0.04317797 0.014818439 0.014574712 0.020441672 0.030009456 -0.030569667 -0.06884035 -0.0017548923
0.0037134578 0.0027823593 0.013093879 -0.012097675 0.02742862 -0.014520336 0.030870145 0.028355842
0.017435106 0.02616048 0.025873471 -0.008026696 -0.005819469 -0.016352888 0.0016340839 -0.017570857
-0.05806674 -0.055502057 0.025645658 0.03995884 0.0022662035 0.033320293 0.0006985717 -0.020708876
-0.010590699 0.17663589 0.12682739 -0.03843635 -0.0028746764 0.010402243 -0.015083573 0.016827576
-0.010915537 0.0035631314 0.021233074 -0.009131061 -0.00017423373 -0.011246811 0.06688658 -0.1337894
-0.16023678 0.002248499 -0.013095195 -0.011660078 0.022153292 0.008177379 0.022928119 -0.014112056
0.008563103 0.040028285 -0.005261302 -0.023832852 -0.002166472 0.022907255 0.024795482 -0.0049823234
-0.014768978 -0.005038567 0.0008969076 -0.009581791 0.06515727 0.011730845 -0.028840616 0.004736301
-0.011331729 0.0057700747 -0.03983078 -0.104206875 -0.24929377 -0.039065406 -0.011364557 0.023807349
0.02859514 -0.07234985 -0.5072701 -0.43165365 0.02747429 0.045346912 0.023006007 -0.014227157
-0.08606082 -0.15971112 0.054095123 0.18625814 0.08714684 -0.0106574455 0.0107832225 0.020846473
0.20922212 0.38738897 0.15921724 -0.010463461 -0.0042572496 0.011504003 0.013680492 0.1619523
0.15156856 0.046219654 -0.057424664 -0.01599742 0.042918287 0.018401248 0.02590407 0.010174607
-0.004478262 0.038580958 0.012480761 -0.01087552 -0.022354607 0.0655925 0.09013041 -0.035176497
-0.032534704 0.01596027 -0.032255374 0.031204041 -0.019960446 -0.18013228 0.026276607 0.0035666572
-0.0602506 0.01048936 -0.019866629 -0.24752744 -0.2897077 0.0646384 0.013428066 0.048303165
0.010010525 -0.021397796 -0.18067096 0.042580426 0.16288693 0.0028908628 -0.013826837 -0.018670876
0.013054283 0.16527699 0.29084903 0.05499627 -0.05300877 -0.054976113 0.03542316 -0.048548665
0.07045442 0.067613676 -0.030522265 -0.0064128735 0.03672113 -0.008371666 -0.017367937 -0.017806187
-0.011293039 -0.036037672 -0.05080553 -0.01651884 -0.004561191 -0.026233096 0.028085263 -0.055949293
0.012442724 -0.01821256 -0.016816484 0.05618664 0.01602136 0.035304856 -0.097024225 0.0716649
00000000: 8de7 9ebc 74a8 00bd ae1e 09bd f835 363d
00000010: e8fa 92bc 3ada ac3b 1aec 02bd c438 8c3c
00000020: 17d3 383e f0aa 4a3e 7cc2 423c 92fc e63c
00000030: 2433 93bb 71da 3dbd 866a 073e 0dde d33e
00000040: 6fd0 773e 1bec 983c 321a 31bc acc2 b3bc
00000050: d10b 88bc 4db7 963d 4a66 233e 3201 afbc
00000060: a83e 2fbd 4b10 d1bc ebd4 3a3c 2a9c a3bc
00000070: a972 96bd 3150 84be 883c a1be af50 eebd
00000080: 3fa0 613a c1ed 963c e0bb febc 083c 69bc
00000090: 3b02 e1bd 8535 2dbe caa2 a6bc c031 74bc
000000a0: 270b 0c3c fa2b 0abd 483f 13bd d16c b33b
000000b0: 086f bebc 7a07 aebc 235d f0bc 7f72 9d3b
000000c0: 1255 f1bc 5d47 2b3c f333 aabd 7f84 48bd
000000d0: 838e 133d 4535 fc3c bdc0 ba3c 35dd a93d
000000e0: ab83 3f3c bde1 563d bf2f 9f3d d2d0 e2bc
000000f0: 0d4a 4fbd 8326 ae3b 215e 8b3d dd50 a3bc
00000100: d3e5 a33e 4c92 103e 4abd 24bc 4db5 6ebc
00000110: 142d a3bc 198b 8c3c a8fe 57bb efdb d53d
00000120: d405 77bd 4f82 55bd 3da3 da3b 03dd 32bd
00000130: 41ea 0b3c 502f 1fbd 869a 28be 464a 62be
00000140: 62db 30bd 0ac9 723c c6ca 6e3c 4b75 a73c
00000150: 64d6 f53c 3d6d fabc 2bfc 8cbd 6a04 e6ba
00000160: 7c5d 733b 3e58 363b b687 563c 5435 46bc
00000170: fcb1 e03c b4e6 6dbc 63e3 fc3c 834a e83c
00000180: 11d4 8e3c 814e d63c 9af4 d33c 6782 03bc
00000190: 3fb1 bebb 7ef6 85bc c22e d63a c2f0 8fbc
000001a0: 64d7 6dbd 2056 63bd d816 d23c e1ab 233d
000001b0: 9684 143b dc7a 083d 5a20 373a a9a5 a9bc
000001c0: 9c84 2dbc 0ae0 343e 0adf 013e 6f6f 1dbd
000001d0: 1165 3cbb 2b6e 2a3c 1721 77bc fcd9 893c
000001e0: 15d7 32bc 6d83 693b fcf0 ad3c 729a 15bc
000001f0: 83b2 36b9 8b44 38bc d5fb 883d 1700 09be
00000200: 1c15 24be 8e5b 133b 3b8d 56bc e909 3fbc
00000210: d27a b53c 6afa 053c c0d3 bb3c 4136 67bc
00000220: 424c 0c3c b3f4 233d 0067 acbb 1d3d c3bc
00000230: 5efb 0dbb ffa7 bb3c e51f cb3c c242 a3bb
00000240: 95f9 71bc 901a a5bb 731e 6b3a f2fc 1cbc
00000250: 2d71 853d bb32 403c 2843 ecbc f932 9b3b
00000260: b7a8 39bc e512 bd3b 9a25 23bd 6a6a d5bd
00000270: de46 7fbe 0c03 20bd 6832 3abc a107 c33c
00000280: 5b40 ea3c 282c 94bd 74dc 01bf b501 ddbe
00000290: c311 e13c afbd 393d 1877 bc3c 0619 69bc
000002a0: a840 b0bd 508b 23be d992 5d3d 74ba 3e3e
000002b0: 0b7a b23d 919c 2ebc 1dac 303c 39c6 aa3c
000002c0: 533e 563e d957 c63e d809 233e f06e 2bbc
000002d0: 6680 8bbb 497b 3c3c 2424 603c d3d6 253e
000002e0: ca34 1b3e d250 3d3d 2036 6bbd 050d 83bc
000002f0: 16cb 2f3d 37be 963c c634 d43c 65b3 263c
00000300: 62be 92bb 1107 1e3d 1b7c 4c3c 3d2f 32bc
00000310: 0221 b7bc 5c55 863d 4b96 b83d 3b15 10bd
00000320: 1c43 05bd 1dbf 823c 361e 04bd 9e9f ff3c
00000330: 1784 a3bc 9974 38be 0a42 d73c 94be 693b
00000340: 55c9 76bd 91db 2b3c 57bf a2bc d577 7dbe
00000350: 9154 94be 2361 843d 6401 5c3c 8ad9 453d
00000360: 2f03 243c 6e4a afbc cf01 39be d068 2e3d
00000370: d5cb 263e a174 3d3b f589 62bc aaf3 98bc
00000380: a2e1 553c 5f3e 293e 2aea 943e c543 613d
00000390: b91f 59bd a22e 61bd e017 113d f7da 46bd
000003a0: 684a 903d 0a79 8a3d d409 fabc 1523 d2bb
000003b0: e568 163d 5029 09bc 3447 8ebc 48de 91bc
000003c0: 7006 39bc 3d9c 13bd 7619 50bd 8552 87bc
000003d0: 0b76 95bb cae6 d6bc 1113 e63c 162b 65bd
000003e0: 91dc 4b3c 8232 95bc b9c2 89bc f623 663d
000003f0: 3a3f 833c d39b 103d a3b4 c6bd 0cc5 923d
