DVCreimplement/examples/flow_pretrain_np/modelL6_F-5-weight.npy (npy, 6400 bytes, 1 tensors)

array f4 [2, 16, 7, 7]
000000 f1 a9 c1 ba e0 79 a4 ba 51 28 9c ba c6 a7 9f ba
       -0.0014775378 -0.0012548529 -0.0011913871 -0.0012180738
000010 ed fb 88 ba 1d f8 3b bb d9 2d 28 bb b1 4f d2 b9
       -0.0010451056 -0.0028681823 -0.0025662093 -0.00040113696
000020 1b ea 88 b9 52 38 7c b9 c0 63 15 ba ee 75 9b ba
       -0.00026114364 -0.00024053574 -0.0005698763 -0.0011860707
000030 eb 38 e8 ba 4c 40 7c bb 54 27 67 b9 aa 23 72 b8
       -0.0017717158 -0.0038490472 -0.00022044528 -5.773051e-05
000040 bf 23 34 39 fd a4 f4 b8 34 d7 e0 b9 3f ba 93 ba
       0.00017179454 -0.00011665558 -0.00042884948 -0.0011270716
000050 aa 1a 4e bb 44 6a 29 b9 e4 ca 41 b8 88 a6 c3 38
       -0.0031448998 -0.00016156683 -4.6203742e-05 9.3293434e-05
000060 e0 4f 18 39 b3 73 96 39 b7 2c 99 ba 8a 31 17 bb
       0.00014525605 0.00028696432 -0.00116863 -0.00230703
000070 c3 62 41 b8 22 c1 94 b8 12 a2 b5 38 9a 68 89 39
       -4.6106765e-05 -7.093164e-05 8.6609405e-05 0.0002620861
000080 a7 0f b2 39 52 bf b9 ba 2c 5d 97 ba 6a 4c da b9
       0.00033962468 -0.0014171398 -0.0011548153 -0.00041637133
000090 96 5e e4 b9 5d 45 b2 b9 0a 4a 92 b9 be 6c 3b ba
       -0.0004355802 -0.00034002485 -0.00027902453 -0.0007149688
0000a0 4c af 86 ba 9f 3a 90 ba 9e 9f 9c b8 f2 c0 86 b9
       -0.0010275631 -0.0011003799 -7.468391e-05 -0.00025702227
0000b0 81 91 95 b9 6b fa 3f b7 c1 63 a3 b8 43 15 d6 b9
       -0.00028527903 -1.1442792e-05 -7.791026e-05 -0.00040833102
0000c0 ff 91 41 ba 55 10 05 ba 25 2a df b9 ee f4 53 ba
       -0.0007384121 -0.0005075981 -0.00042565275 -0.00080855086
0000d0 98 a4 da ba 78 87 20 bb db 82 40 bb 1e 6f 0d bb
       -0.0016681133 -0.0024494808 -0.002937487 -0.0021581124
0000e0 4c 04 75 ba fc 47 91 ba 32 b5 e5 ba dd 7b 34 bb
       -0.00093466486 -0.0011084075 -0.0017525314 -0.0027539649
0000f0 62 a0 80 bb 35 0f 8e bb 75 50 50 bb 47 dd 6a ba
       -0.003925369 -0.004335309 -0.0031786237 -0.00089593645
000100 66 a4 97 ba 65 b8 f1 ba 5e ca 55 bb 24 b5 a5 bb
       -0.001156938 -0.0018441795 -0.003262184 -0.005056994
000110 f2 59 b3 bb 78 ca 7e bb 12 9b 3b ba ea 66 7d ba
       -0.005473369 -0.0038878005 -0.0007156591 -0.00096665195
000120 cb f2 c8 ba c7 fd 30 bb db 1a 9e bb f2 75 b5 bb
       -0.0015331147 -0.0027006732 -0.0048249788 -0.005537742
000130 c2 0d 82 bb f7 b2 2e ba d5 3f 46 ba 72 3b 90 ba
       -0.003968925 -0.0006664241 -0.00075626123 -0.0011004044
000140 2b 4d 10 bb 31 c2 83 bb 21 f7 9d bb fe f8 6c bb
       -0.0022018652 -0.004020952 -0.00482072 -0.0036159153
000150 2f 61 8c b9 ad d9 35 b9 b5 8c ec b9 0f db a9 ba
       -0.00026775288 -0.00017342596 -0.00045118263 -0.0012958961
000160 de be 21 bb 7b ad 52 bb f8 f3 22 bb da 34 1e b9
       -0.0024680416 -0.003214686 -0.0024864655 -0.00015087743
000170 e9 af b8 b7 68 41 b0 b8 ca 34 28 ba de 8b c8 ba
       -2.2016424e-05 -8.404517e-05 -0.00064165576 -0.0015300473
000180 61 ae 17 bb 1f 44 01 bb 67 6b f1 3b d7 9c b5 3b
       -0.002314471 -0.0019724441 0.0073675397 0.0055423784
000190 cc 84 73 3b a2 f8 0c 3b 7f 79 f9 3a 06 a6 c9 3a
       0.003715801 0.0021510501 0.0019033401 0.0015384562
0001a0 17 f8 04 3b eb e0 eb 3b ac f4 62 3b fa 0c 2b 3b
       0.0020289475 0.007198443 0.00346307 0.0026100264
0001b0 18 66 9c 3a 22 62 8e 3a ea 2e 88 3a b2 ae aa 3a
       0.0011932282 0.0010862986 0.0010389958 0.0013022034
0001c0 ee 06 25 3c 7d 18 41 3b 12 00 d7 3a c4 8b c2 39
       0.010072453 0.002946406 0.0016403219 0.00037106697
0001d0 ee 56 67 3a e3 d8 8d 3a 30 fd cf 3a 4c 4a 5e 3c
       0.0008824904 0.0010822084 0.0015868302 0.013567518
0001e0 1c bc 44 3b 90 03 cb 3a 14 a8 99 38 0e 91 b4 3a
       0.0030019348 0.0015488733 7.3269155e-05 0.001377614
0001f0 74 a8 d2 3a 90 6f 18 3b 23 b5 8c 3c e2 95 a5 3b
       0.0016071931 0.0023259856 0.017176216 0.005053268
000200 0f 42 25 3b 20 5b 4a 3a 2f 6d fe 3a 5b f6 25 3b
       0.0025216376 0.0007719267 0.0019411201 0.0025323841
000210 87 9c 32 3b 14 fd 3e 3c 52 8c 5d 3c 4d b8 b1 3b
       0.0027253942 0.011657018 0.0135222245 0.0054235817
000220 21 b7 65 3b b9 5f 4e 3b c9 e7 25 3b 1e 5f 1f 3b
       0.003505178 0.003149016 0.0025315157 0.002431817
000230 88 05 29 3c 28 2b 46 3c cb ec 29 3c 2a 19 d3 3b
       0.01031626 0.01209525 0.010371397 0.006442209
000240 7f ae af 3b 15 fb 9a 3b 15 0d 94 3b 6e bb 26 3a
       0.0053613777 0.0047296383 0.004518161 0.00063603267
000250 d0 64 e3 39 f3 bc d2 39 be 77 c0 39 99 e7 ba 39
       0.00043371925 0.000401951 0.0003671031 0.00035649238
000260 1a 8e a8 39 02 41 71 3a 66 03 bc 39 19 e4 3a 3a
       0.0003214933 0.00092031073 0.00035860686 0.0007129326
000270 61 e6 1b 39 1a 3d 6b 39 87 d1 81 39 9e 6f d2 39
       0.00014867775 0.00022434109 0.00024760907 0.00040137483
000280 ef 06 0e 3a 8e 2e 23 39 5a 19 9f 3a db 2c 35 39
       0.00054179033 0.00015562234 0.0012138293 0.00017278215
000290 8a 3e 03 39 21 d2 b0 b7 01 7d b5 39 88 1a 1f 3a
       0.00012516431 -2.1078684e-05 0.00034616145 0.0006069322
0002a0 0d 0e 19 3a 47 27 e5 3a 01 68 db 39 62 5e ab 39
       0.00058385805 0.0017483019 0.00041848424 0.00032685982
0002b0 81 10 ac b8 bd c2 eb 39 52 c7 2b 3a 79 a7 be b9
       -8.204673e-05 0.00044967784 0.00065528334 -0.000363644
0002c0 d7 ab 3c 3b 5c 96 d6 3a c6 d3 22 3a ca 35 20 3a
       0.0028788948 0.0016371715 0.0006211366 0.0006111531
0002d0 bf 28 17 3a 27 f2 28 3a 3e de 81 ba a0 de 42 b9
       0.00057662645 0.0006444775 -0.0009908152 -0.00018584216
0002e0 72 a9 f8 3a 7c 09 71 3a e6 64 5c 3a bd b2 68 3a
       0.0018971397 0.00091948337 0.0008407369 0.0008876732
0002f0 2b fe 6b 3a d1 70 90 3a ae 3c 18 3a d1 28 57 3a
       0.00090024126 0.001101995 0.0005807382 0.0008207681
000300 8c fc a6 3a 39 65 99 3a b5 a9 d5 3a 22 2e b4 3a
       0.001274006 0.001170314 0.0016301187 0.0013746659
000310 cf ca dd b9 73 17 46 ba 8d 7a 82 ba 87 0d 75 ba
       -0.0004230351 -0.0007556595 -0.0009954736 -0.0009348024
000320 c2 a4 64 ba 51 95 45 b9 7b 4f 78 39 5f 21 39 ba
       -0.00087220606 -0.00018843009 0.00023680732 -0.00070621626
000330 93 1b 7f ba 48 e8 a2 ba ba 00 8a ba d9 54 87 ba
       -0.0009731587 -0.0012428844 -0.0010528781 -0.0010324969
000340 46 9e 0e ba 3d 0d 14 b9 df c5 21 ba e5 29 85 ba
       -0.00054404547 -0.00014119312 -0.00061711477 -0.001015958
000350 5c b2 ab ba d8 d3 a3 ba c9 ba b1 ba ed 48 5e ba
       -0.001309942 -0.0012499047 -0.0013559695 -0.0008479495
000360 0c e0 d3 b9 81 68 cb b9 89 8a 69 ba c2 47 94 ba
       -0.00040411984 -0.0003879704 -0.0008908888 -0.0011312889
000370 8d a6 9a ba 38 23 ac ba 8c cc 5b ba 12 c5 ec b9
       -0.0011798904 -0.0013133055 -0.0008384667 -0.00045160257
000380 0a 1d 39 b9 38 93 35 ba 62 3a 64 ba 98 45 8f ba
       -0.00017653793 -0.00069265394 -0.00087062095 -0.0010930775
000390 17 43 ad ba e3 bc 4e ba 5e ea f5 b9 be 76 f1 b7
       -0.0013218847 -0.00078864227 -0.0004690466 -2.8784732e-05
0003a0 24 6c 05 ba 94 6b 38 ba 5e 95 84 ba 93 6e 96 ba
       -0.00050896616 -0.00070350734 -0.0010115316 -0.0011477045
0003b0 08 25 3f ba ab b7 11 ba 04 95 c8 38 0c 6b ab b9
       -0.000729159 -0.00055586797 9.5644995e-05 -0.00032695418
0003c0 2a 78 c3 b9 24 d5 2f ba 66 d7 7c ba 64 da 1f ba
       -0.00037282828 -0.00067074806 -0.0009645134 -0.00060979114
0003d0 b1 3a cd b9 51 a4 c7 3a fd 20 a7 3a e0 75 a0 3a
       -0.00039144375 0.0015231465 0.001275092 0.0012242161
0003e0 ca ed 9c 3a 78 cc a5 3a ac 53 a1 3a 51 85 86 3a
       0.0011972722 0.0012649437 0.0012308261 0.001026312
0003f0 94 02 b3 3a 8b 5f 9a 3a e2 c1 a6 3a 00 e2 a8 3a
       0.0013657385 0.0011777742 0.0012722577 0.0012884736
