DVCreimplement/examples/flow_pretrain_np/modelL1_F-5-weight.npy (npy, 6400 bytes, 1 tensors)

array f4 [2, 16, 7, 7]
00000000: 6b76 8dba acc6 52bb ef39 13bb 459b 533a
00000010: 4197 de3b d4ff 8d3b a190 7eb9 1475 b3b9
00000020: 67f4 8e39 d3ec a439 ba24 b037 1db2 d139
00000030: 5d71 623a 7c26 c43a 7452 253b c3b7 253b
00000040: 2b6a 24ba 539c 74bb 34f9 33bb 9ce1 52bb
00000050: d6c3 f9ba 5df3 27bb d9d2 b0ba 5a2b 9fba
00000060: 12d3 47bb b057 b4ba 2007 94b9 1951 3aba
00000070: cad5 9fba 4162 c1ba f82a 85ba 63a7 99ba
00000080: 6d9c de38 719e 1c38 b2c3 0dba 3fa5 343a
00000090: 9f5c 5eb9 941d 1a39 5d18 05ba 03c5 80b9
000000a0: abe9 44ba a2b1 f0b9 4e00 ba3a 3af2 5b3a
000000b0: 6555 873a 590e b539 9017 5139 f042 87ba
000000c0: 6568 a3ba fad7 a4bb 0a92 a2bb 1537 d9bb
000000d0: ed3c 0abc 1a30 02bc 7fa1 bbbb ae99 75bb
000000e0: ed35 cdbb 51d3 e5bb 3fcd 10bc e8e9 33bc
000000f0: 634a 32bc b4b2 0fbc c04f d2bb f6c4 b8bb
00000100: 111f e3bb f447 10bc 5871 41bc c686 46bc
00000110: 39d2 22bc bd65 ebbb 82bd f1bb 07a3 16bc
00000120: 12a9 47bc 22bb 80bc 2784 83bc 1d65 60bc
00000130: 6fe0 26bc e469 a3bb af00 dcbb 916c 21bc
00000140: 11ed 56bc 5512 6abc 6d46 45bc 7b83 12bc
00000150: 8eb0 8dbb 60ce d3bb 673b 1bbc 200b 4dbc
00000160: 136f 61bc a0b7 31bc 1b5a 14bc ef2d 11bb
00000170: 03c1 85bb f5ef dabb c97a 22bc 82b4 33bc
00000180: 9f4a 0dbc d659 f1bb 1aaa 1a3c e9c2 343c
00000190: 0caa ce3b ad82 f33b 1e7a 0f3b a8e2 26ba
000001a0: 2406 02bb 0e96 1c3c ae56 373c e782 ce3b
000001b0: c234 a33b 86c9 80b9 ce48 2ebb 2039 98bb
000001c0: 7317 9c3c d80e 8f3c 7180 443c a8a5 073c
000001d0: 633a 393b 663e 8939 9a08 e7ba cf00 fc3c
000001e0: 4764 df3c 3c25 b63c 1a48 7e3c 386c 0a3c
000001f0: a1a2 b93b ddbd 5e3b ece9 293d 448f 093d
00000200: 7990 e83c 0535 bb3c bad6 813c e166 4a3c
00000210: 2365 1d3c 4ea2 293d f8ad 213d 59d5 023d
00000220: 214b cd3c 617b 883c 742a 383c 29cb b33b
00000230: 4693 f03c 49a3 1b3d ebea 0c3d 98e4 e63c
00000240: c9ee 883c 6381 233c 0879 8d3b 93ce 07ba
00000250: 4d7b ac39 d894 e639 a59f c5ba f9ba 69b9
00000260: 4ab0 003a 55fa d0b9 3962 e238 835a 82b7
00000270: 2a93 13ba 2e59 78ba 6508 84b6 d7a1 c539
00000280: d3ea 9f39 2653 11bb b903 12bb bee6 98ba
00000290: 0cc0 92ba e781 0a37 23f4 0f3a 84c5 eeb9
000002a0: 6c35 a9bb 7974 faba 1c85 06bb 656e 84ba
000002b0: 3cdd 0cba bb18 22ba 49a7 8cb9 ffa2 0cbb
000002c0: 1e89 653b dbf5 1e3a 66df a73a 1598 f23a
000002d0: e766 583a 015f 503a 692d 27b8 3f6f 573b
000002e0: 33b8 423b bb5b 853b ef26 5d3b 294c 173b
000002f0: e92d c33a de80 633b c910 a93b 8603 723b
00000300: 5ec1 853b 6e68 3d3b 7321 d63a 863c fc3a
00000310: 3ebd deba d132 e0ba 89be 0bbb 263b 69bb
00000320: 5872 20bb e9f8 13bb 1d7c baba 69a5 2abb
00000330: 8e5c 32bb 4be8 66bb 1d3f 8cbb e916 64bb
00000340: 53b8 4abb f35a 13bb 6a0f 10bb 12e4 28bb
00000350: f268 6bbb e251 9dbb a408 85bb d2ff 69bb
00000360: 3a98 22bb 6621 33bb f4d8 39bb 0c3f 81bb
00000370: 5f8e acbb 8e69 94bb 1d44 8cbb 5d39 44bb
00000380: 5ec5 cdba cceb feba f83d 53bb 1a39 a1bb
00000390: ae59 86bb f7c8 73bb 7e0d 38bb 1fce 29ba
000003a0: c629 9fba d4c6 f5ba 2646 74bb ddf1 62bb
000003b0: 9cd4 5ebb e008 2fbb 76b1 8239 d1d0 6b39
000003c0: 8a7b ceb9 5406 18bb d75e 25bb eb86 33bb
000003d0: dd4b fbba 3703 663b 0088 653b 324d a43b
000003e0: d052 e43b d30e c93b 7e8a 8d3b 724d 103b
000003f0: 2a39 8b3b 77c3 a43b 5dc5 e83b 7921 163c
-0.0010792738 -0.0032161875 -0.002246495 0.0008072148 0.006792933 0.0043334756 -0.00024277206 -0.0003422877
0.00027266445 0.00031456965 2.0997937e-05 0.0003999629 0.0008638108 0.0014965083 0.0025226148 0.0025286532
-0.0006271924 -0.0037324622 -0.002746177 -0.003217793 -0.0019055556 -0.0025627234 -0.0013490572 -0.0012143657
-0.0030490798 -0.0013759043 -0.00028234068 -0.00071074214 -0.0012194451 -0.0014754013 -0.00101599 -0.0011722859
0.000106149215 3.734086e-05 -0.0005407884 0.00068910787 -0.00021206074 0.00014697603 -0.0005077178 -0.00024560848
-0.0007511626 -0.00045908714 0.0014190765 0.00083902816 0.0010325132 0.000345337 0.00019940571 -0.0010319632
-0.0012467025 -0.005030629 -0.004961257 -0.0066288807 -0.008437377 -0.007946039 -0.005726039 -0.0037475633
-0.006262532 -0.0070137163 -0.008837997 -0.010981061 -0.010881993 -0.0087706335 -0.0064181983 -0.005638714
-0.0069311936 -0.008806217 -0.011806808 -0.012117093 -0.009937816 -0.007183759 -0.0073773274 -0.009194142
-0.012186306 -0.015714232 -0.016054226 -0.013695982 -0.010185345 -0.0049869884 -0.0067139487 -0.009852544
-0.0131180445 -0.014286597 -0.012040717 -0.00894248 -0.0043240255 -0.006463811 -0.009474612 -0.012514859
-0.013759392 -0.010847002 -0.009054686 -0.0022152623 -0.0040818467 -0.006681437 -0.00991697 -0.010968329
-0.008623748 -0.0073654456 0.009439969 0.011032798 0.0063068923 0.0074313493 0.0021892856 -0.0006366172
-0.0019840086 0.00955726 0.0111901 0.006302226 0.0049806545 -0.0002456421 -0.0026593688 -0.0046454817
0.01905415 0.017463133 0.011993513 0.008279242 0.002826356 0.00026177167 -0.0017626465 0.030762104
0.027269496 0.022234552 0.01552012 0.008448653 0.005665139 0.003398768 0.04148285 0.033583894
0.028389202 0.02285243 0.01584946 0.01235363 0.009606632 0.04141455 0.03947255 0.031941745
0.025060238 0.016660394 0.01124059 0.005486865 0.0293671 0.037997518 0.034403723 0.028185174
0.016715424 0.009979579 0.0043174066 -0.0005180623 0.00032898263 0.00043979916 -0.0015077485 -0.00022290264
0.00049090816 -0.00039859363 0.00010794815 -1.5539355e-05 -0.0005629534 -0.0009473738 -3.934884e-06 0.00037695348
0.000305018 -0.0022174804 -0.002228005 -0.0011665446 -0.001119615 8.255686e-06 0.00054913963 -0.00045542058
-0.005163839 -0.0019108198 -0.0020526117 -0.0010103701 -0.00053735427 -0.00061834947 -0.00026827518 -0.0021459458
0.0035024355 0.0006063857 0.0012807667 0.0018508459 0.000825508 0.0007948727 -3.9858194e-05 0.0032872704
0.0029711842 0.004069773 0.003374513 0.0023086166 0.0014891002 0.0034714262 0.0051594716 0.003692837
0.004081889 0.0028901356 0.0016336873 0.0019244112 -0.0016993654 -0.0017104988 -0.0021323285 -0.0035588234
-0.0024482217 -0.0022578782 -0.0014227662 -0.0026038534 -0.0027215811 -0.0035233672 -0.0042799846 -0.0034803695
-0.003093262 -0.002248463 -0.0021981844 -0.0025770706 -0.0035920707 -0.004801021 -0.004059868 -0.003570546
-0.0024809972 -0.002733314 -0.0028358074 -0.0039442834 -0.0052659954 -0.0045291847 -0.0042805807 -0.0029941418
-0.0015699079 -0.0019448935 -0.0032232981 -0.004920137 -0.004100046 -0.0037198642 -0.0028084214 -0.0006477553
-0.0012143187 -0.0018751272 -0.0037273257 -0.0034629025 -0.0034001237 -0.002670817 0.0002492775 0.00022489137
-0.00039383426 -0.0023197131 -0.002523353 -0.002739365 -0.0019172389 0.003509713 0.003502369 0.005014085
0.00696788 0.0061358004 0.004319488 0.0022018817 0.004248758 0.005028184 0.0071036057 0.009163254
