DVCreimplement/examples/flow_pretrain_np/modelL4_F-2-weight.npy (npy, 401536 bytes, 1 tensors)

array f4 [64, 32, 7, 7]
00000000: 8a9c 23bd 3dc2 f7bb dc14 f4bc e1a9 82bc
00000010: 37b7 ab3d c709 08bd 2dde 0dbe a47c 113c
00000020: 7255 cbbb 1e3e 2a3c 9ceb 2d3e 7bba c23c
00000030: 41bf d73c 764f 703c 06bc d63a a63a 6dbd
00000040: 28a0 093d 629f ecbd 13bd 9bbe e13c 98be
00000050: 161f c1bd f5d8 11bd fc81 91bd 9148 93bd
00000060: 7485 56be 3c06 c8be f7b2 83be 7bfd 2dbd
00000070: 36ff 5abd 3922 e73b cef7 adbd 8e85 1abd
00000080: 9a09 d43d 5964 6a3d 3b3a 653d e364 aabc
00000090: caa9 10bb 2442 1cbb 5bb6 de3d 2835 fa3c
000000a0: ba0c 0bbd d15b bd3d cf3b efba b974 703d
000000b0: de41 0f3d e372 7e3d d13b 993d f7ca 523d
000000c0: 2b6a 3c3e dc2c 74bd 1faf 30bd 00a6 153e
000000d0: b10d 7b3e dd86 113e 5b60 af3b daef 01bd
000000e0: 6683 3d3c 7ab2 8c3d 7fdc 633e c522 b23e
000000f0: 5d51 663e dec2 4b3c d36d 3dbd e5cc cfbc
00000100: 4457 41bd 6c0a 9b3d f1a9 223e 4ca1 bd3d
00000110: d620 cabb 3070 6cbd 559f 8abd 53c3 c1bd
00000120: 8c23 a9bd b95e ebbd 2967 10be 0072 b5bd
00000130: d0d3 8fbd 4acd 89bc 4b2f 69bd f630 54bc
00000140: 13e7 9abc 725e 5cbd 2e1a 6dbd 3c96 16bd
00000150: 1b5d 2bbd 68bd 9cbd c98f cbbd ec3d 97bd
00000160: 077a a3bd 2d4f 94bd eb33 24bc c7fe 80bb
00000170: e967 c2bc 605a f0bc 16f2 3dbd 7234 8ebc
00000180: acee a1bc 14f2 943c 08e3 69bd 6d4b 81bc
00000190: 8505 563b 3ca4 e1bd c00b 47bd c823 47bc
000001a0: 3b26 bb3b da2b e0bd 8c55 53bd e9a8 83be
000001b0: 958c debd b532 6ebc 5543 c33c 79ce c1bb
000001c0: c718 a83c 162b 103d 8201 0ebf c8bc b43d
000001d0: 0a46 acbd 8dc4 053c 7adc c2bc 9143 83bd
000001e0: 81e7 a2bc efbe c9be ee0e 9b3e a368 c2bd
000001f0: 1b5e f43b 513e 18bc cef4 d0bd 98fc 83bc
00000200: b633 f9bd b589 aa3d 8a3f 61bd a21a 68bc
00000210: 1579 9bbb 9f70 2fbd 47dd 133d cf93 f8bd
00000220: 5721 9cbd e25f 89bd 9853 16bd 2a31 90bc
00000230: 402c 1d38 bcdd 4f3d 3d9e 423d 2f73 a33c
00000240: feaa cbbd eae0 5cbc fd25 be3c a84c 173c
00000250: c0fa 413c cb37 d03d d75f 90bd 3707 cbbd
00000260: fa81 8a3d 97bf 913b d293 b43c d070 19ba
00000270: 30ee 4d3c cae6 15bf c4a1 54bf 6bbe debd
00000280: 8078 783d 4693 42bc 2122 03bd 3a76 0a3c
00000290: 1e45 09bf 8f6f 37bf 3bf3 89bc 889d cc3d
000002a0: d52d f43c 627d 2f3d 38a8 c83d 5352 93bc
000002b0: 0b1e aabd 36de 9f3d 756e 453d 6f6c cb3c
000002c0: edff 693c 20bf 163e 831e f83d a6e1 003e
000002d0: bfc6 023e ef80 aa3d 3c5e 153d c12f eb3c
000002e0: 77de c53d 3f11 9b3d 3192 523d 607d 293c
000002f0: 177c 663d 4ff8 f33b dfba b93b a430 883d
00000300: 5425 5c3c 6c26 5a3c 0c04 dabc ecea 2d3d
00000310: e485 24bc 0129 c2bc ba5b 9cbd 41a1 91bd
00000320: f0e0 39bd d2d3 08bc 955c c83c a5e0 823c
00000330: d722 113d 3bb7 023c ce77 3fbd f9fe f7bc
00000340: 8a10 edbc 33a4 b63b a9f0 a63d dae1 af3d
00000350: 4137 aebd 0948 61be f5f4 e23d 8e85 7f3d
00000360: ecc7 ce3c cab9 f0bc aae5 eebd 6ed3 ffbe
00000370: db57 77bf 5d3c 85be 3d5d d93c 18f1 05bc
00000380: 0c49 19bd 5adc c5bd 8655 75be aa90 c8be
00000390: 49d0 79be 8b3f 1abd e6c8 ccbb f00f 4abc
000003a0: 35a5 6dbd 9964 85bd d6b6 a6bd b035 94bd
000003b0: 88a0 0bbd da7e 75bc 2879 833c 1a58 82bd
000003c0: f9a8 22bd 0e4e 113c 63d6 b3b9 3c66 c33c
000003d0: 14bc 613c 74c2 183d 066b 9d3d 0d5f 07bc
000003e0: a6cd adbc a9c2 6e3e 1080 f83c ac8c 493d
000003f0: 6df2 dd3c 6484 24bd eec5 e5bd 3c56 96be
-0.03994421 -0.007560997 -0.029795103 -0.015950145 0.08384555 -0.03321245 -0.13854285 0.008879814
-0.0062052542 0.010390786 0.16984409 0.023770561 0.026336314 0.014667382 0.001638294 -0.05791726
0.033600003 -0.11553837 -0.3041769 -0.29733947 -0.09429757 -0.035607297 -0.07104871 -0.07191575
-0.20949346 -0.39067256 -0.25722477 -0.042478066 -0.053466044 0.00705364 -0.084945306 -0.037725024
0.10353394 0.057224605 0.055963736 -0.02080006 -0.0022073858 -0.0023843134 0.10874625 0.030542925
-0.033947684 0.09246028 -0.0018252077 0.058705065 0.034974925 0.062121283 0.07482112 0.051463094
0.18399875 -0.059613094 -0.04313576 0.14614105 0.24516942 0.14211603 0.0053520626 -0.03172288
0.011566972 0.06869979 0.22252081 0.34792152 0.22491975 0.012436597 -0.046247315 -0.025366256
-0.047202364 0.07570347 0.1588514 0.092592806 -0.006168465 -0.057724178 -0.067686714 -0.09461083
-0.08258733 -0.11492676 -0.14101852 -0.088596344 -0.07022822 -0.016821522 -0.056929868 -0.012951126
-0.018909013 -0.053801008 -0.057886295 -0.03676437 -0.04183684 -0.07653314 -0.09939534 -0.073848575
-0.07982259 -0.07241664 -0.010022144 -0.003936622 -0.023731189 -0.02933997 -0.04637345 -0.017358992
-0.019767128 0.018181838 -0.05710128 -0.015783036 0.0032657098 -0.11017653 -0.04859519 -0.012154527
0.0057113445 -0.10945864 -0.051595256 -0.25714806 -0.10866658 -0.014538457 0.023835817 -0.005914506
0.020519627 0.03519734 -0.5547105 0.0882507 -0.084117964 0.008164537 -0.023786772 -0.06409372
-0.01988578 -0.39403483 0.30284828 -0.09492614 0.0074575073 -0.009292201 -0.10202943 -0.016111657
-0.12168066 0.08327047 -0.054992236 -0.014166506 -0.0047446587 -0.042832013 0.0360997 -0.12137567
-0.076235466 -0.06707741 -0.036700815 -0.017601568 3.7472928e-05 0.05074857 0.04751419 0.019952385
-0.099447235 -0.013481358 0.023211474 0.009234585 0.011839569 0.10166892 -0.0704953 -0.099134855
0.06763072 0.004447888 0.022043142 -0.0005853297 0.012568995 -0.5855528 -0.83059335 -0.10876163
0.060661793 -0.011875933 -0.03201497 0.008451039 -0.5362109 -0.716546 -0.016839614 0.09990984
0.02980701 0.042844184 0.0979771 -0.017983591 -0.083065115 0.07806055 0.048201043 0.024831979
0.014282209 0.14721346 0.12115195 0.12586078 0.12771128 0.083253734 0.036466822 0.028709294
0.096615724 0.07571649 0.05140895 0.010344833 0.056270685 0.007445372 0.0056680287 0.066499025
0.013436634 0.013314825 -0.026613258 0.042460367 -0.010041688 -0.023701193 -0.07634683 -0.07110835
-0.045380533 -0.008351283 0.024458209 0.01597626 0.035433616 0.007978256 -0.046745114 -0.030272948
-0.02893855 0.0055737733 0.08151371 0.08588 -0.085066326 -0.22000135 0.11081878 0.062383227
0.025241815 -0.029385466 -0.11664899 -0.49965996 -0.9661843 -0.26022616 0.026533717 -0.008175157
-0.03742318 -0.09661169 -0.23958406 -0.3917287 -0.2439586 -0.037658256 -0.006249535 -0.012332901
-0.05801888 -0.06513328 -0.08140342 -0.072368026 -0.03408864 -0.014983857 0.016048983 -0.0636446
-0.039711926 0.008868707 -0.0003430127 0.02385246 0.0137777515 0.03729482 0.07686429 -0.008262408
-0.021216225 0.23316444 0.030334502 0.04920642 0.027093137 -0.04016532 -0.11219393 -0.29362667
