DVCreimplement/examples/flow_pretrain_np/modelL1_F-3-weight.npy (npy, 401536 bytes, 1 tensors)

array f4 [32, 64, 7, 7]
000000 c7 23 38 b9 fd 42 44 bc 7f d1 92 3c 0c 4e 64 3c
       -0.00017560936 -0.011978862 0.017922161 0.013934623
000010 c6 8a 54 3c 19 c8 99 bc 47 4e 0d 3c a1 62 0a 3d
       0.012972539 -0.018772172 0.00862462 0.033785466
000020 d1 84 75 3d 86 e6 88 3d a5 0b 77 3c ab 8d 47 3d
       0.059941117 0.06684594 0.01507846 0.04871909
000030 7d 76 9a 3c be f4 eb bc 87 20 01 bd 1d 20 82 bd
       0.018855328 -0.028803226 -0.03152516 -0.06353781
000040 68 74 c6 3c b3 04 2b 3d dd b3 32 3d 64 33 9f 3a
       0.024225429 0.04175253 0.043628562 0.0012146053
000050 51 6d 1f bd 27 6b d8 3c ee 97 57 3d 03 e6 0f 3e
       -0.03892261 0.026418282 0.052635126 0.14052586
000060 b0 f3 58 3e ad 74 8c 3d 75 e1 1b bd c6 55 46 bd
       0.2118671 0.06858192 -0.03805681 -0.048421644
000070 4c ca 13 3e 30 ba 86 3c 59 df 7a bc a5 84 50 3c
       0.14432639 0.016446203 -0.015312039 0.012726937
000080 7a 1a 12 bd 1d 79 6d bd ae 89 6b 3b 33 ab d7 3d
       -0.03566978 -0.05797683 0.0035940218 0.105307005
000090 85 4c ae 3c 21 b0 4c bd 16 36 8c 3c 62 0d 62 3d
       0.021276722 -0.049972657 0.017115634 0.055188544
0000a0 eb d5 f5 3c 56 2b 48 3d f2 b4 92 bc cc 1a 34 3d
       0.03000923 0.048869453 -0.017908547 0.043970868
0000b0 3d 70 10 3e 86 3e 07 3e 46 19 9e 3d ba d6 a5 bb
       0.14105316 0.13207445 0.07719664 -0.005060998
0000c0 b8 b4 70 ba 73 86 0a bd 2b 07 5a 3d 02 64 db bd
       -0.00091822026 -0.033819627 0.053229492 -0.10712434
0000d0 10 44 77 bc 19 5f 02 3e c6 c4 1e 3d 14 fe 0c 3d
       -0.015091911 0.1273159 0.038761877 0.034421995
0000e0 d0 e7 b1 bc a8 44 77 bd d0 51 15 be 22 92 1a bd
       -0.021716982 -0.06036821 -0.1458199 -0.03773702
0000f0 f8 fb ac 3d 1e a6 50 bd d4 67 56 bc 21 9c 15 3d
       0.08446497 -0.05093967 -0.013086278 0.03652585
000100 de 80 3a bd 1a 0b b4 bd bf 33 a6 bd d6 c0 b7 3c
       -0.045533054 -0.0879118 -0.081153385 0.022430819
000110 65 bf 36 bd 2f 7f 02 3c cf 8b 07 be b0 ce 9b bd
       -0.04461612 0.007964893 -0.13236926 -0.07607782
000120 4b 28 af bd 45 70 8c bd 9a a2 31 bd ed ea 19 3c
       -0.08552607 -0.06857351 -0.04336796 0.00939439
000130 86 06 23 bc 14 53 e6 3c 68 c9 10 3e 3f ff 99 3d
       -0.009950286 0.028115787 0.1413933 0.075193875
000140 d4 17 0a bd 06 ab 08 be ea 2e 34 3d c4 1c 3a 3c
       -0.03371413 -0.1334649 0.043990053 0.011359397
000150 fe 3b 51 bd 49 a2 4d 3c 3b 38 37 3c 4f f5 93 bc
       -0.051082604 0.012550899 0.01118284 -0.018061308
000160 35 9e dd bd f0 a5 1a 3d 7c 9c 82 3d 54 0d 23 be
       -0.10821191 0.037755907 0.06377503 -0.15923053
000170 b9 f0 67 bd 6d ca 36 3d 40 8f 5b 3d 88 6e 2e 3d
       -0.056626055 0.044626642 0.05360341 0.04258588
000180 7d 71 63 3d b9 05 20 3d a9 56 c7 bc 25 90 d2 3d
       0.055528153 0.039067958 -0.024333315 0.102814
000190 74 e1 80 3d 10 bf 5d 39 be f9 89 3d d4 68 e7 3a
       0.06293002 0.00021147379 0.06737088 0.0017655143
0001a0 a6 1c e7 bc b4 c4 b4 bd a1 50 4c bd d1 50 54 3b
       -0.028211903 -0.08826581 -0.04988158 0.0032396803
0001b0 22 6a ce 3b e8 f6 66 3d f0 06 cc 3d 45 9e 77 bd
       0.006299273 0.056387812 0.09962261 -0.060453672
0001c0 69 1f 6e bd 71 a7 e8 bd a6 35 2d be 1b 3a 16 bd
       -0.058135424 -0.11360062 -0.16914997 -0.036676507
0001d0 1f 3f 1f be d6 2f bd bb e2 82 6b bd 89 02 7b 3d
       -0.15551423 -0.0057735248 -0.057497866 0.061281715
0001e0 16 2a 38 3b 26 52 df bd e2 0f 0d 3e 6b 28 b2 bd
       0.0028101257 -0.109043404 0.1377559 -0.08699115
0001f0 48 34 17 bd 0e b7 68 3c 39 ff 99 bd 7f 71 6e 3d
       -0.036915094 0.0142038 -0.07519383 0.058213707
000200 fd bd 8b bc 0a 35 a5 3c d7 e0 44 3d 87 64 62 3d
       -0.017058367 0.020166893 0.048065986 0.05527165
000210 96 04 40 3d d4 3c 96 bd 4d 77 70 3c e7 63 ab 3d
       0.046879373 -0.07335821 0.014676881 0.08368664
000220 f6 c0 40 3d 63 17 16 3d ff 8b 08 bd aa 45 0d bd
       0.047059022 0.036643397 -0.033336636 -0.034490265
000230 1f 40 10 3d 22 e9 fe bc b7 d6 68 bd 1c b5 da 3b
       0.0352174 -0.031117026 -0.056845393 0.006674422
000240 63 1a 4e bc 32 62 40 3d 78 e4 e9 3c f5 9f 89 bd
       -0.012579533 0.046968646 0.028551325 -0.067199625
000250 7f ae e9 bc 58 e1 49 bc c4 97 12 bd 61 74 a8 3a
       -0.028525589 -0.012321793 -0.035789266 0.0012852066
000260 7b 01 e1 bc c8 59 49 bd c2 71 05 bc 44 7d b3 bb
       -0.027466526 -0.049157888 -0.008144798 -0.0054775793
000270 45 ef df 3c 00 80 ce 3c ad 32 2d 3d 74 ec 99 3d
       0.027335772 0.02520752 0.042284656 0.07515803
000280 21 84 b6 bc 61 92 61 3d 53 1b 1a 3d 1c 30 e5 bc
       -0.0222798 0.05507124 0.037623715 -0.027977042
000290 03 9b ff bd 9e af ca bd b9 89 fb 3c bb 57 09 bd
       -0.12480738 -0.098967776 0.03070532 -0.033530932
0002a0 bd fe 9a 3c 66 02 1a 3c b1 8b 41 3d 48 27 02 3c
       0.018920297 0.009399986 0.04725236 0.007943936
0002b0 10 43 2a bc cf 42 b5 3d d5 17 9b 3d 41 87 4c bc
       -0.0103919655 0.08850633 0.07572905 -0.012483419
0002c0 0e d1 1c bd fd d8 0d 3d 36 28 8d 3b 8f f6 e6 bc
       -0.038285308 0.034630764 0.004307772 -0.02819374
0002d0 c2 d3 c2 bd 41 1d 93 bd b0 86 b2 3c 90 da 0d bd
       -0.09513046 -0.07183314 0.02179274 -0.034632266
0002e0 6c 01 96 3d 85 49 79 3d 59 01 f2 bb 1f 14 f7 bd
       0.0732449 0.06086113 -0.0073854146 -0.12064385
0002f0 39 e9 9f bc 10 d2 b5 bd 80 55 13 bd d4 73 34 3c
       -0.019520389 -0.08877957 -0.03597021 0.011013944
000300 50 bd 97 bc 17 b4 75 bd 8c 10 94 bc 5b 3a ac 3d
       -0.018522888 -0.0599862 -0.018074296 0.08409568
000310 c7 2b 71 bd cb 1d 8e 3d 76 2c ca bc 74 6c a5 bd
       -0.05887964 0.06939276 -0.024679404 -0.080773264
000320 da 68 54 3c 6d 37 28 bd 2e e9 bf bb d9 34 1a bc
       0.012964452 -0.041068483 -0.0058566546 -0.009412014
000330 17 6b e8 bc 31 ce a2 bd 85 80 13 bd 0d 91 07 3d
       -0.028371377 -0.07949484 -0.036011238 0.033097316
000340 7f 06 ef bb cd 65 dd bb 57 34 2b 3d 24 c6 12 3d
       -0.0072944756 -0.0067565204 0.041797962 0.035833493
000350 94 4f 7f 3c 14 43 10 3c 6c b2 1e 3d 2d b4 61 3d
       0.015582938 0.008805055 0.038744375 0.05510347
000360 a2 c6 80 3c 5a 20 f3 bc 47 4d be 3d 2b d9 e2 ba
       0.015719716 -0.029678512 0.09292083 -0.0017307153
000370 0a 19 30 bd c0 b2 8a 3d d0 65 4f 3d 81 b8 b5 3d
       -0.04299263 0.06772375 0.050634205 0.08873082
000380 56 88 aa 3a 64 77 27 3d 43 85 84 3d b1 44 1e bd
       0.0013010602 0.040885344 0.0647073 -0.038639728
000390 92 7f e3 bc 3b 57 9e 3c bf eb 37 3d 86 30 33 bd
       -0.027770791 0.019328704 0.04490256 -0.043747447
0003a0 6a 3b 62 bc 0f 15 25 3d 32 c2 8e 3d 72 f2 0b 3d
       -0.013808111 0.040303286 0.069706336 0.03416676
0003b0 8a 5a 86 bd de 89 b0 bc 3d f9 1a 3d c7 09 b2 bc
       -0.06560238 -0.021550115 0.03783535 -0.021733178
0003c0 cb 27 06 3d 4b 12 81 bc b9 e6 bc 3c d3 cf 63 bc
       0.032752793 -0.015755793 0.023059236 -0.01390453
0003d0 0e 9c 4d 3d 00 df 0f 3d f4 47 b8 bc 15 7d 06 3d
       0.050197653 0.03512478 -0.022495247 0.03283413
0003e0 6e a5 6a bc 49 db 83 bc 51 d3 67 bc 98 73 39 3c
       -0.014321668 -0.016095774 -0.014149503 0.011319064
0003f0 c4 92 cb 3c ff 44 1d bc e8 1b ff 3c a7 6d 27 3d
       0.024850257 -0.0095989695 0.031141236 0.040876057
