DVCreimplement/examples/flow_pretrain_np/modelL2_F-2-weight.npy (npy, 401536 bytes, 1 tensors)

array f4 [64, 32, 7, 7]
-0.0257156 -0.036197264 -0.016802317 0.033052526 0.16184123 0.06272963 -0.117580794 -0.0012336303
-0.021879911 0.07879869 0.22666253 -0.0481392 -0.015222272 0.027152192 -0.0077268053 -0.04898336
0.10660606 -0.061834726 -0.25775012 -0.24080506 -0.105248615 0.0017660866 -0.019906588 -0.02875429
-0.21526796 -0.34515968 -0.20172031 -0.056269553 -0.019538423 0.036792185 -0.0769927 -0.057490192
0.09868096 0.056421556 0.013461611 0.004524403 0.0027251698 -0.014225013 0.0751947 0.022669395
-0.043332793 -0.0013604569 0.036225464 0.064117454 0.035655264 0.03272488 0.045805678 0.020274961
0.100158155 -0.10044143 -0.07038603 0.11600157 0.2032681 0.093823485 -0.026610097 -0.050032277
-0.016847609 0.053676423 0.20094258 0.31823993 0.2049777 0.016689437 -0.03509638 -0.03473272
-0.046027157 0.074517705 0.16015314 0.11458703 0.031095624 -0.029040722 -0.03358453 -0.06659199
-0.053498503 -0.07005409 -0.07344852 -0.030840134 -0.040913254 -0.010455655 -0.061320692 -0.01681836
-0.012200274 -0.025022995 -0.028648138 -0.022754077 -0.016645912 -0.05704458 -0.07181185 -0.045444828
-0.05710683 -0.054388996 0.0016097906 0.017686589 -0.00701608 -0.0059196823 -0.02157587 -0.0035403299
-0.014463138 0.017208247 -0.011734444 0.006984592 0.07781147 -0.026692629 -0.01687998 0.009786244
0.007750812 -0.07217198 -0.014689143 -0.13594496 -0.057916638 -0.008141306 0.02428502 -0.008329188
0.044613745 -0.004593343 -0.4060799 0.116970696 -0.091356985 -0.01467004 -0.026895477 -0.0061100028
-0.048330333 -0.3843234 0.30211377 -0.10635216 -0.02916785 -0.010015089 -0.04742316 0.041954905
-0.0899659 0.1098131 -0.049311426 -0.020552391 0.012484168 0.00067758403 0.10212757 -0.035712216
0.017935362 0.019699004 0.013318006 0.021110084 0.0036747383 0.077754185 0.0882876 0.06004958
-0.018523257 -0.010157449 0.022238836 0.010511072 0.0480389 0.117427275 -0.090400726 -0.1699548
0.016642671 -0.031147316 0.046406496 0.050490737 0.036862917 -0.57845086 -0.8846999 -0.16376929
0.035971843 -0.020337502 0.0028400368 0.049142014 -0.47719693 -0.718231 -0.052800864 0.0743327
0.011878107 0.073354885 0.11707722 -0.028012246 -0.14418353 0.029828902 0.02265265 -0.009053839
0.021558091 0.12901363 0.062502764 0.04181447 0.08517714 0.0601478 0.011645489 0.040250648
0.09681639 0.059591558 0.029930362 0.012471185 0.040460188 -0.03426426 -0.00947102 0.045217782
-0.004332656 0.0029038552 -0.027196594 0.00020651943 -0.0052286536 -0.010981816 -0.053820055 -0.03672915
-0.017716652 0.004320258 0.00885516 0.029684063 0.018660191 -0.0016789209 -0.05244374 -0.029303268
-0.010505716 0.007060859 0.04664568 -0.03066867 -0.18437482 -0.319007 0.019130412 0.027863167
-0.024262229 -0.0036934812 -0.07149227 -0.22021444 -0.6705529 -0.25356537 0.048303057 -0.028393364
0.0016727753 -0.05183549 -0.109191544 -0.24146715 -0.1575925 0.037630778 -0.010300075 0.019019773
-0.049729966 -0.043236107 -0.06528579 -0.06726222 -0.023362366 -0.036279764 0.05299136 -0.03678438
-0.017157357 0.022043047 0.011711267 0.043495845 0.020122416 0.020025384 0.05580051 -0.04655814
-0.1032285 0.12384225 -0.06505255 -0.06543748 0.024244292 -0.03125941 -0.113893345 -0.31925848
00000000: 86a9 d2bc 9543 14bd 03a5 89bc 1662 073d
00000010: b5b9 253e 6478 803d 33ce f0bd c4b1 a1ba
00000020: 803d b3bc 3561 a13d 391a 683e 9c2d 45bd
00000030: d666 79bc 466e de3c 2431 fdbb c7a2 48bd
00000040: 4754 da3d 6946 7dbd d3f7 83be 9a95 76be
00000050: 968c d7bd 087c e73a 2413 a3bc 1e8e ebbc
00000060: 346f 5cbe c5b8 b0be c58f 4ebe e77a 66bd
00000070: 0b0f a0bc 67b3 163d 59ae 9dbd d67a 6bbd
00000080: 3e19 ca3d 4a1a 673d 178e 5c3c 7141 943b
00000090: c398 323b 0710 69bc aeff 993d 2bb5 b93c
000000a0: ba7d 31bd 5c51 b2ba 2761 143d 0350 833d
000000b0: 410b 123d 860a 063d bc9e 3b3d ad17 a63c
000000c0: b81f cd3d 3db4 cdbd 8d26 90bd 3b92 ed3d
000000d0: 8325 503e 8726 c03d 6bfd d9bc a5ee 4cbd
000000e0: ff03 8abc cfdb 5b3d e4c3 4d3e 58f0 a23e
000000f0: ade5 513e 49b8 883c 39c1 0fbd e643 0ebd
00000100: f986 3cbd bd9c 983d 2fff 233e 9bac ea3d
00000110: 40bc fe3c cfe6 edbc ef8f 09bd 6261 88bd
00000120: 3f21 5bbd 8578 8fbd 2d6c 96bd 73a4 fcbc
00000130: a894 27bd 324e 2bbc 682b 7bbd a8c6 89bc
00000140: a8e3 47bc 06fd ccbc 80af eabc c266 babc
00000150: 025d 88bc 94a7 69bd 1712 93bd 5b24 3abd
00000160: dae8 69bd ffc6 5ebd 9cff d23a 77e3 903c
00000170: 25e7 e5bb e5f9 c1bb e1bf b0bc e104 68bb
00000180: ccf6 6cbc 4ff8 8c3c d341 40bc 01df e43b
00000190: 9f5b 9f3d 80aa dabc e247 8abc 7b56 203c
000001a0: 86fa fd3b e7ce 93bd bbaa 70bc 2835 0bbe
000001b0: ff39 6dbd 1d63 05bc 61f1 c63c 2677 08bc
000001c0: e7bc 363d c183 96bb b4e9 cfbe 558e ef3d
000001d0: 5f19 bbbd 9c5a 70bc e753 dcbc 6b36 c8bb
000001e0: 07f6 45bd 09c6 c4be a8ae 9a3e 29cf d9bd
000001f0: 6af1 eebc 5416 24bc ca3e 42bd e8d8 2b3d
00000200: 0b40 b8bd b1e5 e03d c7fa 49bd 7d5d a8bc
00000210: 658a 4c3c e59f 313a 4228 d13d f946 12bd
00000220: 2eed 923c ce5f a13c c433 5a3c 0eef ac3c
00000230: e1d3 703b 963d 9f3d 21d0 b43d 8cf6 753d
00000240: 16be 97bc 6e6b 26bc 382e b63c a236 2c3c
00000250: 70c4 443d b67d f03d 0424 b9bd a208 2ebe
00000260: 3656 883c a828 ffbc bd14 3e3d 60cf 4e3d
00000270: 92fd 163d 5b15 14bf b17b 62bf 23b3 27be
00000280: 3657 133d d59a a6bc e91f 3a3b 2349 493d
00000290: 2853 f4be fddd 37bf b845 58bd be3b 983d
000002a0: 649c 423c 163b 963d 2ec6 ef3d f079 e5bc
000002b0: d9a4 13be be5b f43c 0d92 b93c 8e56 14bc
000002c0: 989a b03c 261c 043e 7301 803d a645 2b3d
000002d0: 5a71 ae3d 8a5d 763d b9cc 3e3c dddd 243d
000002e0: ac47 c63d 4716 743d 8530 f53c f153 4c3c
000002f0: 95b9 253d ae58 0cbd 562c 1bbc 4836 393d
00000300: f4f8 8dbb 9b4e 3e3b 64cb debc 238d 5839
00000310: 2055 abbb 13ed 33bc 6b72 5cbd 4e71 16bd
00000320: 8322 91bc f390 8d3b 3c15 113c fe2b f33c
00000330: 42dd 983c 3d0f dcba 3fcf 56bd 680d f0bc
00000340: 2b20 2cbc c75e e73b 8a0f 3f3d dd3c fbbc
00000350: c1cc 3cbe e354 a3be 62b7 9c3c 4c41 e43c
00000360: 95c1 c6bc 550e 72bb 8a6a 92bd e57f 61be
00000370: 5ba9 2bbf 52d3 81be 6dd9 453d 3399 e8bc
00000380: 0641 db3a 7351 54bd d19f dfbd 2a43 77be
00000390: ee5f 21be bb22 1a3d a5c1 28bc 5bcf 9b3c
000003a0: a6b1 4bbd 5818 31bd 8eb4 85bd c6c0 89bd
000003b0: 6f62 bfbc 179a 14bd 780d 593d 38ab 16bd
000003c0: 968d 8cbc 9f93 b43c 9de0 3f3c b328 323d
000003d0: c4d7 a43c 460c a43c 138f 643d c0b3 3ebd
000003e0: 7769 d3bd 01a1 fd3d 453a 85bd 1604 86bd
000003f0: f79b c63c de09 00bd ea40 e9bd d975 a3be
