DVCreimplement/examples/flow_pretrain_np/modelL3_F-2-weight.npy (npy, 401536 bytes, 1 tensors)

array f4 [64, 32, 7, 7]
-0.041341487 -0.007790632 -0.02944545 -0.022434246 0.068934225 -0.050272588 -0.14960934 0.0019741934
-0.0066521503 0.023351336 0.19020356 0.03519442 0.037975967 0.026192492 -0.0033167575 -0.057194285
0.04788479 -0.09198656 -0.2713733 -0.2658105 -0.07334696 -0.037494496 -0.07132561 -0.07254046
-0.21142092 -0.38936806 -0.2514989 -0.036480192 -0.05097851 0.007229929 -0.09265143 -0.050810136
0.09178042 0.050248794 0.05560377 -0.012552048 0.0017888816 -0.004216108 0.10082411 0.022151124
-0.037786737 0.09597803 0.012204468 0.071227826 0.045984734 0.068123065 0.080542095 0.059622206
0.19765455 -0.06775696 -0.05064434 0.13905919 0.23754835 0.13376668 -0.0018904851 -0.036394395
0.0066617783 0.065929726 0.22070679 0.34614003 0.22383992 0.010879621 -0.048646033 -0.02540009
-0.046336778 0.07840119 0.16331585 0.09808835 -0.0019883278 -0.056350008 -0.06592231 -0.09646293
-0.08543695 -0.11615451 -0.14020431 -0.08808822 -0.07082759 -0.01579056 -0.061685637 -0.021405544
-0.02857015 -0.061953086 -0.063614905 -0.040372778 -0.038467307 -0.07562292 -0.09892945 -0.07369984
-0.080654435 -0.07394194 -0.011539022 -0.0026114678 -0.02357792 -0.027261179 -0.04292776 -0.015020753
-0.019927414 0.016838292 -0.062111966 -0.023580449 -0.015270171 -0.12887366 -0.061051264 -0.013250085
0.004558968 -0.10601047 -0.045350052 -0.2653051 -0.115112156 -0.017605517 0.033240635 0.00025667984
0.026088297 0.03754951 -0.58634883 0.07686698 -0.09360446 0.016330687 -0.017044 -0.054075904
-0.011852116 -0.42440274 0.29831904 -0.105030365 0.011553717 -0.0049933204 -0.09502117 -0.0022006321
-0.12339918 0.08478817 -0.06118541 -0.011675333 -0.0026252575 -0.040822953 0.04236963 -0.11793883
-0.073933885 -0.07227247 -0.032639507 -0.013826705 -0.00035491993 0.05169845 0.05225567 0.021824932
-0.10332697 -0.0060995887 0.031431295 0.0068296473 0.010296708 0.10117986 -0.071799636 -0.1035585
0.06567541 0.0072903726 0.01832229 -0.002595178 0.012713557 -0.58740866 -0.83843464 -0.11144329
0.065031186 -0.018107427 -0.033461567 0.013185373 -0.52949435 -0.71522546 -0.013961146 0.105255306
0.023756232 0.042668432 0.10251297 -0.01076506 -0.07915714 0.08110857 0.051105585 0.021678444
0.015587967 0.15089047 0.12652573 0.1300108 0.13139527 0.08621044 0.040096257 0.034926362
0.10328991 0.08347939 0.058888778 0.01738173 0.062107317 0.016159154 0.016069949 0.07605893
0.02311333 0.022812879 -0.017470613 0.05006584 -0.014147267 -0.031242264 -0.085343085 -0.08021377
-0.052399967 -0.010933627 0.026017062 0.00838631 0.020594915 -0.0077417293 -0.06435592 -0.04746273
-0.039864164 0.0022523669 0.071144916 0.06487264 -0.10566707 -0.2406386 0.09184979 0.0442483
0.013967449 -0.02946188 -0.12112263 -0.4903074 -0.95665276 -0.26797226 0.020721316 -0.013626829
-0.037611444 -0.10221509 -0.24441189 -0.39375523 -0.24508578 -0.038118646 -0.0077240486 -0.014818187
-0.06617414 -0.07144517 -0.08500951 -0.07739754 -0.04097792 -0.020653952 0.013597432 -0.069809295
-0.04580087 0.0057235686 -0.004510788 0.018402465 0.0074703433 0.038328804 0.07469084 -0.010171933
-0.022696977 0.22069392 0.010824601 0.037168905 0.028420433 -0.041345824 -0.11655695 -0.29965153
00000000: b155 29bd 8f48 ffbb 9637 f1bc 06c8 b7bc
00000010: 632d 8d3d a1ea 4dbd 3133 19be 7861 013b
00000020: 48fa d9bb 4d4b bf3c b9c4 423e 0628 103d
00000030: b08c 1b3d a391 d63c f55d 59bb 8e44 6abd
00000040: d722 443d 7363 bcbd 71f1 8abe 5018 88be
00000050: ee36 96bd d493 19bd 2913 92bd 1890 94bd
00000060: ba7e 58be 405b c7be 77c4 80be 416c 15bd
00000070: d8ce 50bd 0ae9 ec3b 08c0 bdbd 4a1e 50bd
00000080: 5ff7 bb3d aed1 4d3d c7c0 633d 1ba7 4dbc
00000090: e878 ea3a 4727 8abb df7c ce3d 4676 b53c
000000a0: 44c6 1abd 2190 c43d 40f5 473c e5df 913d
000000b0: 7d5a 3c3d 1b84 8b3d 41f3 a43d 6a36 743d
000000c0: f465 4a3e 29c4 8abd 7170 4fbd 8865 0e3e
000000d0: e03f 733e 22fa 083e 27ca f7ba 4a12 15bd
000000e0: 0c4b da3b 2a06 873d f600 623e 4439 b13e
000000f0: 4b36 653e 7040 323c 1041 47bd d913 d0bc
00000100: a2cb 3dbd ce90 a03d 453c 273e 8be2 c83d
00000110: 9b4e 02bb 44cf 66bd 4702 87bd 5b8e c5bd
00000120: 91f9 aebd 6ae2 edbd b891 0fbe 9967 b4bd
00000130: 0e0e 91bd 345b 81bc 14aa 7cbd ae5a afbc
00000140: f20b eabc 85c2 7dbd 8848 82bd ed5d 25bd
00000150: e58f 1dbd 31e0 9abd 869b cabd f1ef 96bd
00000160: 272e a5bd df6e 97bd 2b0e 3dbc 2925 2bbb
00000170: 7b26 c1bc d652 dfbc 05d5 2fbd 9b19 76bc
00000180: d13e a3bc 75f0 893c 1e69 7ebd c92b c1bc
00000190: bd2f 7abc 75f7 03be e410 7abd e216 59bc
000001a0: 6563 953b 041c d9bd fac0 39bd 12d6 87be
000001b0: ecbf ebbd 7239 90bc 5527 083d fc92 8639
000001c0: 20b7 d53c 84cd 193d f51a 16bf 6f6c 9d3d
000001d0: b2b3 bfbd efc7 853c dc9f 8bbc b27e 5dbd
000001e0: 612f 42bc 514b d9be 46bd 983e 291a d7bd
000001f0: cd4b 3d3c 029f a3bb 769a c2bd 7b38 10bb
00000200: b6b8 fcbd 6ca5 ad3d 8d9d 7abd e549 3fbc
00000210: 830c 2cbb f835 27bd c78b 2d3d ea89 f1bd
00000220: a66a 97bd 9703 94bd 01b1 05bd 6789 62bc
00000230: 8c14 bab9 c1c1 533d 0b0a 563d 33ca b23c
00000240: 179d d3bd 0fdf c7bb 1abe 003d 3ccb df3b
00000250: 86b3 283c 6337 cf3d b00b 93bd 7b16 d4bd
00000260: d480 863d 14e4 ee3b a118 963c dd13 2abb
00000270: 864c 503c 6a60 16bf a7a3 56bf 613c e4bd
00000280: 122f 853d 0756 94bc ff0e 09bd 7607 583c
00000290: f18c 07bf 0419 37bf 4abd 64bc 1890 d73d
000002a0: 6e9c c23c 18c5 2e3d 52f2 d13d ef5f 30bc
000002b0: 231d a2bd 401c a63d 1754 513d fe96 b13c
000002c0: ac64 7f3c 0883 1a3e f68f 013e 8d21 053e
000002d0: 7b8c 063e 198f b03d f93b 243d f20e 0f3d
000002e0: a989 d33d 3ef7 aa3d 5c35 713d 2164 8e3c
000002f0: 3e64 7e3d 3460 843c 20a5 833c c9c4 9b3d
00000300: 2b58 bd3c 13e2 ba3c 881e 8fbc d711 4d3d
00000310: f0c9 67bc c7ef ffbc 5bc8 aebd 1e47 a4bd
00000320: 59a1 56bd f522 33bc bc21 d53c bc66 093c
00000330: abb6 a83c 55ae fdbb 09cd 83bd 4868 42bd
00000340: 9b48 23bd 729c 133b 6db4 913d f2db 843d
00000350: fa67 d8bd f769 76be be1b bc3d b53d 353d
00000360: bad7 643c 0a5a f1bc 240f f8bd 9209 fbbe
00000370: 32e7 74bf a933 89be c0bf a93c 1043 5fbc
00000380: 750e 1abd 2556 d1bd 1c47 7abe 499a c9be
00000390: c4f7 7abe 4c22 1cbd 041a fdbb fbc7 72bc
000003a0: 4f86 87bd d851 92bd 7719 aebd 9a82 9ebd
000003b0: 77d8 27bd 7a32 a9bc c3c7 5e3c 2df8 8ebd
000003c0: b199 3bbd c68c bb3b 3bcf 93bb c4c0 963c
000003d0: c8c9 f43b aafe 1c3d 83f7 983d 2ea8 26bc
000003e0: 03ef b9bc 96fd 613e ab59 313c 6c3e 183d
000003f0: f8d1 e83c 3d5a 29bd 69b5 eebd ed6b 99be
