DVCreimplement/examples/flow_pretrain_np/modelL4_F-1-weight.npy (npy, 50304 bytes, 1 tensors)

array f4 [32, 8, 7, 7]
000000 4f ff 92 bd c5 ba a7 bd 1e 34 89 bd e5 74 2b 3c
       -0.071776025 -0.0818992 -0.06699394 0.010464882
000010 52 4a b3 bc 90 87 3a 3c 34 29 d5 bc 0e 24 26 bd
       -0.021886025 0.01138486 -0.026020624 -0.04056173
000020 35 e3 ef 3d bf 94 43 3e a5 bc e7 3b 7d 25 bd 3c
       0.11713258 0.19099711 0.0070720487 0.023089165
000030 12 e4 22 3c 74 4f 9f bc 97 c4 be 3d f4 bf e7 3e
       0.0099420715 -0.019447066 0.0931484 0.45263636
000040 22 fe be 3e 00 19 90 3d 98 c6 bb bc 6e c7 ae bc
       0.37303263 0.07036018 -0.022921845 -0.02133533
000050 19 0a 37 3c fc 86 6e 3d c0 11 18 3e eb 61 0f bc
       0.011171841 0.0582342 0.14850521 -0.008751373
000060 72 1f 4c bd 40 16 ed bc b0 a9 de 3c 18 c6 97 3c
       -0.049834676 -0.028941274 0.027180523 0.018527076
000070 02 54 0d be 8e 4d c8 be c8 b7 f1 be 4d de 7e be
       -0.13801578 -0.3912167 -0.47210526 -0.24889489
000080 17 6d 0d bd d9 45 75 3c 7a 54 b1 bc c8 81 ec bc
       -0.034527864 0.014970266 -0.021646727 -0.028870478
000090 a8 a7 3a be 76 be 7f be 4d 96 93 bd cb 8a 2e bc
       -0.18228018 -0.24974999 -0.07206402 -0.010653208
0000a0 81 f8 81 3c 0d 77 09 bc 07 49 92 bc 12 07 4c 3c
       0.015865566 -0.0083902 -0.017857088 0.012452858
0000b0 37 68 1a 3c 0e 9a de 3b 05 1e 5c bc ae e1 7a 3c
       0.009424261 0.006793267 -0.013434892 0.015312595
0000c0 1e 91 4e bb cb 75 ae 3c 15 d9 8a bd 7f c4 0a bd
       -0.0031519602 0.021296402 -0.06779686 -0.0338788
0000d0 2e 42 95 3c 5c 24 01 3d 59 ba e0 3b 9f 47 fd 3c
       0.018220033 0.031528816 0.006858152 0.03091794
0000e0 04 17 48 3c f9 72 90 3d 85 2d 0a 3e 77 06 5d bc
       0.012212519 0.07053179 0.13493927 -0.013490311
0000f0 87 b2 18 bd a2 89 c9 3b c2 f5 18 3d 35 b8 ae bc
       -0.037279632 0.0061504403 0.037343748 -0.021328071
000100 8b b4 cc 3e 5d 55 96 3e 0e f9 11 3d c3 b3 6c bc
       0.39981493 0.29362002 0.035637908 -0.014447155
000110 22 4e e9 bc f0 06 d8 bb 57 4e ee bc c2 20 87 3d
       -0.02847964 -0.006592624 -0.02909009 0.06598045
000120 86 ad 8d bd 6c c1 87 bd 25 ae 86 3c 1a a9 01 bd
       -0.069178626 -0.06628689 0.01644046 -0.03165541
000130 07 e2 3a 3b 16 6c ae bd 86 c3 94 be c7 bd b2 be
       0.002851607 -0.085167095 -0.29055423 -0.34910414
000140 45 aa 0c be 5b d0 51 3c 2b 77 7a 3c 13 c6 f8 ba
       -0.13736828 0.0128060235 0.015287201 -0.0018979929
000150 4a f7 34 3d 4f 8d 85 bd 95 91 c6 bd 1b 99 51 bc
       0.044181146 -0.06521093 -0.09695736 -0.012792851
000160 b8 a1 ac 3c e2 b3 3e bc f3 73 2a bc e7 2c 99 ba
       0.021073207 -0.011639567 -0.010403621 -0.0011686356
000170 6a 20 e2 3c 52 f1 b6 3c d7 db 32 3d 43 3f 2d 3c
       0.027603347 0.022331867 0.043666687 0.010574165
000180 eb 83 c0 bc 2b 2d 8e bc d0 3c 28 3d 0d 07 8a 3b
       -0.023500403 -0.017355522 0.04107362 0.0042122663
000190 dc 2b bb ba 1c 33 5a bd c5 d7 e2 3a 00 17 0f bc
       -0.0014280039 -0.053271398 0.0017306736 -0.008733511
0001a0 68 bb 31 bd 93 d0 6e bd b5 5d 77 3d 34 9e cc 3d
       -0.043391615 -0.05830438 0.0603921 0.09991112
0001b0 0e bf b7 bc 14 bd 6d 3c 44 fd 85 bb da cb 44 bc
       -0.02242997 0.014510412 -0.0040890295 -0.012011493
0001c0 82 49 ee bc d4 73 93 3e e7 70 9a 3e 5b 34 67 bb
       -0.029087786 0.28799307 0.30164263 -0.003527901
0001d0 25 35 55 bc a1 4a e0 bb 26 ae 92 bc 6f 37 58 bd
       -0.013013159 -0.006844834 -0.017905306 -0.05278724
0001e0 bc 0b 56 bd 3e cd 5a 3b 9b 35 68 3b 59 56 58 39
       -0.052257285 0.0033386494 0.0035432342 0.00020631532
0001f0 ba 3d 4d 3b ac fe 20 bb b8 9c b2 3a f6 34 84 be
       0.003131731 -0.0024565859 0.0013627028 -0.25821656
000200 4d af 8b be f7 47 ac bd 0a e6 99 bb ec 68 52 3b
       -0.2728218 -0.08412164 -0.0046966122 0.0032105995
000210 58 11 06 3d 6e 13 cf 3c 8c 0c b9 b9 be 56 e5 bc
       0.032731384 0.02527782 -0.00035295298 -0.027995463
000220 46 ce a5 3a 02 9a 82 3d 7e de 16 bb e8 7f f1 bb
       0.0012649975 0.06377031 -0.00230208 -0.007369984
000230 c2 91 b5 bb 94 e3 74 3c ca dc 4e 3d 00 3f d1 bb
       -0.0055410573 0.014946837 0.05050353 -0.006385684
000240 a6 a0 0e bd 94 b9 10 bd 94 3e 37 bc fb 29 ba 3c
       -0.034821175 -0.03533323 -0.011184353 0.022725096
000250 19 5a 04 3e a3 e1 b4 3d a7 07 12 3c fc 17 a4 3c
       0.12924995 0.08832099 0.008912957 0.020030968
000260 01 8f 68 39 34 2c 7b 3c cd 66 87 3d 47 89 5e bd
       0.00022178517 0.015330363 0.066114046 -0.054330137
000270 bb 84 6c be a6 56 91 bc 3b 99 45 3b 75 1b a8 3c
       -0.23097508 -0.017741513 0.0030151147 0.020520905
000280 bc cc a0 3c 4b 35 9e bc da c8 1f bf a9 18 15 bf
       0.019628875 -0.019312521 -0.6241585 -0.58240753
000290 de d7 55 bd d6 e6 22 3c 04 3a 61 bb 40 82 fd bc
       -0.05220782 0.009942731 -0.0034366855 -0.030945897
0002a0 48 a8 e1 3b ea 5c f9 bd 30 d7 c4 3d 6d a9 4a 3e
       0.0068865158 -0.12175925 0.09611356 0.19791193
0002b0 cf f7 84 3d 28 15 b0 bc cf 05 87 3c c5 be b8 3d
       0.06492578 -0.021494463 0.016482262 0.090207614
0002c0 3c 06 cf 3e e0 b3 1c 3f 10 3d 71 3e 08 6f 07 bd
       0.40434444 0.6121197 0.2355845 -0.033064872
0002d0 f2 b6 e7 bc f1 43 8f bc c7 fb 0e bc a7 8d 5d 3e
       -0.028285477 -0.017488452 -0.008727021 0.21636067
0002e0 ab b4 70 3e 0f 49 39 3d 4e 5a 7d bd c2 6f 96 bb
       0.2350642 0.04523569 -0.0618537 -0.0045909593
0002f0 3a 26 2f 3d 2d b9 a1 bc d4 36 88 bc 49 3a af bc
       0.042761065 -0.019741619 -0.016627707 -0.021390097
000300 04 b2 2b bd 4b 55 06 3d 70 26 03 3c 31 30 a7 bc
       -0.041917816 0.032796185 0.00800477 -0.020408722
000310 9c fa 3f bd 31 12 80 3d ff 3f d3 3d ef bf 1e bd
       -0.04686986 0.0625347 0.10314941 -0.03875726
000320 c1 a1 c8 bc 2e eb 9f 3c 79 26 2c bd 5c ae 94 3d
       -0.024491193 0.019521322 -0.042028878 0.07259819
000330 2b 7f b2 bc 45 f3 49 be fa 68 b1 3c 8b cc a3 3c
       -0.021789154 -0.19721706 0.021656502 0.019994995
000340 c4 9d 6e bd bc 8a da bb 5a 7c 9a bc c2 05 c9 be
       -0.058255926 -0.0066693705 -0.018858124 -0.39262205
000350 5d 20 e5 be aa 61 a0 bc 7e 2d 5a bb ca 76 21 3d
       -0.44751254 -0.01957782 -0.0033291276 0.039419927
000360 87 b0 0f bb 99 9a d1 3c b2 7b 3a be 47 18 48 3d
       -0.0021925287 0.025586413 -0.18211249 0.048851278
000370 b9 9d 1b 3e 60 04 45 bb 55 93 e6 b9 c3 bd c3 3a
       0.15196885 -0.0030062422 -0.0004397879 0.0014933873
000380 5b 8c 89 3d d7 40 a9 3e 40 79 f7 3e 04 6c f0 3d
       0.06716224 0.3305728 0.48334694 0.11739352
000390 11 3b 56 bd a8 be 45 bd b1 05 dd 3c 54 58 6e bd
       -0.052302424 -0.048277527 0.026980253 -0.058189705
0003a0 f3 f7 e7 3d 52 01 0e 3e ae 88 e2 bc 07 96 7a 3c
       0.113265894 0.13867691 -0.027653065 0.015294558
0003b0 b0 b4 93 3d 1c 0b 26 3c 65 ea de bc 8b a7 64 bd
       0.07212198 0.010134485 -0.027211377 -0.055823844
0003c0 b7 24 1d bd f9 cb 52 bd 5d 76 95 bc a5 5f cb 3b
       -0.038365092 -0.051464055 -0.018244917 0.00620647
0003d0 29 87 e4 3a a0 09 5a bd 68 74 c9 3c 20 a3 20 bd
       0.00174353 -0.053231835 0.02459164 -0.039218068
0003e0 0c fb d2 3b 1b a4 90 b9 08 38 10 bc 6b 0b 4f 3d
       0.0064386185 -0.00027588088 -0.008802421 0.050548
0003f0 fa e2 1f 3c 16 9d a7 bb 27 db 12 be 6b 8a 11 3d
       0.009758705 -0.0051151616 -0.14341412 0.035532396
