DVCreimplement/examples/flow_pretrain_np/modelL4_F-3-weight.npy (npy, 401536 bytes, 1 tensors)

array f4 [32, 64, 7, 7]
-0.011512288 0.028341142 0.055955995 0.023503423 0.06554887 -0.012668611 -0.019809335 -0.002666848
0.0507101 -0.0029571906 -0.075880475 0.075215586 0.02611186 -0.031321682 0.039242137 -0.054980405
-0.0031816547 -0.014359787 0.0773082 0.022107134 0.05049001 -0.032739468 -0.064804204 0.1194775
0.18916301 0.03498185 -0.08517225 -0.039919075 0.051662512 -0.08204812 0.0050393343 -0.007097739
-0.1126684 -0.056992836 0.07397153 0.15086928 0.004405051 -0.07125617 -0.08218062 -0.00029407482
0.03462879 0.029483343 -0.036584437 0.033252444 0.070582606 -0.037139323 -0.008903126 -0.063809514
-0.04636004 -0.0062911347 0.12472573 -0.07077675 -0.009692944 0.09577422 0.14764236 0.044701595
0.12117885 0.11170886 0.0033386908 -0.014199632 0.07371774 0.029890733 0.10623729 0.13525362
-0.13674529 -0.09553719 -0.1492814 -0.13588464 -0.14671288 0.08380886 0.051255755 -0.22169046
-0.19417773 -0.15812837 -0.5029195 -0.014878239 0.10095022 0.15997875 0.00090940105 -0.055205487
-0.15682974 -0.74216944 -0.25915155 0.050037634 0.05467351 0.014817207 -0.034148637 -0.0035825113
-0.24781017 -0.057259448 0.15016595 -0.07777922 -0.06812853 0.03565222 0.039752167 -0.008711445
0.035614114 0.079869054 -0.228012 0.03834733 0.004393207 0.021659799 0.076922506 -0.03002751
0.37983155 -0.20525567 0.000728433 0.05200973 0.056655448 0.10453882 0.026111623 0.121524125
-0.123877384 -0.0625422 -0.19008538 0.022462377 -0.116989665 -0.06846789 0.07219872 -0.060261816
0.046443466 -0.0962628 0.1112415 -0.060093515 -0.10999528 0.18014276 -0.24270171 0.04420678
-0.036092855 -0.059916236 -0.009040841 0.006854126 0.26216424 -0.23822494 0.051794235 0.11272746
0.005662196 0.00024605513 0.008552871 0.22735962 -0.14084202 -0.011870945 -0.0027616667 0.04123921
0.046021335 0.11141841 0.28292683 0.078997985 -0.01235204 -0.027075777 0.03679647 0.0767535
0.016512124 -0.0497808 0.07627711 -0.0666091 -0.041670755 0.058908954 0.035702746 0.025456714
-0.06948197 0.09066853 0.03578866 -0.050693016 -0.053193763 -0.07930075 0.007404877 -0.08298647
0.026537722 0.022141727 -0.03687519 -0.031900756 -0.07542184 0.061967358 0.02519507 0.117491096
0.022316426 0.06122493 0.06338618 -0.06491072 -0.09689822 -0.04723927 0.11784921 -0.009104012
0.029427826 0.072744735 0.0061027477 -0.090760075 -0.035305265 0.011101038 -0.058114216 -0.106166236
-0.050445464 -0.03382641 0.0034214186 -0.013109713 -0.06376488 0.11714419 -0.09002949 -0.12056496
0.07195174 -0.0376763 0.1547966 -0.008337416 -0.020711925 -0.14686295 -0.069384314 0.10977188
0.06646473 0.1452063 -0.10341924 0.031466607 0.12941226 0.086689554 -0.06673539 -0.06949957
0.114926666 -0.111503914 0.066538505 0.08996721 -0.0063966964 -0.093827814 -0.15173532 0.11479549
0.042627413 0.03671471 0.037725627 -0.025243355 0.00065992615 0.045728676 0.17215368 -0.048289668
-0.0105357235 -0.019979402 0.029124074 0.055691034 -0.032294054 0.12528977 -0.0074071856 -0.00086262857
0.05349 0.0013280496 0.06273224 0.053165376 0.29428458 0.0434322 0.0025207405 0.0145439245
0.008472402 -0.012214408 0.0070204698 0.024581859 0.0045772213 -0.048513327 -0.035983995 0.041959263
00000000: 099e 3cbc af2b e83c 1d32 653d 408a c03c
00000010: 7c3e 863d 0190 4fbc 3047 a2bc 49c6 2ebb
00000020: 65b5 4f3d 6dcd 41bb 3967 9bbd a10a 9a3d
00000030: 8ae8 d53c 2a4b 00bd 5dbc 203d 2233 61bd
00000040: 4f83 50bb 5045 6bbc c353 9e3d 051a b53c
00000050: 9dce 4e3d d219 06bd 11b8 84bd 9fb0 f43d
00000060: f3b3 413e 2149 0f3d ca6e aebd 2f82 23bd
00000070: 129c 533d d808 a8bd 0021 a53b 2694 e8bb
00000080: b1be e6bd 5271 69bd 637e 973d 7a7d 1a3e
00000090: 3f58 903b c1ee 91bd 504e a8bd 0e2e 9ab9
000000a0: ebd6 0d3d 0d87 f13c 90d9 15bd b733 083d
000000b0: 9d8d 903d 671f 18bd 6bde 11bc 90ae 82bd
000000c0: 06e4 3dbd dd25 cebb 3470 ff3d 67f3 90bd
000000d0: 27cf 1ebc 4625 c43d 8f2f 173e 0519 373d
000000e0: 9e2c f83d 9dc7 e43d f0cd 5a3b 93a5 68bc
000000f0: 54f9 963d 69dd f43c f092 d93d ed7f 0a3e
00000100: f506 0cbe 01a9 c3bd 39dd 18be 5825 0bbe
00000110: e73b 16be fba3 ab3d 8ef1 513d d302 63be
00000120: 87d6 46be 67ec 21be 55bf 00bf dbc3 73bc
00000130: fdbe ce3d 78d1 233e df64 6e3a 261f 62bd
00000140: fa97 20be d1fe 3dbf 83af 84be 43f4 4c3d
00000150: 55f1 5f3d dfc3 723c 71df 0bbd 91c8 6abb
00000160: f3c1 7dbe e288 6abd 1ac5 193e b64a 9fbd
00000170: f986 8bbd 1008 123d 2bd3 223d 73ba 0ebc
00000180: 1be0 113d 6392 a33d fa7b 69be 1712 1d3d
00000190: e4f4 8f3b e46f b13c 8c89 9d3d 41fc f5bc
000001a0: 4879 c23e 8b2e 52be 50f4 3e3a 2808 553d
000001b0: 8b0f 683d 7318 d63d 0be8 d53c a4e1 f83d
000001c0: 6db3 fdbd 2016 80bd bea5 42be 0503 b83c
000001d0: 4798 efbd e538 8cbd ecdc 933d 18d5 76bd
000001e0: 813b 3e3d 6e25 c5bd 95d2 e33d 9e24 76bd
000001f0: 3545 e1bd 5877 383e cc86 78be 2b12 353d
00000200: 1ad6 13bd ba6a 75bd 0920 14bc 9498 e03b
00000210: 643a 863e 3df1 73be 3126 543d a8dd e63d
00000220: f189 b93b f600 8139 5721 0c3c f6d0 683e
00000230: e438 10be 5a7e 42bc 14fd 34bb 72ea 283d
00000240: de80 3c3d 562f e43d c9db 903e b2c9 a13d
00000250: 3660 4abc 05ce ddbc e5b7 163d f030 9d3d
00000260: 6f44 873c f4e6 4bbd 2c37 9c3d 5a6a 88bd
00000270: f4ae 2abd 844a 713d 0b3d 123d 998a d03c
00000280: 904c 8ebd 6cb0 b93d 2197 123d 7ba3 4fbd
00000290: b4e1 59bd 6e68 a2bd 9ca4 f23b cff4 a9bd
000002a0: a365 d93c 9162 b53c 700a 17bd 5eaa 02bd
000002b0: c476 9abd 7cd1 7d3d e465 ce3c 2c9f f03d
000002c0: f0d0 b63c fec6 7a3d 9dd0 813d e9ef 84bd
000002d0: 9372 c6bd f77d 41bd ed5a f13d fe28 15bc
000002e0: a012 f13c 31fb 943d 8ff9 c73b 6be0 b9bd
000002f0: 419c 10bd 21e1 353c 2c09 6ebd af6d d9bd
00000300: e79f 4ebd 908d 0abd e139 603b 1fca 56bc
00000310: 2997 82bd 4be9 ef3d 6261 b8bd c3ea f6bd
00000320: 6f5b 933d 7752 1abd 0083 1e3e a899 08bc
00000330: 0eac a9bc 3e63 16be 5d19 8ebd 14d0 e03d
00000340: a91e 883d f6b0 143e 77cd d3bd 21e3 003d
00000350: a684 043e 4b8a b13d 90ac 88bd ca55 8ebd
00000360: ac5e eb3d 2a5c e4bd 5745 883d bb40 b83d
00000370: 619b d1bb cc28 c0bd 8160 1bbe e619 eb3d
00000380: 159a 2e3d 2a62 163d 3086 1a3d 27cb cebc
00000390: e5fe 2c3a fe4d 3b3d 0e49 303e 63cb 45bd
000003a0: 079e 2cbc d8ab a3bc 9c95 ee3c 481c 643d
000003b0: c546 04bd f64b 003e fab7 f2bb 0622 62ba
000003c0: 5518 5b3d f311 ae3a c379 803d f0c3 593d
000003d0: 78ac 963e f6e5 313d 0233 253b a449 6e3c
000003e0: d4cf 0a3c f11e 48bc f80b e63b e55f c93c
000003f0: 84fc 953b e9b5 46bd f463 13bd 7add 2b3d
