DVCreimplement/examples/flow_pretrain_np/modelL6_F-4-weight.npy (npy, 100480 bytes, 1 tensors)

array f4 [16, 32, 7, 7]
0.041584343 0.052442346 0.0068783276 0.09005615 -0.0027909428 0.01951432 0.0037433547 0.05143284
0.027164921 0.0011313711 0.044422437 -0.023715107 0.011587672 0.013985795 0.00075774017 0.023380706
0.008674407 0.027939962 0.0347935 0.0116571905 -0.022525746 0.056012634 0.042194523 0.014548513
0.018047325 -0.006581649 0.044152588 0.07608655 0.043793216 0.034718685 0.038331665 0.07570914
-0.027619943 -0.022677299 0.007864851 0.031480826 0.0114665 0.020756042 0.07790532 0.014273198
0.036585175 -0.02968749 -0.03193433 0.0472054 0.011922682 -0.008575995 -0.02973752 0.047108058
0.016856251 -0.0037792278 0.05733565 -0.04464079 0.029045928 -0.0024176883 -0.017864527 -0.1106658
0.029756319 -0.0291321 -0.00530797 -0.0033433037 0.007895067 -0.10028318 0.035524607 -0.188703
-0.030360717 0.060084566 0.02387734 -0.025614284 -0.022160241 -0.08316981 0.09772647 0.052864768
0.11350294 0.045318414 -0.018521383 0.036568556 0.036546662 -0.15207924 -0.19680217 0.1636748
-0.0464081 -0.012840996 -0.010385546 -0.037731025 0.037925303 -0.11909011 0.09538006 -0.007936385
-0.086672574 0.048566632 0.025413416 -0.060200356 0.035276245 -0.0043630507 0.054210346 0.02733393
-0.06693839 -0.056349073 -0.0067581376 1.7849748e-05 -0.0019147351 -0.04563057 -0.04047728 0.01276226
-0.022328144 0.083809875 -0.014479589 -0.018427668 0.024022682 -0.009632813 0.0060054236 0.010174763
0.032521985 -0.009758061 0.037125263 0.029466055 0.0160581 0.018714419 0.012148722 -0.16126356
0.022808647 0.018966632 0.0065752524 -0.036184743 0.005796803 -0.021689475 -0.15135518 0.07401748
0.028778568 0.009294757 -0.011766429 -0.0042749667 -0.02757211 -0.03923635 -0.07489135 -0.004383414
-0.024249965 -0.041458298 0.003674024 -0.061718795 0.17369749 -0.019418018 -0.029165838 0.00789189
0.012478873 0.054600444 -0.0070065903 0.060919777 0.033886965 0.020199183 0.056900356 0.031429645
0.008940943 0.036195174 0.024032716 0.010032777 0.03039813 0.039627157 0.013366403 0.016721584
0.040209416 -0.0027454982 0.03326733 0.029190592 0.052878432 0.032977846 0.04712919 0.047569364
0.0446444 0.034035973 0.02856779 0.09670809 0.038485933 0.016437724 0.0058711604 0.0118680885
0.012748397 -0.022886029 0.086521044 0.02437582 -0.022864062 0.027694682 0.027622625 0.04856547
0.006512678 0.087428875 -0.026765758 -0.022830294 0.030518096 0.06713822 0.05779036 -0.017374814
0.02069208 -0.0065187165 0.047809202 0.031060327 -0.05604035 -0.06251995 -0.13454853 -0.037193675
-0.08375923 -0.057196807 -0.072746426 0.008948213 0.012665113 0.0045389403 0.07426922 0.050435036
0.013715678 0.018721864 -0.034455176 -0.012361732 0.03369736 0.05760558 -0.014419123 0.0023835895
-0.05100803 -0.015676994 0.03791634 0.0846358 0.06643113 -0.0039945 0.045073614 0.055023704
-0.014827629 0.011135418 0.023089904 -0.02290713 -0.042611916 0.012300179 -0.034715846 -0.04139567
0.06734601 0.010533867 -0.039955396 -0.06878018 -0.009396324 -0.030429065 -0.056163147 -0.055196542
-0.040129874 -0.007917387 -0.004894274 -0.010306497 -0.022306198 -0.4382172 0.0054516885 -0.09127099
-0.05126014 -0.035583682 -0.009176869 -0.105417185 -0.075788856 0.08461094 -0.0070540323 0.031249413
00000000: 5854 2a3d c9cd 563d 9863 e13b 5c6f b83d
00000010: 40e8 36bb 7fdc 9f3c 1253 753b 3eab 523d
00000020: f888 de3c 844a 943a 4df4 353d 2f46 c2bc
00000030: 38da 3d3c ad24 653c 15a3 463a e588 bf3c
00000040: 1a1f 0e3c 59e2 e43c a183 0e3d cdfd 3e3c
00000050: ea87 b8bc 816d 653d 2ad4 2c3d e35c 6e3c
00000060: fcd7 933c e0aa d7bb 58d9 343d 44d3 9b3d
00000070: 8460 333d 2e35 0e3d aa01 1d3d 650d 9b3d
00000080: 3843 e2bc bec5 b9bc 93db 003c 0af2 003d
00000090: fddd 3b3c 9308 aa3c d38c 9f3d 22da 693c
000000a0: 56da 153d 2e33 f3bc 92cd 02bd 735a 413d
000000b0: 5a57 433c 5582 0cbc 199c f3bc 61f4 403d
000000c0: 1f16 8a3c ecac 77bb c9d8 6a3d 43d9 36bd
000000d0: baf1 ed3c 1472 1ebb a158 92bc c0a4 e2bd
000000e0: 86c3 f33c 71a6 eebc 7bee adbb 541b 5bbb
000000f0: 505a 013c 4561 cdbd 4082 113d 5c3b 41be
00000100: 0ab7 f8bc 3c1b 763d 699a c33c 0cd5 d1bc
00000110: 6589 b5bc ef54 aabd d124 c83d ba88 583d
00000120: 3b74 e83d cd9f 393d 28ba 97bc e9c8 153d
00000130: f4b1 153d a9ba 1bbe 8286 49be 5e9a 273e
00000140: 6b16 3ebd 0a63 52bc 2328 2abc d98b 1abd
00000150: 9057 1b3d 84e5 f3bd 9f56 c33d 9d07 02bc
00000160: 6481 b1bd ceed 463d cc2f d03c a694 76bd
00000170: d37d 103d ecf7 8ebb ab0b 5e3d 68eb df3c
00000180: ff16 89bd 49ce 66bd 5e73 ddbb 0bbc 9537
00000190: d9f7 faba 1fe7 3abd 81cb 25bd cc18 513c
000001a0: 83e9 b6bc 83a4 ab3d cc3b 6dbc 9ff5 96bc
000001b0: 37cb c43c f2d2 1dbc 25c9 c43b 0db4 263c
000001c0: c635 053d 46e0 1fbc a910 183d cc62 f13c
000001d0: 478c 833c fb4e 993c 6f0b 473c 4622 25be
000001e0: 33d9 ba3c e95f 9b3c 3775 d73b 7436 14bd
000001f0: 1cf3 bd3b 20ae b1bc dafc 1abe 7a96 973d
00000200: 08c1 eb3c 0949 183c fbc7 40bc 0515 8cbb
00000210: e8de e1bc 4cb6 20bd a360 99bd bea2 8fbb
00000220: dda7 c6bc 2dd0 29bd e5c7 703b d9cc 7cbd
00000230: c1dd 313e 8912 9fbc 32ed eebc fc4c 013c
00000240: 3074 4c3c b7a4 5f3d 8a97 e5bb 0487 793d
00000250: 0fcd 0a3d c278 a53c 5910 693d 5fbc 003d
00000260: 087d 123c 6441 143d 42e0 c43c 8460 243c
00000270: 8005 f93c 1650 223d c2fe 5a3c b4fb 883c
00000280: a1b2 243d d1ed 33bb 5343 083d 1c21 ef3c
00000290: 0e97 583d c713 073d 8a0a 413d 18d8 423d
000002a0: 0cdd 363d 4e69 0b3d ff06 ea3c e40e c63d
000002b0: 6da3 1d3d 68a8 863c dd62 c03b 5f72 423c
000002c0: a7de 503c 7b7b bbbc f231 b13d cdaf c73c
000002d0: 6a4d bbbc f5df e23c d848 e23c 96ec 463d
000002e0: 4e68 d53b e90d b33d dd43 dbbc 9906 bbbc
000002f0: 1601 fa3c c37f 893d 96b5 6c3d a055 8ebc
00000300: 7082 a93c f59a d5bb 95d3 433d 3a72 fe3c
00000310: 918a 65bd 760a 80bd 17c7 09be 6558 18bd
00000320: f689 abbd 3347 6abd 14fc 94bd 879b 123c
00000330: 5681 4f3c 64bb 943b 761a 983d f894 4e3d
00000340: b9b7 603c 985e 993c df20 0dbd dd88 4abc
00000350: 3e06 0a3d d4f3 6b3d 2f3e 6cbc ff35 1c3b
00000360: cced 50bd 0a6d 80bc 2a4e 1b3d 8955 ad3d
00000370: 0b0d 883d 4be4 82bb 1c9f 383d 8960 613d
00000380: 95ef 72bc 5471 363c 0a27 bd3c bca7 bbbc
00000390: d589 2ebd b186 493c 3432 0ebd 828e 29bd
000003a0: b4ec 893d 3e96 2c3c 45a8 23bd 9fdc 8cbd
000003b0: 0af3 19bc 6046 f9bc 540b 66bd c515 62bd
000003c0: 395f 24bd eeb7 01bc 2560 a0bb 95dc 28bc
000003d0: 7dbb b6bc 015e e0be 14a4 b23b 49ec babd
000003e0: 27f6 51bd 32c0 11bd 945a 16bc f7e4 d7bd
000003f0: 3037 9bbd 8048 ad3d 8325 e7bb c5fe ff3c
