DVCreimplement/examples/flow_pretrain_np/modelL2_F-3-weight.npy (npy, 401536 bytes, 1 tensors)

array f4 [32, 64, 7, 7]
0	0xbc806e50	-0.015677601
1	0xbc9944bf	-0.018709539
2	0x3c0142ce	0.007889463
3	0x3ad3b9d1	0.00161534
4	0x3c8c6878	0.017139658
5	0xbca89aef	-0.02058169
6	0x3c931bc7	0.017957581
7	0xbad4fb46	-0.0016249202
8	0x3ccd71d7	0.025078697
9	0x3cd8c80f	0.026462583
10	0xbcbfbde1	-0.023405971
11	0x3d3aaac6	0.04557302
12	0x3c55aa7c	0.013041135
13	0xbd263842	-0.040580995
14	0xbd792c8c	-0.0608335
15	0xbdbf85b7	-0.09351676
16	0x3c8d7541	0.017267825
17	0x3d3bba5b	0.04583202
18	0x3d970447	0.07373863
19	0x3d17e6cf	0.03708535
20	0xbc863d63	-0.016386693
21	0xbd783f46	-0.060607217
22	0xbd0788f0	-0.03308958
23	0x3dda9fd0	0.10675013
24	0x3e58d472	0.21174791
25	0x3d9e7a9b	0.07738229
26	0xbcd2d224	-0.025734968
27	0xbd059f1b	-0.032622438
28	0x3d9baf2d	0.076017715
29	0xbd552f27	-0.05204692
30	0xbd74e670	-0.059790075
31	0xbc5a17f4	-0.013311375
32	0xbd5da9f9	-0.054117177
33	0xbd83ba96	-0.06432073
34	0x3c59f2cb	0.013302515
35	0x3d8dee31	0.06930197
36	0xbd10c217	-0.03534135
37	0xbdd592c0	-0.10428381
38	0xbd001ffa	-0.031280495
39	0x3d1e4e98	0.03864917
40	0x3d07cfdd	0.03315722
41	0x3d5f108f	0.05445915
42	0xbcabb359	-0.020959543
43	0x3c7f9089	0.015598425
44	0x3dc38b26	0.09548025
45	0x3d959b9c	0.07305071
46	0x3d2e87d4	0.042610005
47	0xbca65d60	-0.020308197
48	0xb78fa32f	-1.7122917e-05
49	0xbbe35c00	-0.0069384575
50	0x3d9ed480	0.07755375
51	0xbd9203b0	-0.071296096
52	0xbbbf1452	-0.00583128
53	0x3e128f62	0.14312509
54	0x3cebf120	0.0288015
55	0x3d6b9a6f	0.057520326
56	0x3c9c331c	0.01906734
57	0xbd054efa	-0.03254602
58	0xbdea31d3	-0.114352845
59	0xbd51f83c	-0.051262125
60	0x3d96b7e9	0.07359297
61	0xbda631fe	-0.08115004
62	0x3cb1ecc1	0.021719338
63	0x3da6b98a	0.081408575
64	0xbd1ad31b	-0.037798982
65	0xbd61ea1c	-0.055154905
66	0xbd9e087f	-0.07716464
67	0xbc479a32	-0.012182759
68	0xbdbd293e	-0.09236382
69	0x3c915344	0.0177399
70	0xbdd1fd53	-0.10253396
71	0xbd9f1155	-0.07766978
72	0xbd87a07b	-0.06622406
73	0xbd0f5ce2	-0.03500069
74	0xbd4bbcd6	-0.049740635
75	0x3c067815	0.008207341
76	0xbc27941e	-0.010228185
77	0x3d031949	0.032006536
78	0x3e029c85	0.1275502
79	0x3d193a1f	0.037408944
80	0xbda0bd0a	-0.07848556
81	0xbe507802	-0.2035828
82	0xbcd03a43	-0.025418406
83	0xbcfff8cd	-0.031246567
84	0xbd44af5a	-0.04801879
85	0x3b7ebdd9	0.0038870482
86	0xbd0461fc	-0.032320008
87	0xbd568a4a	-0.052377976
88	0xbe1d8c33	-0.15385513
89	0xbd521960	-0.05129373
90	0x3c84ff04	0.016234882
91	0xbe1c9e2f	-0.15294717
92	0xbd821c39	-0.06353039
93	0x3cb2965b	0.02180021
94	0x3d68d61d	0.05684482
95	0x3d80c85f	0.06288218
96	0x3d0587a8	0.032600075
97	0x3ca5ecf7	0.020254595
98	0xbdb26c32	-0.08712043
99	0x3d8e4017	0.06945818
100	0x3d5f7e62	0.054563887
101	0x3c2862ea	0.010277489
102	0x3d9e37fc	0.07725522
103	0x3ca50217	0.020142598
104	0x3deab4c7	0.11460262
105	0xbe0e6e00	-0.13909149
106	0xbdc0c386	-0.09412293
107	0xba95889b	-0.001140851
108	0x3cb657e8	0.022258714
109	0x3da21f8f	0.079161756
110	0x3dc3391a	0.09532376
111	0x3cad207c	0.021133654
112	0xbd80c991	-0.06288446
113	0xbe1b8157	-0.15186058
114	0xbe3cc021	-0.18432666
115	0xbce62094	-0.028091706
116	0xbdf4fcb6	-0.11962263
117	0x3c64ff07	0.013976819
118	0x3cb42e77	0.021994812
119	0x3d79e304	0.061007515
120	0x3c2e32d2	0.010632234
121	0xbdcfd09c	-0.10147211
122	0x3e1349f8	0.14383686
123	0xbd7a8c91	-0.06116921
124	0x3aff3a22	0.0019472281
125	0x3dde3731	0.10850371
126	0xbdf320dc	-0.11871502
127	0x3d85647f	0.06513309
128	0xbc1324f2	-0.008980976
129	0x3d0b5ae4	0.034022227
130	0x3d7f6904	0.06235601
131	0x3dc6a979	0.09700293
132	0x3e1b97c1	0.15194608
133	0xbdbc7871	-0.0920266
134	0x3c67cc9d	0.014147905
135	0x3dc4eef7	0.096158914
136	0x3d5166b6	0.051123343
137	0x3d6805ee	0.05664628
138	0x3c21c9c7	0.009874768
139	0x3d65d305	0.056109447
140	0x3db8a22b	0.09015306
141	0xbb0a7f9b	-0.0021133188
142	0xbcafee9d	-0.021476084
143	0x3d3564e6	0.044285677
144	0x3c9d223a	0.01918136
145	0x3db4f0ff	0.08835029
146	0x3de79846	0.11308341
147	0xbd8642a6	-0.06555681
148	0xbc902149	-0.017593997
149	0x3c74db82	0.014944913
150	0xbc94e97d	-0.018177742
151	0x3d81f7d3	0.06346097
152	0x3d2c0c5a	0.042003967
153	0x3d107533	0.03526802
154	0xbceca5f0	-0.028887719
155	0xbcde69c4	-0.027150042
156	0x3ce6b07f	0.028160332
157	0x3ced99d8	0.029004022
158	0x3da363c9	0.07978017
159	0x3e0124ab	0.12611644
160	0x3d320015	0.04345711
161	0x3d7c96c9	0.061667237
162	0x3cf0f344	0.029412873
163	0xbd4c5b0c	-0.049891517
164	0xbe143625	-0.1447378
165	0xbda036a1	-0.0782292
166	0x3dacdadf	0.08440184
167	0x3d1df572	0.038564153
168	0x3d16d625	0.036825318
169	0x3bfaa674	0.0076492373
170	0x3c854fa9	0.016273336
171	0xbd04914a	-0.03236512
172	0xbca439c2	-0.020047072
173	0x3de7a0bd	0.11309955
174	0x3df437c6	0.119247004
175	0x3d3e1007	0.046402004
176	0xbc28bb01	-0.010298491
177	0x3d715827	0.05892196
178	0x3c88af0f	0.016685037
179	0xbd1ad3bf	-0.037799593
180	0xbdd1eb95	-0.10250012
181	0xbd3272ac	-0.04356639
182	0x3dd5bc9d	0.10436366
183	0x3caea118	0.02131705
184	0x3df5fbc5	0.12010912
185	0x3d9a388d	0.075303175
186	0xbc9f2a10	-0.019429237
187	0xbe085cbb	-0.13316624
188	0x3c97bfde	0.018524107
189	0xbd01e412	-0.031711645
190	0x3b979a60	0.004626557
191	0x3d205eff	0.039153095
192	0xbc0d2b1a	-0.008616233
193	0xbd61e1d7	-0.05514702
194	0xbb6a4441	-0.003574625
195	0x3e0f9dff	0.14025114
196	0xbcf485bb	-0.029848924
197	0x3db87d84	0.09008315
198	0xbcbbd2b5	-0.022927621
199	0xbd9d0c50	-0.07668364
200	0x3d211d25	0.039334435
201	0xbcd8d66c	-0.026469432
202	0x3d09e9de	0.0336703
203	0x3ba20a1e	0.0049450537
204	0xbcc1ee1d	-0.023673112
205	0xbd89a14e	-0.067202196
206	0xbc4b86f1	-0.012422309
207	0x3d93d8f3	0.07219114
208	0x3c89be11	0.016814264
209	0x3cafedc4	0.02147568
210	0x3c3395d4	0.010961015
211	0x3cbcd2bc	0.023049705
212	0x3d08afe4	0.033370867
213	0x3cb6f21c	0.022332244
214	0x3cd60232	0.026124094
215	0x3ce24480	0.027620554
216	0x3c0d7c7f	0.008635639
217	0xbd614b5d	-0.055003513
218	0x3da6a2a3	0.08136489
219	0x3cc18d0f	0.023626832
220	0xbd22c3d9	-0.039737556
221	0x3d13baa4	0.036066666
222	0x3951322e	0.00019950487
223	0x3d4c405b	0.04986606
224	0x3d03802e	0.032104664
225	0x3d5ab64a	0.0533965
226	0x3da81361	0.08206821
227	0xbc85497a	-0.016270388
228	0x3bd2b374	0.006430084
229	0x3ce7b238	0.028283224
230	0x3d188e6e	0.037245207
231	0xbc71e706	-0.014764553
232	0xbc0214c4	-0.007939521
233	0x3d0aac39	0.03385565
234	0x3d7b6c9c	0.061382875
235	0x3d1a661c	0.037695035
236	0xbd86f299	-0.065892406
237	0xbc5d9380	-0.013523936
238	0x3d1a95ab	0.03774039
239	0xbce34c60	-0.02774638
240	0x3d19c944	0.037545457
241	0xbca3e456	-0.02000634
242	0x3c0f2a38	0.008738093
243	0xbd04f37a	-0.03245876
244	0x3d734232	0.0593893
245	0x3ceb5de1	0.028731288
246	0xbd06a591	-0.03287274
247	0x3cc575f8	0.024104103
248	0xbc5f1135	-0.013614942
249	0x396ef8e2	0.00022790165
250	0xb84810a5	-4.7699217e-05
251	0x3cbf4f62	0.023353282
252	0x3c905586	0.017618906
253	0xbd07272d	-0.032996345
254	0x3c0f8ad2	0.008761125
255	0x3cdf2fba	0.027244437
