DVCreimplement/examples/flow_pretrain_np/modelL2_F-4-weight.npy (npy, 100480 bytes, 1 tensors)

array f4 [16, 32, 7, 7]
0	0x3d4b7031	0.04966754
1	0x3ce9a331	0.028520199
2	0xbc4a6a42	-0.012354435
3	0x3d74869a	0.05969868
4	0xbc6ecea5	-0.014575635
5	0x3d236127	0.039887574
6	0x3d1b8634	0.037969783
7	0x3d7cba3c	0.061701044
8	0x3a124443	0.000557963
9	0xbd08c07d	-0.033386696
10	0x3c55928a	0.013035426
11	0xbd07066a	-0.0329651
12	0x3c69220f	0.014229312
13	0x3d0908d8	0.0334557
14	0x3c4e8c0b	0.012606631
15	0x3c20b81e	0.009809522
16	0xbc514c43	-0.01277453
17	0x3be85e3e	0.0070913127
18	0x3cc1de66	0.023665618
19	0x3a655c55	0.0008749415
20	0x3ba79938	0.0051147006
21	0x3d9a0503	0.07520487
22	0x3d2fb18b	0.042893928
23	0xbc16ec7c	-0.009211656
24	0x3c6eade0	0.014567822
25	0xbb9e29b3	-0.0048267483
26	0x3d172e24	0.036909238
27	0x3dbedcdc	0.09319469
28	0x3dc2572b	0.09489282
29	0x3d94eaac	0.072713226
30	0x3c918655	0.01776425
31	0x3dab39c2	0.08360626
32	0x3c22bb93	0.0099324165
33	0x399150ef	0.00027716855
34	0x3d410486	0.047123455
35	0x3cb67207	0.02227117
36	0xbbab391b	-0.0052253134
37	0xbc2bc791	-0.010484592
38	0x3d81ed9b	0.06344148
39	0x3cdf0024	0.027221747
40	0x3d4b1ab4	0.049586013
41	0x3c54eb61	0.012995572
42	0xbd42c9fa	-0.0475559
43	0x3c5bf44e	0.013424946
44	0x3a3d694e	0.00072254695
45	0xbbdb7ae9	-0.0066980016
46	0xbb82da6d	-0.0039933235
47	0x3d7091a3	0.05873264
48	0x3d83b1be	0.06430386
49	0xbd2bd6f0	-0.041953027
50	0xbc2f31dc	-0.01069304
51	0xbd994454	-0.07483736
52	0x3d91e397	0.071234874
53	0x3b527a9f	0.0032116545
54	0xbc61cf4e	-0.013782335
55	0xbd1dd766	-0.038535498
56	0x3d2e84df	0.042607184
57	0xbcc341a1	-0.023835005
58	0xbbbc131b	-0.0057395822
59	0x3d332223	0.043733727
60	0x39a6baea	0.0003180125
61	0xbdbd7c59	-0.09252233
62	0x3df33d1a	0.118768886
63	0xbdf771e4	-0.1208227
64	0x3cf08597	0.029360576
65	0x3d4bc26b	0.04974596
66	0x3d9f83a1	0.07788778
67	0xbc0ae5f7	-0.008477679
68	0xbba5a388	-0.005054895
69	0xbcd92b4a	-0.0265099
70	0x3ddc02e8	0.10742742
71	0x3d6e31b9	0.058152888
72	0x3c717707	0.014737851
73	0x3d8d0d5a	0.06887312
74	0xbc6af94e	-0.014341665
75	0x3d05460b	0.0325375
76	0x3d81e3cc	0.06342277
77	0xbe10853d	-0.14113326
78	0xbe1566b7	-0.14589964
79	0x3cdbe30b	0.026841661
80	0xbc1034f7	-0.00880169
81	0x3cd0f87c	0.025509112
82	0xbc7f3c2a	-0.015578309
83	0xbd0a66d3	-0.033789467
84	0xbcc2d1b7	-0.02378164
85	0xbba96f53	-0.0051707416
86	0x3b93a24d	0.0045054317
87	0x3d0fe443	0.035129797
88	0xbd03f6b2	-0.03221769
89	0x3d723ccf	0.059140023
90	0x3d7de5b8	0.061986655
91	0xbebb7c67	-0.3661835
92	0x3c8a0117	0.016846223
93	0xbd86553c	-0.06559226
94	0x3d67c519	0.05658445
95	0x3b4619be	0.0030227746
96	0xbde273ee	-0.11057268
97	0xbc8564a6	-0.016283344
98	0x3d85a550	0.065256715
99	0x3cae377b	0.02126669
100	0x3d39a966	0.045327567
101	0xbc0ab765	-0.008466576
102	0x3b272abf	0.0025507656
103	0x3d0ff816	0.035148703
104	0x3c7c020b	0.015381346
105	0x3d7aeef7	0.06126305
106	0xbca997ab	-0.020702204
107	0x3ad23d7c	0.0016040052
108	0x3cbfd474	0.023416735
109	0xbc8db002	-0.017295841
110	0x3b9a779e	0.0047139665
111	0x3bffcf5b	0.007806701
112	0x3b4b5ce2	0.0031030704
113	0x3b0e7e02	0.0021742587
114	0xbc062a73	-0.008188832
115	0xbbbd4ea8	-0.005777199
116	0xbccd862b	-0.02508839
117	0xbbdb5de4	-0.0066945422
118	0xbcc3ea3b	-0.0239154
119	0xbd8219f9	-0.0635261
120	0x3b8b1cdf	0.004245385
121	0xbd1cb303	-0.038256656
122	0xbb8e0bca	-0.0043349015
123	0xbd2b5a48	-0.041834146
124	0x3c6b0574	0.014344562
125	0xbc9d1f5f	-0.019179998
126	0xbd41aba2	-0.047282822
127	0xbbd167c7	-0.006390545
128	0xbd14ab32	-0.036296077
129	0xbb985f34	-0.004650021
130	0xbc9b4410	-0.018953353
131	0xbcc2bdeb	-0.0237722
132	0x3bb13c2e	0.0054087853
133	0xbc6403f9	-0.013916963
134	0xbda868e9	-0.08223135
135	0xbb96cb23	-0.0046018525
136	0xbbc74b1e	-0.0060819527
137	0xbcedd69b	-0.029032996
138	0xbc993962	-0.01870412
139	0xbca068cd	-0.019581223
140	0x3e07f8c9	0.13278498
141	0xbcd0e88a	-0.025501508
142	0xbd01ee4a	-0.03172139
143	0x3ca2f6a3	0.019892996
144	0x3c592da9	0.013255515
145	0x3cbeda4d	0.023297453
146	0x3c949ab5	0.018140176
147	0x3d3a1c5b	0.045437198
148	0x3c8599bd	0.01630866
149	0x3c27fe6a	0.010253528
150	0x3d293a3c	0.041315302
151	0x3c923e05	0.017851839
152	0x3cb14c5f	0.021642862
153	0x3dc12b70	0.09432113
154	0x3d355a81	0.044275764
155	0x3c390d83	0.011294725
156	0x3c7fb09c	0.015606072
157	0x3cba4e7f	0.022742508
158	0x3b176c21	0.0023105221
159	0xbb85cc4c	-0.004083192
160	0x3d3706b3	0.044684123
161	0xbb02511c	-0.001988477
162	0x3b1f40de	0.0024300138
163	0xbc4f7a35	-0.012663414
164	0x3c741787	0.0148981875
165	0x3c75cfd5	0.015003164
166	0x3c8b303f	0.016990779
167	0x3d37bf1f	0.04486
168	0x3d2d222c	0.042268917
169	0x3cb860fe	0.022507187
170	0x3b33c79b	0.0027432207
171	0x3d23146c	0.039814398
172	0x3d61c8fc	0.055123314
173	0x3d36a577	0.044591393
174	0x3d13353d	0.035939444
175	0xbc8aa09b	-0.016922286
176	0xbc27010a	-0.010193119
177	0xbceb7842	-0.028743867
178	0x3cbe1ab2	0.023206089
179	0x3d6b6353	0.05746777
180	0x3c181d41	0.009284318
181	0x3d32a99b	0.04361878
182	0x3a9ec7cc	0.0012113987
183	0x3cd691e1	0.026192607
184	0x3c465eb4	0.01210754
185	0x3d857f61	0.06518436
186	0x3c755e16	0.014976045
187	0x3b46396d	0.003024663
188	0x3d5acaef	0.05341619
189	0x3bf513ce	0.0074791675
190	0x3cbfef60	0.023429573
191	0x3b7859be	0.0037895287
192	0x3c86e990	0.016468793
193	0x3c0e6a40	0.008692324
194	0x3d16b944	0.036797777
195	0x3ce03f6f	0.027373997
196	0x3b801a2e	0.003909371
197	0x3cd2d928	0.025738314
198	0xbd649a3f	-0.055811163
199	0x3cbd708c	0.023124956
200	0xbd15fabe	-0.03661608
201	0x3c070583	0.00824106
202	0x3cb1d5bd	0.021708364
203	0xbc07640e	-0.008263601
204	0xbb5a2966	-0.0033288836
205	0xbcf10910	-0.029423267
206	0x3cc7fe32	0.024413202
207	0x383b435f	4.464702e-05
208	0xbbc67cd9	-0.0060573635
209	0x3cde596f	0.027142255
210	0xbc9d0492	-0.019167218
211	0xbc99489a	-0.018711377
212	0xbbee5f9f	-0.0072745825
213	0x3c88a684	0.016680963
214	0xbd0e83f7	-0.03479382
215	0x3b90aeac	0.0044153538
216	0xbc98a796	-0.018634599
217	0x3c088786	0.008333093
218	0x3d2068bb	0.03916238
219	0x3d34382e	0.04399889
220	0x3d55393a	0.05205653
221	0xbb360b6a	-0.00277778
222	0x3d08bee6	0.03338518
223	0x3d87f1c0	0.06637907
224	0x3cb5aa06	0.0221758
225	0x3ca3f8c1	0.020016076
226	0x3c925a83	0.017865425
227	0x3c0bc468	0.008530714
228	0xbb282d6a	-0.0025661835
229	0x3d1772a9	0.036974583
230	0xbb16fd47	-0.0023039149
231	0x3b930cbc	0.004487602
232	0x3d952bed	0.07283769
233	0x3c9f900f	0.019477872
234	0xbd1d657f	-0.038426872
235	0xbd969cc5	-0.0735412
236	0xbc6b3abf	-0.014357268
237	0xbcd71db4	-0.02625928
238	0xbc604e52	-0.013690548
239	0xbd846ad2	-0.06465687
240	0xbce2835b	-0.027650526
241	0xbc2e0004	-0.010620121
242	0xbbfe8c8e	-0.0077682203
243	0x3beb7344	0.0071853716
244	0x3c54cabb	0.012987788
245	0xbf63bc63	-0.8895933
246	0xbdc1808e	-0.09448348
247	0xbdbb9c06	-0.091606185
248	0xbde7ee9c	-0.11324808
249	0xbd81d6e4	-0.06339815
250	0xbe0e05a5	-0.1386934
251	0xbf085cca	-0.53266585
252	0xbd50a3e9	-0.050937567
253	0x3e165eff	0.14684676
254	0x3d917fec	0.07104477
255	0x3d8aa74f	0.06770193
